model/model.pth (torch, 31552 bytes, 4 tensors)

linear1.weight f4 [256, 19]
0	0x3ddd352d	0.10801158
1	0x3e37d7aa	0.17953363
2	0x3d5f3f7a	0.054503895
3	0x3e2a26c9	0.16616358
4	0xbe69b444	-0.22822672
5	0x3e150776	0.14553627
6	0xbe2472e7	-0.16059457
7	0xbcc90026	-0.024536204
8	0x3e084607	0.13307963
9	0xbe75889a	-0.2397789
10	0x3e13bdc3	0.14427857
11	0x3e3488ee	0.1763036
12	0x3e271d58	0.16319788
13	0x3e192823	0.14956717
14	0xbdf41add	-0.11919186
15	0xbe05f587	-0.13081942
16	0xbe5a059f	-0.21291207
17	0xbdfddca8	-0.123956025
18	0xbdad76c1	-0.08469916
19	0x3e26b14b	0.1627857
20	0xbdff328f	-0.12460815
21	0xbdcf6404	-0.10126498
22	0xbd8c0e24	-0.068386346
23	0xbda8d9cc	-0.082446665
24	0x3e4bb159	0.19891872
25	0xbe5e63b7	-0.21717726
26	0x3e3620fb	0.17786019
27	0xbd3f48ac	-0.046700165
28	0xbdb697f4	-0.089157015
29	0xbde2fddf	-0.11083578
30	0xbe3ec783	-0.18630795
31	0x3d128e04	0.035779968
32	0xbdfc2432	-0.12311591
33	0xbe4f8fd1	-0.20269705
34	0xbe406eaf	-0.18792222
35	0x3e246c5f	0.16056965
36	0xbe047e8e	-0.12938902
37	0x3d059a94	0.03261812
38	0xbd6dd27b	-0.058062058
39	0xbd4e790a	-0.0504084
40	0xbe1798c5	-0.1480437
41	0xbe14156a	-0.14461294
42	0x3de576f6	0.112043306
43	0x3e1b6d91	0.15178515
44	0x3e4befa6	0.19915637
45	0xbd9e120b	-0.07718285
46	0xbdeb0616	-0.1147577
47	0xbc6b469c	-0.014360096
48	0xbe2934c2	-0.16524032
49	0x3d637321	0.055529717
50	0x3c683795	0.014173408
51	0xbe2dd97e	-0.16977498
52	0xbdb2db4e	-0.08733235
53	0x3ddd3769	0.10801584
54	0x3e2960f5	0.16540892
55	0x3dc366b0	0.095410705
56	0x3bc0ebc3	0.00588748
57	0x3d81aab6	0.06331389
58	0xbe6f3dce	-0.2336342
59	0xbe4d8c78	-0.20073116
60	0x3d5723c9	0.05252436
61	0x3e4d66a5	0.20058687
62	0xbbee3afc	-0.007270215
63	0x3dce74ab	0.100808464
64	0x3dbdf7ce	0.092757806
65	0xbbce3f18	-0.0062941425
66	0xbdee60ff	-0.11639594
67	0xbd5fa648	-0.054601938
68	0x3da169f5	0.07881538
69	0xbd7a6533	-0.061131667
70	0x3de43ec1	0.11144782
71	0xbe700039	-0.23437585
72	0xbe091867	-0.13388215
73	0xbdd1e63b	-0.10248991
74	0xbd8cdac7	-0.06877666
75	0xbe23e3b9	-0.16004838
76	0xbe1c0b0d	-0.1523859
77	0xbe0f5614	-0.1399768
78	0xbdd74914	-0.105119854
79	0x3e082a22	0.13297322
80	0xbc3d51ce	-0.011555148
81	0xbe4be992	-0.19913319
82	0xbd83ddfb	-0.06438824
83	0xbe5a745e	-0.21333453
84	0xbe3df800	-0.18551636
85	0x3d0ce2e1	0.034396056
86	0x3df9bc7c	0.12194154
87	0xbd4c949a	-0.049946405
88	0x3e1f4be2	0.15556291
89	0xbd9b5242	-0.07584049
90	0xbe3feba9	-0.18742241
91	0xbdf6f110	-0.12057698
92	0xbd97aebd	-0.074063756
93	0x3e4d25a3	0.20033889
94	0x3e30ebb9	0.17277421
95	0xbe1c4ad0	-0.15262914
96	0x3e16d655	0.14730199
97	0xbd680e79	-0.056654427
98	0x3df77322	0.12082507
99	0x3cd6577d	0.026164765
100	0xbe470b05	-0.19437797
101	0x3c0b4aa7	0.008501685
102	0xbdfa55f5	-0.12223426
103	0xbe2e3420	-0.17012072
104	0xbd3daa73	-0.04630513
105	0xbdba68d8	-0.091020286
106	0x3d5fa4ee	0.05460065
107	0xbd6bf50b	-0.057606738
108	0x3dd9d44d	0.10636196
109	0xbd1dc30a	-0.038516082
110	0xbdd6a7fa	-0.10481258
111	0x3e05b178	0.1305598
112	0x3db738c5	0.08946375
113	0x3b89185f	0.0041838135
114	0x3d822761	0.06355167
115	0x3e0e7eb7	0.13915525
116	0xbe5d0b4d	-0.21586342
117	0xbe2a0700	-0.16604233
118	0x3e125acb	0.14292447
119	0x3dd33a73	0.10313883
120	0x3d019cb2	0.031643577
121	0x3dd8fb7d	0.105948426
122	0x3e334caf	0.17509721
123	0xbd8b548b	-0.06803235
124	0x3d90d691	0.07072175
125	0xbe794635	-0.24343188
126	0x3e4606ce	0.19338533
127	0x3e3592bc	0.17731756
128	0xbe2a7e9f	-0.16649865
129	0x3dd16933	0.10225143
130	0x3e07989e	0.13241813
131	0x3e29ffca	0.16601482
132	0x3cda0e22	0.026618067
133	0xbe4e5636	-0.20150074
134	0xbd53b6c1	-0.05168796
135	0x3dc7af7a	0.097502664
136	0xbcc7ef3e	-0.024406072
137	0x3d77fa30	0.06054133
138	0xbe4cc77c	-0.19997972
139	0xbe3e07bc	-0.18557638
140	0xbd72db03	-0.059290897
141	0xbda01c3e	-0.07817887
142	0x3daf5fc7	0.0856319
143	0x3e54ee43	0.20794015
144	0xbe4d8478	-0.20070064
145	0xbd366aac	-0.044535324
146	0xbd8f6b45	-0.07002882
147	0xbd5394fc	-0.051655754
148	0xbd13da2d	-0.03609674
149	0x3e1f06a7	0.15529881
150	0xbe1df283	-0.15424542
151	0xbe49ec95	-0.19719155
152	0xbd9043c5	-0.07044176
153	0xbd3f6ee7	-0.046736624
154	0xbe56a20e	-0.20960256
155	0xbd491445	-0.049091596
156	0x3e05e9e3	0.13077502
157	0x3e389802	0.18026736
158	0xbd7f1e0c	-0.062284514
159	0xbde131a4	-0.10995796
160	0xbe2b8206	-0.16748819
161	0xbd05a815	-0.032631
162	0x3d50ab5c	0.05094467
163	0x3db2e738	0.08735508
164	0xbdc4e18a	-0.09613331
165	0xbd844ab5	-0.06459562
166	0xbbe6bc54	-0.0070414934
167	0xbe4ae37c	-0.19813341
168	0x3e406d0e	0.18791601
169	0x3e1cb1ff	0.15302275
170	0x3e389c5d	0.18028398
171	0xbe2c0410	-0.16798425
172	0x3d0951b9	0.033525202
173	0xbd4d7eb2	-0.050169654
174	0xbe467e35	-0.19384082
175	0xbe36d98c	-0.17856425
176	0xbe4461fc	-0.19178003
177	0x3e1dea03	0.154213
178	0xbc984879	-0.018589245
179	0x3dc4e6b3	0.09614315
180	0xbd9f83d6	-0.077888176
181	0xbd06212e	-0.032746486
182	0xbc80b28b	-0.015710136
183	0x3db559e7	0.08855038
184	0x3cd3a173	0.02583382
185	0xbd803d9f	-0.06261753
186	0x3d827bdc	0.063712806
187	0xbe74e5b6	-0.23915753
188	0x3d33ea61	0.043924693
189	0x3d577e4e	0.052610688
190	0x3e1cdb40	0.15318012
191	0x3c95bc35	0.01827822
192	0xbe04d0dd	-0.129703
193	0xbe575486	-0.21028337
194	0xbe34dfd1	-0.17663504
195	0xbd6da0fe	-0.058014862
196	0x3d93321f	0.07187294
197	0xbe2c02dc	-0.16797966
198	0x3dd3e840	0.103470325
199	0x3d87b779	0.066267915
200	0xbc5dbed4	-0.0135342665
201	0x3d4415c2	0.047872312
202	0x3e2de142	0.1698046
203	0x3dac4366	0.08411293
204	0x3d85b706	0.065290496
205	0xbc77ee93	-0.015132564
206	0x3bfc671a	0.0077027204
207	0xbc65b1db	-0.014019455
208	0x3e37e818	0.1795963
209	0xbdbfbe53	-0.09362473
210	0x3bc2fd93	0.0059506386
211	0x3d6bf771	0.057609025
212	0x3e0785bd	0.13234611
213	0xbd1303d3	-0.03589232
214	0xbdc38ad8	-0.09547967
215	0xbe4cab73	-0.19987278
216	0x3e1fa800	0.1559143
217	0x3e4210ce	0.18951723
218	0x3dbd7c2e	0.09252201
219	0x3d83505a	0.0641181
220	0xbe75755a	-0.23970547
221	0xbd8d0029	-0.06884796
222	0xbd46bab4	-0.048517898
223	0x3e1eb8c2	0.15500167
224	0xbdce372e	-0.100691184
225	0x3e42b2c5	0.19013508
226	0x3e10bacd	0.14133759
227	0x3c7db8e2	0.015485974
228	0x3e0d60bf	0.13806437
229	0xbdc98dbd	-0.098414876
230	0xbd215ab4	-0.039393142
231	0xbe72db2b	-0.23716418
232	0x3e3a97a7	0.18221913
233	0xbe30d6b9	-0.1726941
234	0x3d172d50	0.036908448
235	0x3d17711d	0.036973108
236	0xbdd7efa0	-0.10543752
237	0x3d860a71	0.0654496
238	0xbe4fe69e	-0.20302817
239	0xbd2f8594	-0.042852
240	0xbe115996	-0.1419433
241	0x3c70c9e2	0.01469657
242	0xbc95fcd0	-0.018309027
243	0x3e3b6963	0.1830192
244	0x3e3f7380	0.18696404
245	0x3de0c7cb	0.109756075
246	0xbd691bd2	-0.056911297
247	0xbc191500	-0.009343386
248	0xbe70c1bc	-0.23511404
249	0x3d985c87	0.07439523
250	0xbbbe4e60	-0.005807683
251	0x3d4ef97e	0.050530903
252	0xbcfea5dd	-0.03108495
253	0x3dba5a21	0.09099222
254	0xbdce278a	-0.10066135
255	0xbe706323	-0.23475318

linear1.bias f4 [256]
0	0x3e2d476b	0.16921775
1	0xbe107d9c	-0.14110416
2	0xbe7ed182	-0.24884608
3	0x3cdbeee3	0.026847309
4	0xbe15af83	-0.14617734
5	0xbe844b85	-0.25838867
6	0x3a33ebc6	0.0006863441
7	0xbdead93a	-0.11467214
8	0x3e2547e0	0.161407
9	0xbe6b1394	-0.22956687
10	0x3cef8e09	0.029242532
11	0x3e3622f7	0.17786776
12	0x3db2b0dd	0.0872514
13	0xbc0b4c22	-0.008502038
14	0xbe57076b	-0.20998923
15	0x3e14016f	0.14453672
16	0xbe5f1937	-0.21786962
17	0xbe741f33	-0.23840027
18	0xbe09dd06	-0.1346322
19	0xbe3af1ca	-0.18256298
20	0x3e3a30f5	0.18182738
21	0xbe5aafe1	-0.21356155
22	0xbe86c638	-0.26323104
23	0x3dbc03c9	0.091804095
24	0x3e07bc95	0.13255532
25	0x3d13b448	0.0360606
26	0x3cd9d2ef	0.026589839
27	0xbe626fde	-0.22112986
28	0xbdcec1e2	-0.10095574
29	0xbca93209	-0.020653741
30	0xbd5b3967	-0.05352154
31	0xbe7653b8	-0.24055374
32	0xbe255343	-0.16145043
33	0xbd943733	-0.07237091
34	0xbe6ac82f	-0.22927926
35	0xbd9a60e2	-0.0753801
36	0xbe3764ae	-0.179095
37	0xbdca63fe	-0.09882353
38	0x3df9b26e	0.12192236
39	0xbd3a57dc	-0.045493945
40	0xbd33ecbd	-0.043926943
41	0xbd61c46c	-0.055118963
42	0xbe06f1be	-0.13178155
43	0x3d8109ef	0.06300723
44	0xbe3f8783	-0.18704037
45	0xbe39ca1b	-0.18143503
46	0xbe609a03	-0.21933751
47	0xbe0d3595	-0.13789971
48	0x3e104648	0.1408931
49	0xbd738a9a	-0.059458353
50	0x3e3055d3	0.1722024
51	0xbd335d9f	-0.043790456
52	0x3dbb92e9	0.0915888
53	0xbe69a069	-0.22815098
54	0xbd79d64c	-0.060995385
55	0x3da82e33	0.08211937
56	0xbd41cce0	-0.047314525
57	0xbe6b3cf3	-0.22972469
58	0x3e13b124	0.14423043
59	0x3da42b4a	0.08016069
60	0x3e0af93e	0.13571641
61	0x3e05c351	0.13062789
62	0xbe586b86	-0.21134767
63	0x3c977ad8	0.018491194
64	0xbe7bd2de	-0.24592158
65	0x3d4e3f07	0.050353076
66	0xbb8a06ba	-0.0042122276
67	0xbd514a00	-0.051095963
68	0xbb2af1a2	-0.0026083966
69	0xbe20d47f	-0.15706061
70	0xbe187679	-0.14888944
71	0xbd9da586	-0.07697587
72	0xbd8dbb99	-0.06920547
73	0xbe4d6ccc	-0.20061034
74	0x3dc054fd	0.0939121
75	0xbe47a1fc	-0.19495386
76	0x3dc2623c	0.09491393
77	0xbccd21a7	-0.02504046
78	0x3e2a545f	0.16633748
79	0x3e2704d6	0.16310439
80	0x3e676dc3	0.22600465
81	0x3df25956	0.11833446
82	0xbe2110b7	-0.15729032
83	0xbcebaf50	-0.028770119
84	0xbc801024	-0.015632696
85	0xbcd5ff00	-0.02612257
86	0x3e339301	0.17536546
87	0x3d88d6cb	0.066815935
88	0xbe09a780	-0.13442802
89	0x3e429d32	0.19005278
90	0x3e2d6f05	0.16936882
91	0xbe790bec	-0.24320954
92	0xbe0f5b34	-0.13999635
93	0x3d092b94	0.033488825
94	0xbe3a27a0	-0.18179178
95	0xbd619b27	-0.055079605
96	0xbe31b0ce	-0.17352602
97	0x3df5cabb	0.120015584
98	0xbd40b349	-0.04704598
99	0x3d0e8c4f	0.034801777
100	0x3e42bc01	0.1901703
101	0xbe2517ce	-0.16122362
102	0xbe859aac	-0.26094568
103	0xbda2c43d	-0.07947586
104	0xbd4bd25c	-0.04976116
105	0xbd1a4970	-0.03766769
106	0xbe2409aa	-0.16019312
107	0x3e6549a9	0.2239138
108	0xbe48392b	-0.19553058
109	0xbe46cdbd	-0.1941442
110	0x3e42e64f	0.19033168
111	0x3e304758	0.17214715
112	0xbdf79c5a	-0.120903686
113	0xbdb04314	-0.08606544
114	0xbe6ad510	-0.2293284
115	0xbbc784a9	-0.0060888124
116	0xbe53a127	-0.20666943
117	0xbe23adef	-0.15984319
118	0x3e2b24bc	0.16713232
119	0x3d96499f	0.07338261
120	0x3df31fb0	0.11871278
121	0x3e1b210c	0.15149325
122	0x3ca9185e	0.020641502
123	0xbe51ae80	-0.20476723
124	0xba281dd6	-0.00064131373
125	0xbe02f23f	-0.12787722
126	0xbda5272d	-0.08064113
127	0xbdeb91b5	-0.11502401
128	0xbe43ee45	-0.19133861
129	0x3e0ae773	0.13564853
130	0x3de9b359	0.11411161
131	0x3ae489d0	0.0017436091
132	0xbc189d9b	-0.00931492
133	0x3ddb9eca	0.10723646
134	0xbd9128a9	-0.070878334
135	0x3c092652	0.008370953
136	0x3e5ee8f8	0.21768558
137	0x3df89f21	0.121397264
138	0x3e517668	0.20455325
139	0xbe2f3f86	-0.17114076
140	0xbe4e340b	-0.2013704
141	0xbe6a4924	-0.22879463
142	0x3e3d2613	0.18471555
143	0xbe825f14	-0.25463164
144	0x3d4fdcd6	0.050747715
145	0xbe6089b1	-0.21927525
146	0xbb4ed15d	-0.0031557896
147	0x3e733709	0.23751463
148	0x3bba43a8	0.005684335
149	0x3dba2a8d	0.09090147
150	0x3e0b5f57	0.13610588
151	0x3dbaa6fc	0.09113881
152	0xbe2656cf	-0.16244052
153	0xbe39f0e5	-0.181583
154	0x3c327fdc	0.010894742
155	0xbd863c36	-0.06554453
156	0xbd9b45e4	-0.0758169
157	0x3dfb52d4	0.122716576
158	0xbc075672	-0.008260356
159	0xbe4fa1c4	-0.20276552
160	0x3db89edb	0.09014674
161	0x3e4cd980	0.20004845
162	0xbe282139	-0.16418923
163	0x3e451e91	0.19249941
164	0xbe38f10d	-0.18060704
165	0xbe05e6b4	-0.13076288
166	0x3e3615b5	0.17781718
167	0xbe0cd926	-0.1375471
168	0xbdf408f5	-0.11915771
169	0xbda63b1a	-0.081167415
170	0x3c0b6a92	0.008509295
171	0xbd91e250	-0.07123244
172	0xbe4e39a9	-0.20139183
173	0xbe5713ec	-0.21003693
174	0x3e09f0db	0.13470785
175	0xbe34c22c	-0.17652196
176	0x3e2e7575	0.17036994
177	0xbdfe9022	-0.12429835
178	0x3c705639	0.014668995
179	0xbe8657e0	-0.26238918
180	0xbe48b1cd	-0.19599076
181	0x3ddff39d	0.109351374
182	0xbded670a	-0.11591919
183	0xbd3683b3	-0.044559192
184	0xbdc9b117	-0.0984823
185	0x3def1f62	0.11675908
186	0x3cdafadb	0.026730945
187	0x3dc4dc7e	0.09612368
188	0x3d68b2bc	0.05681108
189	0x3bd94572	0.006630593
190	0xbe18a527	-0.1490675
191	0x3d99e503	0.07514384
192	0xbe4c792f	-0.19968103
193	0x3d15c4d4	0.036564663
194	0xbc5fdd58	-0.013663612
195	0x3cc56938	0.024098024
196	0xbe2681c3	-0.16260438
197	0xbd41ee99	-0.047346685
198	0x3d82a28e	0.06378661
199	0xbc9c9efd	-0.01911878
200	0xbdbcbf30	-0.092161536
201	0x3db8f971	0.09031952
202	0x3dbf6576	0.09345524
203	0x3d90adcf	0.07064401
204	0x3cc30af8	0.023808941
205	0xbe34c308	-0.17652524
206	0xbd7ffb79	-0.062495682
207	0x3d16c210	0.036806166
208	0xbe487f3b	-0.19579785
209	0x3d01d09a	0.03169308
210	0xbe32e4a6	-0.17470035
211	0xbe25b6d3	-0.16183023
212	0x3c002755	0.0078218775
213	0x3e05f617	0.13082157
214	0xbe5bff71	-0.21484162
215	0x3d8f24a5	0.06989411
216	0x3d800c42	0.06252338
217	0xbe7292ae	-0.23688766
218	0x3e27d90a	0.16391388
219	0xbe2c75fa	-0.1684188
220	0xbe252ac0	-0.16129589
221	0x3af799eb	0.0018890476
222	0xbe6d42eb	-0.23170058
223	0xbc64ca6f	-0.01396428
224	0x3ddb30d5	0.10702673
225	0x3e2721be	0.16321465
226	0xbde7ca52	-0.113178864
227	0x3d839937	0.06425708
228	0xbd140aa4	-0.03614296
229	0x3e37c38d	0.1794569
230	0xbe37b193	-0.17938833
231	0xbd840024	-0.06445339
232	0xbdd62230	-0.104557395
233	0xbe6f0d00	-0.23344803
234	0xbd7c9df5	-0.061674077
235	0x3d660b53	0.056163143
236	0x3e1855c3	0.14876465
237	0xbe5203c8	-0.20509255
238	0xbd2eee18	-0.042707533
239	0x3de315ed	0.110881664
240	0xbde4bedb	-0.11169215
241	0xbd0b0710	-0.033942282
242	0x3e077c2c	0.13230962
243	0xbdc37aae	-0.09544884
244	0x3e46343b	0.19355862
245	0xbe09d05a	-0.13458386
246	0xbd92bdda	-0.071651176
247	0xbdf8910e	-0.12137042
248	0xbd576271	-0.052584115
249	0xbe5fa642	-0.21840766
250	0xbc00a2f0	-0.007851347
251	0xbe4e58ea	-0.20151106
252	0x3d2311dd	0.039811958
253	0xbd900884	-0.07032874
254	0x3c9ac297	0.018891616
255	0x3dbc70be	0.09201191

linear3.weight f4 [9, 256]
0	0xbd169ba3	-0.03676952
1	0xbd3ef50c	-0.046620414
2	0x3ccb49b7	0.024815423
3	0xbc4148d9	-0.011797153
4	0xbd3aa516	-0.045567594
5	0x3d5c69af	0.053811725
6	0x3c9f62b2	0.019456241
7	0xbc11e0e7	-0.008903719
8	0xbbaac703	-0.0052117123
9	0xbc4572b2	-0.012051271
10	0xbb0d75db	-0.002158514
11	0xbd013388	-0.031543285
12	0xbb72253e	-0.0036948468
13	0x3b46e38f	0.0030348038
14	0xbce553fc	-0.027994148
15	0x3d0d8e29	0.034559403
16	0x39bbeb04	0.0003584252
17	0xbc4e0194	-0.012573618
18	0xbd4fb744	-0.050711885
19	0x3c2ce3b7	0.010552338
20	0xbd8f6e2b	-0.07003435
21	0x3d3d0e73	0.046156358
22	0xbc445412	-0.011982935
23	0xbcf30236	-0.02966414
24	0x3d510feb	0.05104057
25	0xbcd2cc85	-0.025732288
26	0xbbdf7d65	-0.006820368
27	0x3a9ef361	0.0012126976
28	0x3c2c5518	0.010518335
29	0xbcc8960c	-0.02448561
30	0xbc90f917	-0.0176969
31	0x3c0243b8	0.007950716
32	0xbcd506c5	-0.026004205
33	0xbd8d797e	-0.069079384
34	0x3d0bc4d7	0.034123268
35	0x3d01fe99	0.031736944
36	0xbce7f8f6	-0.028316956
37	0xbd21b5b2	-0.03947992
38	0x3cde2391	0.027116569
39	0x3d00c7f5	0.031440694
40	0xbd3b605c	-0.045746192
41	0xbd1ecbc0	-0.03876853
42	0x3c13bfd6	0.009017905
43	0x3ad0662a	0.0015899588
44	0xbce6f350	-0.028192192
45	0x3ca8e092	0.020614896
46	0xbd101066	-0.03517189
47	0xbd479be9	-0.048732672
48	0xbd389907	-0.045067813
49	0xbb3ba943	-0.0028634823
50	0x3cfc6512	0.030809913
51	0x3d23d7d3	0.040000748
52	0xbb40a0d5	-0.0029392738
53	0xbc08c7bf	-0.008348404
54	0xbd276f1f	-0.040877458
55	0xbc984a52	-0.018590126
56	0xbd21ad12	-0.039471693
57	0x3b03cfb0	0.0020112805
58	0x3d7f4e1d	0.062330354
59	0xbd2877ae	-0.04112976
60	0xbca4cc56	-0.020116966
61	0xbc8db5d9	-0.017298626
62	0xbd42f0ed	-0.047593046
63	0x3cb4e9a0	0.022084057
64	0xbd42f91f	-0.04760086
65	0xbca3d853	-0.020000612
66	0x3b8d51b0	0.0043127164
67	0x3c5c2a60	0.013437837
68	0xbcd0c0e3	-0.0254826
69	0x3d273845	0.040825147
70	0xbd2f8ec9	-0.04286078
71	0xbc0f12de	-0.008732526
72	0x3cf9390c	0.03042271
73	0xbd645be4	-0.055751696
74	0x3cd3b124	0.025841303
75	0x3c30ffd2	0.01080318
76	0xbd3645c6	-0.044500135
77	0x3d54906d	0.051895548
78	0xbc324e3a	-0.0108829085
79	0xbd0b0bcb	-0.033946794
80	0xbd9748b0	-0.07386911
81	0xbca35749	-0.019939082
82	0x3a67dce0	0.00088448636
83	0x3d58166b	0.052755754
84	0xbd53e682	-0.0517335
85	0x3d4d36b0	0.050100982
86	0x394201a3	0.00018501891
87	0xbd8f1835	-0.06987039
88	0x3ccc5f7d	0.024947876
89	0x3d643c86	0.055721782
90	0x3d510ffb	0.05104063
91	0x3c07e096	0.008293292
92	0x3d23eeb8	0.04002258
93	0xbcdb6b6f	-0.026784627
94	0x3d5cea85	0.053934593
95	0x3c4203f0	0.011841759
96	0x3d20b639	0.03923628
97	0x3d1bc39d	0.03802835
98	0xbc96ca34	-0.018406965
99	0xbc744acb	-0.01491041
100	0xbaca95ca	-0.0015456018
101	0xbcb011ea	-0.021492917
102	0xbc578bfc	-0.0131559335
103	0x3cc17414	0.02361492
104	0x3c7e2786	0.015512353
105	0xbce1cf45	-0.027564654
106	0xbda70b0f	-0.08156406
107	0x3d50a9bc	0.05094312
108	0xbb9bea6c	-0.00475817
109	0x3a05b916	0.00051011273
110	0x3cc8850b	0.024477502
111	0xbc673264	-0.014111135
112	0x3b6f1c0a	0.0036485218
113	0xbd0d8b96	-0.034556948
114	0x3d38555d	0.045003284
115	0xbbf5b355	-0.0074981847
116	0xba67f8ec	-0.0008849043
117	0x3cce3294	0.025170602
118	0x3cef01ed	0.029175723
119	0xbb676704	-0.0035309205
120	0x3cecc146	0.028900754
121	0xbce51620	-0.027964652
122	0x3d29f651	0.04149467
123	0xbc96905c	-0.018379383
124	0x3d103193	0.035203528
125	0xbd10b244	-0.035326257
126	0xbd4eb486	-0.05046513
127	0x3d20f28a	0.039293803
128	0xbd8268fa	-0.06367679
129	0xbd3119d6	-0.04323753
130	0xbc2996ae	-0.010350866
131	0x3c1c30fc	0.009533163
132	0x3ced7a95	0.028989116
133	0x3d133bf1	0.035945836
134	0x3cfaa2e3	0.030595249
135	0x3cbaa312	0.022782836
136	0xbd775a2f	-0.06038874
137	0xbd53066c	-0.051519796
138	0x3bf0ec8b	0.007352417
139	0xbd8b0125	-0.06787328
140	0xbc595a50	-0.013266161
141	0xbc2a999d	-0.010412601
142	0x3ce2b25c	0.027672939
143	0x3d0044e1	0.031315688
144	0x3c85f711	0.016353162
145	0x3d171b0a	0.03689102
146	0x3d189237	0.037248816
147	0x3caa1b66	0.020765018
148	0xbcdbc76c	-0.02682849
149	0x3be3e12b	0.0069543323
150	0x3b36db81	0.002790183
151	0xbd1d4b41	-0.038401846
152	0xbc9c8f57	-0.019111319
153	0xbd58ec56	-0.052959763
154	0x3c7353b0	0.014851496
155	0x3cf32e4b	0.02968516
156	0xbcbfea3c	-0.023427121
157	0xbcfe91da	-0.031075407
158	0xbd5a56b3	-0.05330534
159	0x3d056554	0.032567337
160	0xbcf2af7b	-0.029624691
161	0xbcb9a86d	-0.02266332
162	0x3c22a297	0.00992646
163	0xbc84d49b	-0.01621466
164	0x3ce5a270	0.028031558
165	0xbd0e6ae5	-0.03476991
166	0xbd2e6361	-0.042575244
167	0xbd33ec01	-0.043926243
168	0xbd8940f7	-0.06701844
169	0x3d64953c	0.055806383
170	0x3be57500	0.007002473
171	0x3bd93372	0.006628447
172	0x3ca7e3d9	0.020494388
173	0x3d10b7ae	0.03533142
174	0xbc90bf20	-0.01766926
175	0x395e6800	0.00021210313
176	0xbb87a770	-0.004139833
177	0xbd67be80	-0.05657816
178	0xba1dc190	-0.0006017918
179	0xbc36ff7e	-0.0111693125
180	0xbd3f7b5e	-0.04674851
181	0xbd33adda	-0.04386697
182	0xbd09d980	-0.03365469
183	0xbd6aba12	-0.057306357
184	0xbca6fc8e	-0.0203841
185	0xbcc178f7	-0.02361725
186	0x3c32a3df	0.010903328
187	0xbc0623c0	-0.008187234
188	0xbd4ddafe	-0.050257675
189	0x3c40ec5e	0.011775104
190	0x3b78200d	0.00378609
191	0xbc254026	-0.010086095
192	0xbd38162b	-0.044943016
193	0xbcab2b02	-0.020894531
194	0x3d135147	0.035966184
195	0x3d04a302	0.03238202
196	0xbb38128d	-0.002808723
197	0x3ab7d413	0.0014024995
198	0xbae417d0	-0.0017402116
199	0x3c999637	0.018748386
200	0xbd5d183f	-0.0539782
201	0x3aaf70dd	0.0013385076
202	0xbd0a33e8	-0.033740908
203	0xbd2b477e	-0.041816227
204	0xbcc9f598	-0.024653241
205	0xbd6de538	-0.05807993
206	0xbd44a583	-0.048009407
207	0x3c43e87d	0.011957285
208	0x3cab8991	0.02093962
209	0x3ceaaeb6	0.028647762
210	0xbd400c52	-0.04688675
211	0xbc742348	-0.01490099
212	0x3c2ebb98	0.010664843
213	0xbcd63ae9	-0.026151137
214	0xbd6a3813	-0.057182383
215	0x3b6a190c	0.0035720496
216	0x3cedbefc	0.029021733
217	0x3c84463a	0.016146768
218	0x3c8286f5	0.015933493
219	0x3ccb4e63	0.024817651
220	0xbcc5b9c4	-0.024136432
221	0x3bdd3bd8	0.0067515187
222	0xbd4841ba	-0.048890807
223	0x3c9242b7	0.017854078
224	0xbd4baf20	-0.04972756
225	0xbc9636e1	-0.018336715
226	0xbc04d1fd	-0.008106706
227	0xbcb8bdf9	-0.022551524
228	0xbc826da9	-0.01592143
229	0xba4a5e1a	-0.00077197107
230	0xbcfea368	-0.031083778
231	0x3d637256	0.05552896
232	0x3ca568ed	0.020191634
233	0x3810a8aa	3.4489356e-05
234	0x3b866d9a	0.004102421
235	0x3cd65534	0.026163675
236	0xbd1357c1	-0.03597236
237	0x3d485da0	0.048917413
238	0x3d3dd012	0.04634101
239	0xbcb03d4d	-0.021513605
240	0x3dabf453	0.083962105
241	0x3cce0ce0	0.025152624
242	0xbade4ed5	-0.001696075
243	0xbd1c2d68	-0.03812924
244	0xbceb1e94	-0.028701104
245	0x3bdccefc	0.0067385416
246	0xbce5a600	-0.028033257
247	0x3cd24b08	0.025670543
248	0x3d1c2c0c	0.038127944
249	0xbcf6f295	-0.030144969
250	0xbd271530	-0.04079169
251	0x3cd83971	0.026394578
252	0x3ca4781c	0.020076804
253	0x3d6b1f20	0.05740273
254	0xbd294aa5	-0.041330952
255	0xbbd96126	-0.0066338954

linear3.bias f4 [9]
0	0x3cb5d68c	0.02219703
1	0x3c8eb630	0.017420858
2	0xbd0dbd14	-0.034604147
3	0xbcaeae75	-0.021323422
4	0x3c90e3df	0.017686782
5	0x3d33ff25	0.043944497
6	0xbc88f73a	-0.01671945
7	0xbdbb19fd	-0.09135816
8	0x3c391b96	0.011298081
