model/model.pth (torch, 31552 bytes, 4 tensors)

linear1.weight f4 [256, 19]
00000000: 9a7e e33b fbf3 7cbd 8f72 07be a5aa 24be
00000010: 1fc2 343e 4f27 c2bd 071b eb3d b91d 293e
00000020: 5b74 afbc f7b8 4cbe d6b8 d5bd 3438 1cbe
00000030: d4ad f83c 3eb4 63be 6798 873d 724a a93d
00000040: 9c28 2a3e aa9f e43d f0f0 c1bd f40a 223d
00000050: 2d84 25be 6278 cbbd d1d2 b83c f121 303d
00000060: ab3a 2bbe 46d7 ca3d ef99 d0ba 5c9d b0bd
00000070: a590 33bd 7ceb 263e 8cc9 45bc 1ba5 243c
00000080: 8ba1 afbc edd8 93bd a904 31be bdf1 02bd
00000090: 5c91 38be 9e31 39be b95d 1a3d 8959 7d3c
000000a0: 9d3c ebbd b480 343e e385 363e bea3 9c3a
000000b0: add0 693b f5d9 9dbc 0cd0 8b3d f0cf f6bd
000000c0: 5939 bdbd dd3f 77be 4a8b 3f3e 376d 30be
000000d0: dc83 0e3e 4a30 5ebe 4292 65be 0a87 b03d
000000e0: dfb6 49be 0547 a93d 0b94 35be c17d e23c
000000f0: 7aa3 6dbd d6f4 903d d9af edbd 4507 6cbe
00000100: bc18 16be afdc 393e 4203 16be f20c 933d
00000110: 66c3 ddbb 2891 ffbd 6cf7 87bd 40d1 71be
00000120: 4c18 debc 8480 4dbd a4cb 66be 9a42 283d
00000130: 6083 e7bd 8247 66be bb76 97bd ede8 73bd
00000140: 4d54 10be d7b9 313e 6b1a 4f3b 0ea8 ccbd
00000150: 00bb 233a ac55 71bc 6a58 2cbe cb5b b33d
00000160: 949f 08be ff3e 343d 7aa7 403e 3055 17be
00000170: cfcc bebd 53bf 43be f42c 993d a6b4 0ebd
00000180: bf67 f3bd c689 b5bd ee3e 203a 4159 75be
00000190: 5316 a6bd 960a 54be 17c5 dbbb a9ec 053e
000001a0: fd3c cbbd 9527 ed3d 1e4b 96be 4cff 15be
000001b0: 15db 9f3d 6eaf a33d 794b 713c 81c2 5cbe
000001c0: 52e7 94be cfd3 813c 093a af3c db50 01be
000001d0: 796e 043e f541 0ebe ea21 38be 9f79 f83d
000001e0: ead1 173d f681 1d3e 0360 15bc b024 843d
000001f0: d5d7 55be 4249 74bc 4e46 8cbe 5b67 013e
00000200: 7bea b5bd 5c46 1b3e 300b 00be 1258 6abe
00000210: dc56 b13d 266a 2dbd 030c 9ebd 12fb 213e
00000220: fedc 0f3e 7b23 883c 451d 0dbe 9acb a4bc
00000230: 104a 0a3d 6ae3 503e 1d75 3dbe 1793 b3bc
00000240: 7721 50be 2acc f23c 86b7 083d 0363 853d
00000250: 4ae4 c53d ffad ec3d f96e b63d 5f67 233d
00000260: abab dd3d b2c4 883d 2b9b d9bd a175 dbbd
00000270: 556d 66bd f2d9 7ebe 3615 a73d 3429 c63c
00000280: 4cc5 efbd 2d69 0abe a186 cb3d 7dd3 9fbd
00000290: 16df 22bd c45b 50be 616b ecbd d6ea 8c3d
000002a0: d134 d93d 86bf 6c3d eee7 b6bc 1308 e93c
000002b0: ab33 083d 53af 2bbe c4a3 efbc 140c 18be
000002c0: 87cc c83d 75b7 123e 91c5 3dbe 7a99 43be
000002d0: e3f4 8ebc 9be1 56be 8e69 55be c5bd 083c
000002e0: 0e90 c5bc aec8 393e 7ec2 243d 2ef6 abbc
000002f0: a7d9 69be 7023 0bbe 3e3b 0bbe 07cb 223e
00000300: 0906 383e e417 b9bd 0934 123e 8f15 8f3d
00000310: a219 0b3e f4fc 883d 4315 8f3d 390d c13d
00000320: e021 17bd 54e3 223e bd7b 8ebd a022 89bd
00000330: c079 f93d f9b8 c43d e4a2 65bd 1a1a be3c
00000340: 0019 0ebe c443 17bd d4e4 363d f05a 1fbc
00000350: c0a1 c8bd 5b09 e7bd 9a64 11be 5d0f 163e
00000360: 8605 eb3d a877 10bd ac18 14be 7c0c 18be
00000370: bd14 3a3e cc69 5cbd 10ef 25be 5493 22be
00000380: 3e44 acbd 36db 84bd 4841 88bc 67f0 1f3e
00000390: 7ab2 c73d 8126 06be 107b 0cbd 2d0b 33bd
000003a0: 4f2d fcbd ce87 cebd 499b 90bd 230d 4a3e
000003b0: c5ae 00be d2e2 56bd 9872 573e 4e03 313e
000003c0: ef99 0f3e 94f6 ec3c a4f4 41be d131 2fbe
000003d0: bd0c 053d 4e8b 273d 5f88 34be a4da d63d
000003e0: ffde bfbc dc00 aa3d d8a2 a1bc 6c0e 343d
000003f0: 9858 423e 8ff3 ec3c b752 67bd f9b7 7ebd
0.0069425823 -0.061756115 -0.13227294 -0.1608072 0.17652176 -0.09480154 0.114797644 0.16515245
-0.021417787 -0.19992433 -0.10435645 -0.15255815 0.030356325 -0.22236726 0.06620865 0.082661524
0.16617054 0.11163266 -0.09469783 0.039561227 -0.16163702 -0.099350706 0.022561463 0.04300112
-0.16721599 0.099043414 -0.0015915016 -0.08623764 -0.043839116 0.16300768 -0.012071978 0.01004913
-0.021439334 -0.0721911 -0.17286934 -0.03196882 -0.180242 -0.18085334 0.037687037 0.015463241
-0.114861704 0.17627221 0.17824511 0.0011950654 0.003567736 -0.01926897 0.06826791 -0.1205138
-0.09239454 -0.24145456 0.18705478 -0.17229162 0.13917488 -0.21698108 -0.22419074 0.08619507
-0.19698666 0.08265499 -0.17732255 0.027647855 -0.05801723 0.07077949 -0.11605806 -0.23049648
-0.14657873 0.1815059 -0.1464968 0.071802035 -0.006767678 -0.12478858 -0.06638989 -0.23614979
-0.027111195 -0.05017139 -0.2253862 0.04107914 -0.11304355 -0.22488216 -0.07395693 -0.059548307
-0.14094658 0.17356049 0.003160144 -0.099929914 0.0006245822 -0.014729898 -0.16830602 0.087577425
-0.13342124 0.04400539 0.18813887 -0.1477859 -0.09316408 -0.19115953 0.07479277 -0.03484025
-0.11885022 -0.08864169 0.0006112893 -0.23959829 -0.08109727 -0.20707163 -0.0067068445 0.1307856
-0.09923742 0.11579815 -0.29354185 -0.1464817 0.078054585 0.07992445 0.014727467 -0.21558572
-0.29082733 0.015848069 0.021389978 -0.126285 0.12932767 -0.13892348 -0.17981687 0.121325724
0.037065424 0.15381607 -0.009117129 0.0645231 -0.20883115 -0.014910044 -0.27397388 0.12637083
-0.08882614 0.15163559 -0.12504268 -0.22885159 0.08659145 -0.04233756 -0.07717135 0.15818432
0.14049146 0.01661848 -0.13780697 -0.020116616 0.033762038 0.20399252 -0.18501706 -0.021920724
-0.20325266 0.029638369 0.033378147 0.065130256 0.09662683 0.115566246 0.08907885 0.039893504
0.10823759 0.06678142 -0.10625299 -0.10715795 -0.05625661 -0.24887827 0.081583425 0.024189569
-0.11707553 -0.13516684 0.09937788 -0.0780401 -0.039763533 -0.20347506 -0.115439184 0.06880729
0.10605777 0.05779984 -0.02232739 0.028446233 0.0332524 -0.167661 -0.029252894 -0.14848357
0.098046355 0.14327796 -0.18532397 -0.19101515 -0.017450755 -0.20984499 -0.20841047 0.008346026
-0.024116542 0.1814296 0.040224545 -0.020991411 -0.22836934 -0.13587737 -0.13596818 0.15897761
0.17971052 -0.0903776 0.14277662 0.06986534 0.13583997 0.06688872 0.06986477 0.0942635
-0.03689754 0.15907031 -0.06957195 -0.06696057 0.12181425 0.09605593 -0.056063548 0.023205806
-0.13876724 -0.03692986 0.04465182 -0.009726271 -0.09796476 -0.11281081 -0.14198533 0.14654298
0.11475663 -0.035270363 -0.14462537 -0.14848512 0.18171974 -0.053811833 -0.16204476 -0.15876514
-0.08411454 -0.06487124 -0.016632691 0.1561905 0.097508386 -0.13100626 -0.03429705 -0.04371183
-0.123133294 -0.100844964 -0.07060868 0.19731574 -0.1256667 -0.052462406 0.21039808 0.17286417
0.14023565 0.028926171 -0.18940979 -0.17108847 0.03248285 0.040904336 -0.17630146 0.10490921
-0.023421763 0.08300945 -0.01973097 0.043959066 0.18979108 0.028924732 -0.056475367 -0.06218717

linear1.bias f4 [256]
00000000: 532e 5fbe 643a e33d d658 4c3e da84 25be
00000010: c17c 85bd 7b71 e1bd b707 153e bed4 0bbd
00000020: 910c 53bd 9444 af3d 3827 7fbe 6049 19be
00000030: 2767 59be 6046 0d3e 2677 d83d bfd3 d93d
00000040: fee6 8ebd 42c2 b93d f769 42be fc7b 2fbe
00000050: 9df1 673d 7c52 68be 0931 a4bd b472 51bd
00000060: a3b7 9a3d 46ca 7bbe 4cea 4fbe aed2 0e3d
00000070: 77e2 11be b2ae a83d ec33 27bd de0b 103e
00000080: aa42 9b3d a84d aa3c fecb 9ebd 3434 7bbe
00000090: e519 69be 4b28 2b3e 3af7 0b3e febf 483e
000000a0: fbc0 e83d 1615 dc3c ea39 dbbd 421c f73d
000000b0: 3d1f 92bc 62c9 34be cfa2 473e 5f5c 80be
000000c0: d7e5 1a3e 6b3f 413d ff26 53bd 8101 14be
000000d0: 1600 8cbe ae08 8cba 97bb 20be 8e40 b13d
000000e0: f295 353d a53d 7cbd 3f1f 9fbc c9cf 283e
000000f0: dd9d 6ebb 14e9 223e 6889 85bc cd5a c4bc
00000100: 5c05 3c3d 9836 8f3d 9140 80bd dbc8 76bc
00000110: 90d6 eebc 66ed fe3d 191c 1b3d 31f3 1c3e
00000120: d811 3a3d 4bc7 4ebe 6355 143e 7262 80bb
00000130: 3941 9abd e342 55be 97a4 933d 742c 34be
00000140: 0e9f 85be 9b7c 4a3d 32f3 9f3d 5135 78be
00000150: 4250 84be 0040 5abe 9cd3 0f3d 1b45 1f3d
00000160: c656 66bd d27b 503e 18a6 fcbc 5699 1bbe
00000170: 1e8d b03c be82 35be e7eb 8a3b af3d 67be
00000180: 8011 17bd 00f2 d83a 7297 4e3e 0303 5bbd
00000190: 3eaf fabd 99d1 72be 1103 46be 2817 1c3e
000001a0: 0d21 493d 5287 39be e285 063d 0c92 c93d
000001b0: 6d7b 0b3e ea02 02be 7b01 2ebd c071 11be
000001c0: e567 8fbe 0188 28be dd24 20be 289d 0abb
000001d0: a812 903c 82a4 3e3e ab69 5ebe f103 db3d
000001e0: 2a0b 1dbe ca50 bc3d 9d9a cb3d bf55 103e
000001f0: e1ed 3dbe 51a1 64be 3c22 2bbd 0a66 033e
00000200: ce34 083c 7946 7f3d 1dec a33c b9f9 87be
00000210: 03dd 263e c1cc 99bd 81f1 563d f4d9 1c3e
00000220: a354 9e3d 4d5b 3abe b74e 0d3e 69c3 3a3e
00000230: 6a8b 61be 9301 b2bd fb36 293e f5ca 2fbd
00000240: 22fc 67be b59a 2ebe c040 d13d d1a8 0bbe
00000250: 49a4 3bbe 6871 08be 6d76 83be fd5d d53d
00000260: 563e abbc 60f9 ee3d ccec f1bd 7d3d a3bd
00000270: 64dc 693e 31ec 99bd 9113 83bd 4915 45be
00000280: fd92 1cbd 47cf 493e de31 f43c 4390 033e
00000290: 638f b93d 9f9c 193e 1dab c3bd e9e9 80bd
000002a0: 5ebc 9b3d 2b24 8b3d 9e99 8fbd fcfa 4ebe
000002b0: d988 bbbd e245 373d ecd5 343d a6b7 403e
000002c0: ab57 e3bd 12c9 31be e589 f73c 2a5e 4a3e
000002d0: 3c5c 50bd 8609 c93d b5e0 53be f1f4 1b3e
000002e0: e972 1d3c 2089 33be 4de7 1ebe e2ee 70be
000002f0: be0e 63be 105f d03d f4b2 5cbd b382 e6bd
00000300: cffd 42be f9e3 6bbd 976f 3fbe 12a6 1c3e
00000310: cada eebb 485f 583e 5e87 80be 49f4 233e
00000320: 968f babd 9682 88bd 9e40 13be 2456 013e
00000330: de27 d33d 722e b83d 29e1 1bbe c098 263e
00000340: 0623 c13d 3cdc 2fbe 16c8 36be 5cf4 4cbe
00000350: e679 0c3e ab90 f43d 5457 73be a490 fcbd
00000360: b130 40be 62bf 133e 6f76 2e3e 82ea 093e
00000370: cc95 c8bd bd6a 5cbe b994 1e3e f7fc 6dbe
00000380: fb4a 33bd 2c0b 493d e561 4cbe 13b5 42be
00000390: eb3b 15be edd5 3abe 6760 f6bc c636 3e3e
000003a0: 5d81 223e c9a5 48bd 629d ec3d 9379 3fbd
000003b0: c0c4 82be 98dd c8bd 70d5 e8bd c7ac ad3d
000003c0: 49db 343e 4e7c 983d 180d 1d3e c86b d9bd
000003d0: 281c bd3a abbf 6ebe 9f73 24bc 75ad 1abe
000003e0: 99d4 e43c 02bd b83d 076b afbd c58b 92bb
000003f0: 5829 03be cdbd 2c3c 67f2 91bb c3b2 fa3d
-0.21795015 0.110951215 0.19955763 -0.1616396 -0.065179355 -0.11007973 0.14553724 -0.034138434
-0.051525656 0.08558002 -0.24917305 -0.14969397 -0.21230756 0.13796377 0.10569601 0.106360905
-0.06977652 0.09070255 -0.18985735 -0.1713714 0.056626905 -0.22687715 -0.08017165 -0.05113478
0.07554557 -0.2458888 -0.20304221 0.03486889 -0.14246546 0.082364455 -0.040821 0.14067027
0.075810745 0.020788983 -0.07753752 -0.24531633 -0.22763784 0.1671459 0.13668528 0.19604489
0.11364933 0.026865523 -0.107044056 0.120659366 -0.017837161 -0.17654946 0.194957 -0.25070474
0.1512674 0.04717962 -0.05155086 -0.14453699 -0.27343816 -0.0010683739 -0.1569656 0.08654891
0.044332452 -0.061582226 -0.019424079 0.16485514 -0.0036410012 0.15909225 -0.016300872 -0.023969078
0.04590355 0.06992835 -0.06262315 -0.015062536 -0.029155046 0.12447624 0.037868593 0.15327145
0.045427173 -0.20193212 0.14485697 -0.0039179856 -0.075319715 -0.20826297 0.072091274 -0.17595083
-0.26097912 0.04943524 0.07810058 -0.24239089 -0.25842482 -0.21313477 0.035113916 0.038884263
-0.056235097 0.20359734 -0.030840918 -0.15195212 0.021551665 -0.17725655 0.0042395475 -0.22582124
-0.036881924 0.0016551614 0.2017496 -0.05346967 -0.12240456 -0.23712768 -0.19337107 0.15243208
0.049103785 -0.18118027 0.032842524 0.09842309 0.13621302 -0.12696424 -0.04248188 -0.14203548
-0.28008953 -0.16458131 -0.15639062 -0.0021150801 0.017587021 0.18617442 -0.21719997 0.10694111
-0.1533629 0.09195097 0.099415995 0.1409521 -0.18547775 -0.22327162 -0.041780695 0.12831894
0.008313371 0.062323067 0.020010049 -0.2655771 0.16295247 -0.07509757 0.05247641 0.15317518
0.07730987 -0.18198891 0.13799559 0.18238606 -0.22025838 -0.086917065 0.1652488 -0.042918164
-0.22654775 -0.17051204 0.10217428 -0.13638617 -0.18324389 -0.13324511 -0.2567629 0.104183175
-0.020903748 0.11668658 -0.118127435 -0.07970712 0.22837979 -0.07515753 -0.06400216 -0.19246401
-0.038226116 0.19707976 0.029808935 0.12848 0.09060552 0.15001152 -0.09554122 -0.06294615
0.076042876 0.06794008 -0.07011722 -0.2021293 -0.09156961 0.04474438 0.044149324 0.18820056
-0.11100706 -0.17361858 0.03021712 0.19762483 -0.05086921 0.098162696 -0.20691188 0.15230156
0.009609916 -0.17532778 -0.15517922 -0.23528627 -0.22173592 0.10174382 -0.0538816 -0.11255398
-0.19042133 -0.05759046 -0.18694912 0.15297726 -0.0072892653 0.21130097 -0.25103277 0.16011156
-0.09109418 -0.06665532 -0.14380118 0.12630516 0.103103384 0.08993234 -0.1522261 0.16269207
0.09430508 -0.17173856 -0.17849764 -0.2001509 0.13718376 0.11941656 -0.23763782 -0.123322755
-0.18768574 0.14428475 0.17037366 0.13468364 -0.097941965 -0.21525092 0.1548642 -0.2324103
-0.04377268 0.04908292 -0.19959219 -0.19014387 -0.14573638 -0.18245669 -0.030075265 0.18575582
0.1586966 -0.04898623 0.11553456 -0.0467468 -0.25540733 -0.09807891 -0.11368835 0.0848022
0.17661776 0.07445584 0.15337026 -0.10616261 0.0014427947 -0.23315303 -0.010037332 -0.15105231
0.027933406 0.090204254 -0.08565336 -0.004472228 -0.1280874 0.010543299 -0.0044539454 0.12241127

linear3.weight f4 [9, 256]
00000000: 7b5b 3abd 13d8 993a e5df 99bc bd3a d0bb
00000010: 30e7 2ebc 77da 8f3c eb4b a5bd 932c 243d
00000020: d3e6 16bd ff54 683c f11f 203d 0078 4f3b
00000030: bd91 34bd 3003 82bc 0892 6d3c 1b1a fc3c
00000040: f341 893b d688 2abd 091b 56bb 87e7 6a3c
00000050: 3790 6d3c eacd 3b3d 08e0 0abd 47ed 16bc
00000060: 2668 693c 2277 323d b05f a23b 9e6c 07bb
00000070: 0c53 f43c e6e3 0dbd d071 583d 7055 8b3b
00000080: 96ef 12bd cc35 4dbd dc8e f63c 6d75 aabb
00000090: 5dd7 1e3d 26ad 0dbd 0d7b f3bb 1663 903c
000000a0: fe1f b23a ca4f 8db9 c604 7abd 733b 0e3d
000000b0: c261 143d 9636 f23b e643 393d 18fe d2bb
000000c0: 2669 23bd 23af 13bd 1b5c abbc 13bb 8cbd
000000d0: 4e0e 01bd 11d0 373d 3ad4 1bbd 6bcf 04bd
000000e0: 4944 c83a 1b4e 1dbd 807a 953b c2f4 bfbc
000000f0: c06e cf3c bb5c 723b cc4a c03c 2fb6 833c
00000100: 2050 b73b f46a 53bd 6720 32bd 1e47 3bbd
00000110: fae8 7abd e914 27bb ee0f cbbc 30fe b5bc
00000120: 647e b4bb 85c4 ff3b 0d6d 08bc 159f 55bc
00000130: c1dd 063d 8f2c 913c 2df5 f83c bc79 d93b
00000140: 066b ce3c f08c 63bd 4110 873c bfb4 02bc
00000150: ecf2 e93c c260 5bbc cfde 353c 7e2d 403c
00000160: 1272 f2bc ad26 7fbd 94d4 14bc 03c9 3fbb
00000170: aea8 813c 502c 45bd 3997 f0bc be96 4dbb
00000180: dc20 8b3c 9e62 7f3d c4f3 46bc 1f10 17bc
00000190: eb0b 443c 20dd 46bd 678b da3c bb75 48bd
000001a0: 7d86 643d e714 0f3d ac3d d53c ee91 65bd
000001b0: c65b 3c3d af9a 51bd 59a7 d8bc 008a 483a
000001c0: f4a9 dbbc 1fbe 3c3c 81e6 313d f0aa 28bd
000001d0: 861d 2abd cb74 853b e515 c43c 71fd 123d
000001e0: 0ecf d23b 8196 2e3d 754d a7bd 10d0 1ebd
000001f0: 615a 303d 10ac c43c 00c9 d73a 578f ba3c
00000200: 2df0 573d dbd9 abb9 5e4c db3c 00d0 ca39
00000210: 2f96 ae3a 485e 403d fc1b 92bc 41d4 0d3d
00000220: 7ed1 e03b cbb9 36bc 47e0 41bd 0ccb 843c
00000230: a87c dabc cca0 fdbc 7d32 4b3d be98 4fbc
00000240: b2cd 1dbd a0ed 1ebd 0646 9dbc d09b 243c
00000250: 2758 873a 8838 f8bc e0e5 c137 6fa4 ab3c
00000260: 15c2 05bd d63b 21bd 87f8 0fbd 7041 07bd
00000270: 9bbf aabd d593 a13c 66c2 253d fbc8 3e3d
00000280: e03e ec3c d695 0f3d c296 e43c 19f6 c4bc
00000290: 9007 8cbc dd35 a3bc cb56 4f3c b561 043d
000002a0: 8708 663c 32de 21bd 8e34 c73c 9af2 5f3c
000002b0: 1f7d e13c ad83 5fbc 74d8 c7bc e1df 4cbd
000002c0: dd59 febc e21f f0bb 1b41 0cbd 7214 1c3d
000002d0: 4a4a 0fbd 4a3f a23c 6002 9bb8 92c7 0d3d
000002e0: 8168 d7bc 412e a5bc 72fa fbbc 45e7 babc
000002f0: 74a2 043d 5638 80bb e8a9 513c d2a4 573d
00000300: c7d2 d53c d93f 4abd d9aa 663c 0337 d53c
00000310: 51bb 4ebd 4f8c 27bd e1dd e3bc 2ff1 433d
00000320: 9e18 e0bc 85a5 ef3c 6894 8bbc 7171 f93c
00000330: 9038 e33c 385a b9bc 3d41 dbbc 4980 2c3c
00000340: 3b1d 613c 5395 2bbd 93fd 24bd 3096 57bc
00000350: 7c7d 303c bc1d 51bd 91e0 e8bc 5e18 debc
00000360: f6bf fbbc 30df 963b 908e 70bc fceb 33bd
00000370: 0018 473b f1f2 c13b 3e69 333d 9406 93bc
00000380: 4278 2dbd 4e11 18bd 4d5f eabc e93e 43bd
00000390: ff7a ba3c 0004 2b39 8cd2 ca3c 4213 d43c
000003a0: c0b7 bf3c b89c 20bc 8096 1cbc d499 86bc
000003b0: 0ffc 50bd a24e 103d 13a2 aa3c 2f81 463d
000003c0: 26a2 32bd 385f 13bc e59b 243d 9e96 df3c
000003d0: 4c4e c5bc 4e14 24bd 1d70 8abc 3785 443b
000003e0: acfb bebc 80a6 fd3c 7b5e da3a 6293 a93c
000003f0: b9a8 073c b59e 12bc 69c1 eb3c 84b1 e53c
-0.0454974 0.0011737369 -0.018783519 -0.0063546584 -0.010675237 0.017560227 -0.08071121 0.04008157
-0.036841225 0.014180421 0.03909296 0.003165722 -0.0440843 -0.01587066 0.014500149 0.030774167
0.00418877 -0.041634403 -0.0032669923 0.014337427 0.0144997155 0.04585067 -0.03390506 -0.009211845
0.014246022 0.043570645 0.0049552545 -0.0020664106 0.029824756 -0.03464117 0.052842915 0.0042521283
-0.03587302 -0.050100133 0.030097418 -0.0052019865 0.038779605 -0.034588955 -0.0074304403 0.017625373
0.0013589857 -0.00026953063 -0.06103971 0.034724664 0.03622604 0.007391761 0.04523077 -0.0064389817
-0.0398952 -0.036055695 -0.020917943 -0.06871619 -0.031507783 0.044876162 -0.038044192 -0.03242437
0.001527914 -0.038404565 0.0045617223 -0.02343214 0.025321364 0.0036981541 0.023473166 0.016078083
0.0055942684 -0.05161567 -0.043487933 -0.04572212 -0.06125734 -0.002549464 -0.02478787 -0.022215933
-0.005508231 0.0078054094 -0.008326781 -0.013038416 0.032926325 0.017721443 0.030390346 0.0066368263
0.025197517 -0.05555433 0.016487243 -0.007977664 0.028558217 -0.013389768 0.011100485 0.011729596
-0.029595409 -0.062292743 -0.009083886 -0.00292641 0.015827503 -0.048137963 -0.029368984 -0.0031370367
0.016983442 0.062349908 -0.012143079 -0.009220152 0.011965732 -0.048550725 0.0266778 -0.0489404
0.05579232 0.034932043 0.026030384 -0.056047373 0.04598596 -0.05117291 -0.026446985 0.0007649958
-0.026814438 0.011519938 0.043432716 -0.041178644 -0.041532062 0.0040727607 0.023936221 0.03588623
0.0064333742 0.042624 -0.08169071 -0.038772643 0.043054942 0.024007827 0.0016463101 0.022773428
0.052719284 -0.00032777977 0.026769813 0.00038683414 0.0013319905 0.046964914 -0.01783561 0.03462625
0.006860911 -0.011152695 -0.04733303 0.016210102 -0.026670769 -0.030960463 0.049608696 -0.012670694
-0.038526244 -0.038800836 -0.019198429 0.010046914 0.0010325954 -0.030300394 2.3114437e-05 0.020952431
-0.032655794 -0.039363705 -0.035149124 -0.03302139 -0.08337327 0.019723812 0.040468596 0.04657839
0.028838575 0.035055004 0.027903918 -0.02404313 -0.01709345 -0.019923145 0.01265497 0.032319743
0.014040119 -0.039518543 0.024317052 0.013668681 0.027525483 -0.013642234 -0.024395205 -0.050018195
-0.03104871 -0.0073280195 -0.034241777 0.038105436 -0.034982957 0.01980557 -7.391418e-05 0.034614153
-0.026294949 -0.020163657 -0.03075907 -0.022815356 0.03238149 -0.0039129658 0.012796856 0.05264742
0.026101483 -0.049377296 0.014078819 0.026027208 -0.050471608 -0.040905293 -0.027815761 0.047837432
-0.027355488 0.02925373 -0.017038539 0.0304496 0.027736932 -0.022626027 -0.026764506 0.010528632
0.013739879 -0.041890454 -0.04028089 -0.013158366 0.010772105 -0.051053748 -0.028427394 -0.027111229
-0.030731183 0.0046042427 -0.014682427 -0.043926224 0.0030379295 0.0059188535 0.04380154 -0.017947473
-0.042351015 -0.037125878 -0.028609896 -0.047667418 0.022763727 0.00016309321 0.0247586 0.02588809
0.023403049 -0.00980299 -0.009557366 -0.016430773 -0.05102163 0.03523124 0.020829236 0.048463043
-0.043611668 -0.00899487 0.040187735 0.0272935 -0.024085186 -0.040058427 -0.016899163 0.0029986629
-0.023313366 0.030963182 0.0016660237 0.02070016 0.008279973 -0.0089489715 0.028778749 0.028038748

linear3.bias f4 [9]
00000000: 4a5d c1bb dabd d3bc 05ce 543d 6dea 79bd
00000010: cf0f 70bd 311c 8bbd d885 23bc fcfc 173d
00000020: 6d7d 3bbc
-0.0059010135 -0.025847364 0.051954288 -0.06101458 -0.058608826 -0.067924865 -0.009980641 0.0371065
-0.011443478
