Formula1/model/model.pth (torch, 21812 bytes, 6 tensors)

linear1.weight f4 [256, 12]
000000 6a 6e 6a be 30 ee b2 3c 9c 58 ef 3d 3a d1 3e be
       -0.22893682 0.021842092 0.11686823 -0.18634501
000010 9a 4c f8 bd 5c 2d 56 3e c4 b3 84 bd f1 0e 1f 3e
       -0.121239856 0.2091574 -0.064796 0.15533043
000020 73 ec 8e 3e 3b 8a 97 be 20 c5 c3 bc 80 60 50 be
       0.2791477 -0.2959765 -0.023897707 -0.20349312
000030 62 eb 4d 3e 80 cb d7 bb 1e bb 0c be 40 ae 7c 3d
       0.20109323 -0.0065855384 -0.13743255 0.061689615
000040 10 e6 ff 3d 2d 7f 7a 3e 9f 3e a9 3d 05 bb 1f be
       0.12495053 0.24462576 0.08263897 -0.15598686
000050 19 8c 47 3e ed 28 99 3e 5d e3 3e 3c 0e f9 88 3e
       0.19487037 0.29914036 0.011650887 0.26752514
000060 be be 4e 3e 5e 5a 59 be 07 07 35 be 4a a8 be bd
       0.2018995 -0.21225879 -0.17678462 -0.09309442
000070 00 f0 71 3e ed 9c 51 3e de 55 05 be b5 58 91 bd
       0.23626709 0.20470019 -0.13021037 -0.07096998
000080 65 58 4a 3e a7 c5 14 be 19 d0 b5 3e 86 26 1b 3e
       0.19760282 -0.14528523 0.35510328 0.15151414
000090 cc b6 ee 3d 3c cd d1 bd 55 34 99 3d 50 1d ba 3d
       0.116559595 -0.102442235 0.07480685 0.09087622
0000a0 00 89 48 3e c2 63 84 be 0b 91 0b be b4 81 95 be
       0.19583511 -0.2585736 -0.13629548 -0.29200518
0000b0 80 2a f2 3d 25 ca 80 3e 36 f1 89 3b 28 19 f6 3d
       0.118245125 0.25154224 0.004209663 0.12016517
0000c0 fc 31 8a 3e e0 93 42 bd 94 fb 6e 3e 38 3d 4f 3d
       0.2699126 -0.047504306 0.23338157 0.050595492
0000d0 08 88 d8 3d 20 73 fc bd a3 c4 df 3d 3b e2 3e 3e
       0.10572821 -0.12326646 0.10926177 0.18640988
0000e0 e4 8a 8c 3e 9e d6 6f be 9b f7 98 3c 79 32 82 be
       0.27449715 -0.23421714 0.018672755 -0.25429133
0000f0 66 1b 43 3e 28 89 27 3e 00 23 cc 3c 4a 15 88 be
       0.1905342 0.16360915 0.024919033 -0.26578742
000100 cb e2 5a be 73 0c 72 be a4 8f 50 be 40 6c 8b be
       -0.21375577 -0.23637562 -0.20367295 -0.27231026
000110 3c 13 b0 3d a6 3d 85 be 60 c2 06 bc 0c 2c 88 3e
       0.08597419 -0.26023597 -0.008225054 0.26596105
000120 00 08 9c bc 40 93 9e 3c 18 24 f6 3d 07 17 2d be
       -0.019046783 0.019357324 0.12018603 -0.16903315
000130 84 cb 42 3e 93 1f 0e 3e 00 d9 96 be 01 d9 35 be
       0.19022948 0.13879232 -0.29462433 -0.17758562
000140 84 3e f4 bb 55 1a b0 bd 65 3f 77 bd 4e f7 d0 bd
       -0.0074537415 -0.085987724 -0.060363192 -0.102034196
000150 9c 59 31 3e 64 b1 57 3e 3b 39 f8 bd a0 eb 12 bd
       0.1731934 0.21063763 -0.12120291 -0.03586924
000160 c0 34 dd 3d 97 c3 9f bd 3d 76 d7 bd 1f 8b 45 be
       0.10801077 -0.07800978 -0.10520599 -0.19291352
000170 24 3c b9 bd 09 6f 62 bd 49 c7 7f 3e 10 1c 90 be
       -0.09044674 -0.055281673 0.24978365 -0.2814641
000180 eb 84 4d be 78 f7 7e 3e 2c 48 6b be e6 95 29 be
       -0.20070235 0.2489909 -0.2297675 -0.16561088
000190 10 04 40 be 39 72 6d be 3a 14 80 bd e8 53 ed bd
       -0.1875155 -0.23188104 -0.06253858 -0.115882695
0001a0 6c 53 4c bd 10 38 53 be 94 01 17 3e 88 83 8a 3e
       -0.049884245 -0.20626855 0.14746696 0.27053475
0001b0 4f 01 90 be 92 28 40 be 94 bd 90 bd 68 48 7d 3d
       -0.28125998 -0.18765476 -0.07067409 0.06183663
0001c0 74 56 8c be 30 fc 68 be 10 1c 30 3e 4c bd 91 3e
       -0.27409708 -0.22752452 0.17198205 0.28464735
0001d0 ac 44 7c bd 6a ea 4f be b0 0d fc 3c b0 bd 1d 3e
       -0.061588928 -0.20304266 0.030768245 0.15404391
0001e0 97 94 8b be 80 3e 00 3b 94 db 77 3d 98 cd 0b 3e
       -0.27261803 0.0019568503 0.06051214 0.13652647
0001f0 e6 df 5b be aa 2a 47 3e 4c 84 af 3d c6 9e 8e 3d
       -0.21472129 0.19449869 0.085701555 0.069638774
000200 a7 da 89 3e 01 6c 3e 3e 99 b4 03 be 70 2b c7 3d
       0.2692463 0.18595888 -0.12861861 0.09725082
000210 9c ab 53 3e 23 6b 03 be 0d 74 2e be 52 c3 c8 bd
       0.20670933 -0.12833838 -0.17036457 -0.098028794
000220 94 6f 87 be 37 4f 99 ba 6e 7a 52 be 80 ce 98 be
       -0.26452315 -0.0011696581 -0.20554516 -0.29845047
000230 7c 5d e7 3d 09 35 26 3c 42 6c 0c bc dc c7 62 3e
       0.112971276 0.0101444805 -0.008570733 0.22146553
000240 30 a5 0c 3d 2a ba 82 3e 7c bc 6c be 3e ca f3 bd
       0.034337223 0.25532657 -0.23118776 -0.11903809
000250 30 6e d4 bd 4c 5c 8d 3e 60 c5 f0 3d fa ed 27 3e
       -0.10372579 0.2760948 0.11756396 0.16399375
000260 7c 1b bd bd 3c bd 86 3d 33 5d 19 be 90 3a e8 bc
       -0.09233758 0.06579062 -0.14976959 -0.028348237
000270 f0 cb 39 be a6 7a 8c 3e c7 3c 36 3e 70 12 5f 3d
       -0.18144202 0.27437323 0.17796622 0.054460943
000280 60 d3 67 3e e4 3b c7 3d fc eb b3 bd c1 5c 2e 3e
       0.22639227 0.0972822 -0.08785245 0.1702757
000290 1c e5 1b be 46 ef 01 be 72 f1 dc bd 54 73 67 be
       -0.15224117 -0.12688932 -0.107882395 -0.22602588
0002a0 4a 69 05 3e 94 a6 43 be 6c b4 22 3c 5a 87 54 be
       0.13028446 -0.19106513 0.009930711 -0.20754758
0002b0 26 f9 39 be ff 40 a0 bd 9c f3 28 3e c7 70 2f 3e
       -0.18161449 -0.07824897 0.1649918 0.17132865
0002c0 60 58 35 bd 2f e4 69 3e 2e f6 18 be 04 35 87 be
       -0.044273734 0.22840951 -0.1493766 -0.26407635
0002d0 0c 4c 40 3e 7e 02 28 3e 45 2f e1 3d d2 88 d5 bd
       0.1877901 0.164072 0.10995344 -0.10426487
0002e0 00 42 9e 3a 4e 49 87 3e 61 18 9e 3c 3b 44 2d be
       0.0012074113 0.26423115 0.019298734 -0.16920559
0002f0 ea ab 91 bd 4b a1 e1 3a 9d 51 a7 bd 3c 06 b4 3d
       -0.07112868 0.0017214207 -0.081698634 0.087902516
000300 bb 67 47 be a0 1d e4 bd f5 31 4b 3d e0 61 db bc
       -0.19473164 -0.11138463 0.04960819 -0.026780069
000310 4c 30 26 bd ad 85 5a 3d 78 97 8a 3e 24 cd 8a bc
       -0.040573403 0.05335014 0.27068686 -0.016943522
000320 3b fb 4d 3e 48 73 17 3e 7e 2f 8e be c4 24 fb bd
       0.20115368 0.1479007 -0.2777061 -0.12262872
000330 c0 db bd 3c c0 cd 9e 3b 98 cf 99 3d b3 07 8f be
       0.023176074 0.0048463047 0.075102985 -0.27935562
000340 b8 fa 97 3d d2 be 63 be a0 53 99 3d c4 ab 3d bd
       0.07420868 -0.22240761 0.07486653 -0.046306387
000350 f0 65 51 3e c0 93 08 bc 20 ba 6f bc 35 19 93 be
       0.20449042 -0.008336008 -0.014631778 -0.2873017
000360 4a 7f 35 be 00 f1 83 3e 7a 8b 88 be be f3 02 3e
       -0.17724338 0.25769806 -0.26668912 0.12788293
000370 4c 73 07 3e 0b 1f 36 be 1e 38 54 3e 30 7e 04 3e
       0.13227576 -0.1778528 0.20724532 0.12938762
000380 e4 b3 35 3e f1 f8 8d 3e a3 e9 48 3e 98 01 22 bd
       0.17744404 0.2772899 0.19620375 -0.0395523
000390 74 42 85 3e f0 1c dc bc 66 a5 56 3e 7b 49 5b be
       0.26027262 -0.026869267 0.20961532 -0.2141475
0003a0 28 1f c5 3d ac 6b bf bd 15 e4 92 be 56 83 18 3e
       0.09625083 -0.09346709 -0.28689638 0.1489385
0003b0 52 d6 78 3c 7a 37 7f 3e 8a e1 64 3e 6a 80 87 be
       0.015187817 0.24923506 0.22351661 -0.2646516
0003c0 7c db 91 3e 5a a7 5a be 83 6c 54 be d0 5b 80 3d
       0.28487766 -0.21352902 -0.20744519 0.06267512
0003d0 90 4b 75 3d 00 39 83 bc ca ae 5f be 0e 75 0a 3e
       0.059886515 -0.01601839 -0.2184402 0.13521215
0003e0 c6 d3 8d be 60 2b 8f 3e 32 ab 89 bd 00 50 ca b9
       -0.27700633 0.2796278 -0.06722106 -0.00038588047
0003f0 84 eb bb 3d cc 5d 7a 3e 18 7d 2f 3e 60 a5 79 3d
       0.091757804 0.24449843 0.17137563 0.06094873

linear1.bias f4 [256]
000000 8f 9c 77 bd 13 ba 67 bd ef 28 a6 3e fd fc b3 bd
       -0.06045204 -0.05657394 0.32453105 -0.08788488
000010 84 12 14 bd 88 3b 64 3d ab c3 14 3e 71 5b 3a bd
       -0.03615047 0.055720836 0.14527766 -0.04549736
000020 c7 d6 05 be 80 14 c1 3b b7 0c 00 be d0 15 84 3e
       -0.13070212 0.0058923364 -0.1250485 0.25797892
000030 3a 95 49 be b7 84 de bb 61 0a 35 be 13 d8 10 be
       -0.19685832 -0.006790723 -0.1767974 -0.14144926
000040 08 3c a2 bd be a5 8a be fd 05 93 3d 0e c8 25 3e
       -0.07921606 -0.27079576 0.071788765 0.16189596
000050 88 3e 38 be 42 79 70 3e cc b3 71 be 6c 80 30 3e
       -0.17992604 0.23483756 -0.23603743 0.17236489
000060 b4 f3 a3 bd f4 1a 2a 3e 14 42 22 bd 05 0e 45 be
       -0.08005467 0.16611844 -0.0396138 -0.1924363
000070 f4 2c 40 be 9c e2 85 be 90 11 cb 3d b8 a4 c5 bd
       -0.18767148 -0.26149452 0.09915459 -0.09650558
000080 47 83 7a 3e 7b 04 c7 bc 40 cb b1 3d f2 fa 7b be
       0.24464141 -0.024294129 0.08681345 -0.24607447
000090 19 e7 11 be 6a 19 81 be 48 de 21 3d ff b6 54 be
       -0.14248313 -0.25214702 0.039518625 -0.20772932
0000a0 5e 2c 3d bc f8 a5 d6 3c c6 46 bf bc 43 6d e1 bc
       -0.0115462225 0.026202187 -0.023349177 -0.02751792
0000b0 98 ab 98 3d 35 b9 1c bb c5 4e 6a 3e 94 0d 03 3e
       0.07454604 -0.0023914103 0.2288161 0.12798148
0000c0 3f 49 1d be 5a 32 31 3d b5 33 88 be c8 68 92 be
       -0.15359972 0.04326091 -0.2660195 -0.28595567
0000d0 20 48 20 3d e1 86 e9 bd 68 29 b2 ba 57 b2 10 3e
       0.039131284 -0.11402679 -0.0013592662 0.14130531
0000e0 41 14 84 3e 50 38 3a 3d f8 b3 16 be 54 fb 0a be
       0.25796703 0.04546386 -0.1471709 -0.13572437
0000f0 b9 9f 85 3e 8f eb 6f be 2e 7a c6 bd ed f9 43 be
       0.2609842 -0.23429702 -0.09691273 -0.19138308
000100 ee 63 27 be ce dd 75 3e 8e 55 66 3e b1 7e 85 be
       -0.16346714 0.24010393 0.22493574 -0.2607322
000110 77 a5 20 be dc 4f 85 3a 42 fc 0e be 81 30 87 be
       -0.1568812 0.0010170895 -0.13963416 -0.26404193
000120 a2 a6 17 3d dd b1 45 be ec 75 83 be 00 04 d8 3b
       0.037024148 -0.1930613 -0.25675905 0.0065922737
000130 49 3d 60 bd ec 57 13 3e 81 e5 16 3e ec d5 eb 3c
       -0.054745946 0.14389008 0.14735986 0.02878853
000140 79 5e f9 bd 3d 67 84 3e e2 7c 0a 3e ae 93 fe bd
       -0.12176222 0.25860015 0.13524202 -0.124305114
000150 d8 76 d3 3d d6 37 51 be db ed 42 3d 46 77 71 3e
       0.10325402 -0.20431456 0.047590118 0.23580655
000160 f5 87 1b 3e 08 54 6a 3d c0 f6 52 bc 5a b1 c2 bd
       0.15188582 0.057209045 -0.012876213 -0.095064834
000170 7a c3 3d be 4a 5e 77 3e e2 22 85 be 03 f2 83 be
       -0.185316 0.24157062 -0.26003176 -0.25770578
000180 2c 1a 5f bc 00 1c 0d 3b 7e 59 63 3e 8a e5 45 be
       -0.01361708 0.0021531582 0.22202107 -0.19325843
000190 1e 90 84 3e 4b db 49 be 33 de 39 3e 8d 34 7b 3e
       0.25891203 -0.1971256 0.18151169 0.24531765
0001a0 42 36 cd 3d 9a d8 ec 3d 40 c5 c9 3d 67 35 5e be
       0.100201145 0.11564751 0.098520756 -0.21700059
0001b0 a2 3d 1a 3e e9 67 5f 3e f8 5b 49 be c5 00 8f 3e
       0.15062574 0.21816982 -0.1966399 0.27930275
0001c0 82 73 18 be 11 df 5b 3e 85 72 cf bd d5 5e 3f 3e
       -0.14887813 0.21471812 -0.10129265 0.1868852
0001d0 d2 22 38 3e da 62 16 be 96 91 ed 3d 94 66 bf 3d
       0.17982033 -0.14686146 0.11600034 0.09345737
0001e0 f4 cb 5f bd a0 48 5c 3d 37 4d 83 3e 8c cb ae bd
       -0.054637864 0.053780198 0.25644848 -0.08534917
0001f0 f0 40 69 be ba 20 54 3d f7 12 df bd bc fc 6f be
       -0.22778678 0.051789023 -0.10892289 -0.23436254
000200 b7 e9 3c 3d 9a ff 26 3d 8e 9e 23 be 04 1d b4 bd
       0.046121325 0.040771104 -0.15978453 -0.08794597
000210 8a e8 7d 3e 1a 57 2d 3e a2 5b 2e 3e fb 19 47 bd
       0.24795738 0.16927758 0.17027143 -0.04860876
000220 96 95 a6 bd 65 6a 97 3d 4c 43 4c 3c 80 37 36 3e
       -0.08134 0.0739334 0.012467217 0.17794609
000230 d3 14 ac bd 33 87 8f be 4d 77 87 bd 0a ae 85 3d
       -0.084024094 -0.28032836 -0.06614552 0.06527336
000240 4c 4e da 3d 35 49 7e 3e 64 ad 1b 3e a7 4c 11 3e
       0.10659465 0.24832614 0.15202862 0.14189397
000250 86 f7 05 3e 44 91 40 bd e9 1c 8e be 18 a4 6a 3e
       0.13082704 -0.047013536 -0.27756432 0.2291416
000260 78 85 86 3e 41 e7 7b 3d f0 44 c8 bd a3 ee 1a 3e
       0.26273704 0.061499838 -0.09778774 0.15130095
000270 ae 8b 58 3e ed 14 4e be 6e fe 88 3e 4f 9e 15 be
       0.21147034 -0.2012517 0.26756614 -0.14611171
000280 8a 19 72 be 6b 52 5f be af 0c 3d be 13 9d 70 3d
       -0.23642555 -0.21808784 -0.1846187 0.058743548
000290 08 0b 2f 3d b0 c8 6c be 95 a5 23 3e 9f 31 b4 3d
       0.04273513 -0.23123431 0.15981133 0.08798527
0002a0 02 4a b4 3d 78 bf 56 3e a2 f4 38 be b3 f6 9e 3b
       0.08803178 0.20971477 -0.1806207 0.004851186
0002b0 69 a2 39 be 3f 1c a2 3d 9b 45 d7 3d 40 f9 5b 3d
       -0.18128361 0.07915544 0.10511323 0.0537045
0002c0 a0 2c 84 be 3e 4a 8d be 07 33 e8 3d 2e ea 66 be
       -0.25815296 -0.27595705 0.11337858 -0.2255027
0002d0 1c 1d 8f 3d 5b 47 60 bc 70 6f 2d be f3 3d 01 be
       0.06987974 -0.0136888875 -0.16937041 -0.12621288
0002e0 a0 6b 49 bd 3c cf e4 bc 66 1e 09 3d 3d d3 91 be
       -0.049174905 -0.027930848 0.033476256 -0.28481475
0002f0 3c 3b 82 3e 41 8d 83 be 20 1d e1 bd 6e ed 50 be
       0.25435817 -0.25693706 -0.10991883 -0.20403072
000300 74 3f 90 3d bf 7a f1 3d 86 e9 7f be 02 93 e3 3d
       0.07043353 0.1179099 -0.24991426 0.11112024
000310 b0 a6 95 3d e1 33 55 3e 50 04 f7 bd 9a 4b 9d bd
       0.07307184 0.20820571 -0.120613694 -0.076804355
000320 cc 2e 34 be c2 d8 89 3e 50 f8 81 3e bc 01 b6 3d
       -0.17595977 0.26923186 0.2538476 0.088870496
000330 70 e0 c7 3c 5c 45 85 be b7 cb 95 3e 34 53 31 bd
       0.024399012 -0.2602948 0.29256985 -0.04329224
000340 40 89 d3 3b 7e 72 51 3c f3 9b 8d be 90 b8 3a 3e
       0.0064555705 0.012783645 -0.27658042 0.18234468
000350 d9 74 4e 3e 7f 2d 27 3e 13 aa 32 be 20 e5 63 bc
       0.20161761 0.16325949 -0.1744769 -0.013909608
000360 9e 92 ba bd c7 b2 53 3e 70 cf 29 bd 94 ec a1 bd
       -0.09109996 0.20673667 -0.041457593 -0.07906452
000370 3b a9 24 3c 98 cd 1b 3d 70 3b 92 3d ae d9 61 be
       0.010050113 0.038037866 0.07140243 -0.22055694
000380 19 00 31 bd 0d bf 57 3e ef f7 03 3e 04 d4 5f 3e
       -0.043212984 0.21068974 0.12887548 0.21858221
000390 0b 5a 8b 3e 78 60 15 bd a3 c3 16 3e fa ae ad bd
       0.27217135 -0.036468953 0.14723067 -0.0848064
0003a0 fa 56 8f be 08 0b eb bd 5d 53 00 bd df 01 25 3e
       -0.27996045 -0.114767134 -0.0313295 0.16113995
0003b0 a5 fc 83 3d 41 8d 81 be ef 89 b1 3d 5f bc 8d 3e
       0.064446725 -0.2530308 0.08668887 0.27682778
0003c0 00 a8 54 bc 0f 2f b4 3d c0 5c 59 be 97 db 45 be
       -0.012979507 0.08798038 -0.21226788 -0.19322048
0003d0 43 37 25 be fa 56 37 3e c5 ef 82 bd bf 8e 15 be
       -0.16134362 0.17904273 -0.06393389 -0.14605235
0003e0 68 7e 0b 3c 86 26 21 3e 07 8e 4a 3e 43 2f 2d be
       0.008514024 0.15737352 0.19780742 -0.1691256
0003f0 09 b1 06 be fd 55 3b bd fc da 90 bd 7a a9 97 3d
       -0.13153471 -0.0457363 -0.07073018 0.07405372

linear_dir.weight f4 [3, 256]
000000 de 67 28 bc ea fb 81 3d 55 49 0a be 00 73 df bd
       -0.01027867 0.06346877 -0.13504536 -0.109106064
000010 35 90 65 bd 40 2e db 3b 2a b1 f9 bc 72 a0 75 bd
       -0.05604573 0.006688863 -0.030479986 -0.059967466
000020 5c fa aa bc 4a 1d 5a bd 01 7a be bc 3a ae 06 bd
       -0.020871334 -0.05325059 -0.023251535 -0.032881
000030 f2 84 57 3d 0e 97 54 bd 11 bc 03 3c 9e 6d ec 3c
       0.05261702 -0.05190187 0.008040444 0.028860863
000040 aa a5 20 3c 7e 3a 38 bd 2a ba 94 3b 84 c7 6f 3d
       0.009805122 -0.044977657 0.004538794 0.058539882
000050 e8 a3 7e bc e4 8e 86 3d 0a b4 d8 3c 8c 16 b6 bc
       -0.015542008 0.06570223 0.026453037 -0.022227548
000060 74 b3 f4 bc 93 0f 89 3d 70 7b 46 bd 6b 77 95 3d
       -0.029870726 0.06692424 -0.048457563 0.07298168
000070 38 b2 3d bc ce cc ab ba bb 22 f0 3c 00 19 00 3c
       -0.011578135 -0.0013107301 0.029313436 0.00781846
000080 7b 1c 8c 3c ed d0 13 bd 80 e0 20 ba 50 d0 cc 3c
       0.017103424 -0.03608792 -0.0006136969 0.025001675
000090 3c db af bc 5e 5c d3 bb e0 c9 a7 bc 1c 53 8e bc
       -0.021466844 -0.00645022 -0.020482004 -0.017373614
0000a0 40 ce 86 3d 50 43 3e bd 00 38 e3 3c 50 b7 56 3d
       0.06582308 -0.046450913 0.027736664 0.052420914
0000b0 b4 64 4c bd c4 66 25 3d 97 b8 45 bd f6 5b 2c bd
       -0.049900725 0.040381208 -0.04827174 -0.04207989
0000c0 94 bd d2 bc 94 2e 4a bd 66 a2 b6 bc e0 ce 00 3d
       -0.025725164 -0.049360827 -0.022294234 0.03144729
0000d0 d4 e6 9c 3c 8d 73 a0 bc 95 42 7a 3d 7c 2f 34 3d
       0.019153036 -0.019586349 0.061098654 0.043990597
0000e0 de 8c 99 3c e0 77 55 bd 5c a9 23 bd 78 d8 49 bc
       0.018743929 -0.052116275 -0.039956436 -0.012319677
0000f0 af 49 98 3c a8 1f 5d 3c 10 6a e4 bc f6 c9 4f 3a
       0.018589823 0.013496317 -0.027882606 0.0007926518
000100 60 65 3b 3c fe 1a 11 3d 8c 43 21 3d 78 20 91 3c
       0.011437744 0.035426132 0.03937106 0.017715678
000110 86 74 3e 3d 5a 33 db 3c 06 86 7a bd 04 bd d9 3c
       0.046497844 0.026757885 -0.06116297 0.026579387
000120 92 a3 d4 bb 49 d9 89 3d f0 f0 6f 3d 74 24 44 bd
       -0.0064892257 0.06730897 0.058579385 -0.047886327
000130 75 67 40 3a b6 fb 0b bd 4c 7a e3 3c ca 56 72 bb
       0.0007339635 -0.034175597 0.027768277 -0.0036978
000140 9a be 17 3d f2 96 a5 bc fe 5b 35 3d ac 2d 14 3d
       0.037047006 -0.020213578 0.044277184 0.03617637
000150 3c bb 4b 3c b8 a6 dd bc 4e ab 94 3c a1 ac 9f 3c
       0.012434777 -0.027057037 0.01814809 0.019491496
000160 df 96 8a 3d 20 4f 25 3b 9e 19 54 bd 00 b8 5e ba
       0.067670576 0.0025224164 -0.051782243 -0.0008496046
000170 46 a1 7b bd 98 5d 7a bc 36 50 5d 3d fa cf 15 bd
       -0.0614331 -0.015281104 0.054031573 -0.036575295
000180 92 dc 0b 3c 40 95 2a 3d 36 55 70 3b 9a 7b 39 3d
       0.008536475 0.041646242 0.0036671883 0.04528389
000190 22 6c 20 bd 1c 07 db bc 76 33 a0 3d 4d 38 91 3c
       -0.039165623 -0.026736788 0.078223154 0.017727042
0001a0 de 32 0d 3d 33 88 99 3d 98 e3 b3 3c 6e 34 95 3d
       0.03447234 0.07496681 0.021959111 0.07285391
0001b0 9e 8e 4c 3c 83 de eb 3c 12 46 38 bd e2 2e b8 3c
       0.012485174 0.028792625 -0.0449887 0.022483293
0001c0 4c 7f 26 bd 17 61 52 bc 99 b8 8a bc 2d 46 3a 3d
       -0.040648744 -0.012840531 -0.016933726 0.04547708
0001d0 71 b9 6d bc 44 6a 32 3d 45 9d 1a bd ec c8 46 3d
       -0.014509545 0.043558374 -0.03774764 0.048531458
0001e0 40 9b 48 bb 8c ba d1 bc 6c c0 3a bd 2d e3 22 bd
       -0.0030610114 -0.025601648 -0.045593664 -0.039767433
0001f0 20 4b 2b bb fa 6f 99 3c 89 ed 8e bc 78 82 76 bd
       -0.0026137307 0.018730152 -0.01744725 -0.06018302
000200 96 73 81 3d 98 27 84 bc 48 34 59 3c c0 43 48 bd
       0.063208744 -0.016132161 0.013257094 -0.048892736
000210 b7 31 29 bd 97 ed 95 bb 60 04 dc 3c 57 47 57 bd
       -0.041307177 -0.004575442 0.026857555 -0.05255827
000220 f0 2b 23 be 19 49 b4 3c db 4e 0a 3c 76 0d 12 bd
       -0.1593473 0.022007512 0.008441652 -0.03565737
000230 45 4e b5 bc 61 a0 37 bd 48 da 52 bc 53 a7 b3 bc
       -0.022132048 -0.044830684 -0.012869425 -0.021930372
000240 58 94 e8 bc ff c6 0a 3c 00 c6 cb ba 0f 07 03 3d
       -0.028391048 0.008470296 -0.001554668 0.031989153
000250 4a 14 19 bd 98 1e a1 bc 94 32 c0 bc d6 64 7f 3d
       -0.037372865 -0.019667909 -0.023461618 0.062352024
000260 a1 f0 63 3d f6 b6 eb 3c 5c 02 f3 bc 37 54 18 bd
       0.055649403 0.028773766 -0.029664211 -0.03718969
000270 25 51 05 3d c0 ee 83 bc d8 40 48 bc 70 ca 3e bd
       0.03254809 -0.016105056 -0.012222491 -0.04657978
000280 60 80 6c bd 06 42 83 bd 48 ca 6b bc 95 0b 7c 3d
       -0.057739615 -0.06409077 -0.014391489 0.061534483
000290 95 f1 43 bd 46 d7 42 3d 47 a7 0c bb cc 97 97 bc
       -0.047837812 0.047568582 -0.002146201 -0.018505
0002a0 1b d5 cc bc da d9 24 bd 30 7c 61 bc 11 c5 18 bd
       -0.02500396 -0.040246822 -0.013762519 -0.037297312
0002b0 27 2c 94 bd fe f8 9c 3d 6c 8d 01 bc fe d5 42 3d
       -0.07234984 0.07664679 -0.007907253 0.04756736
0002c0 50 e7 23 3d 1c b9 25 bd 89 df 99 bc c0 8f ab 3a
       0.04001552 -0.040459737 -0.018783348 0.0013089105
0002d0 d2 39 32 3d c4 98 1f 3d 98 8d 6a bd 4e 8c 7f 3d
       0.043512173 0.038964048 -0.05726394 0.062389664
0002e0 34 61 bc bc 1b 76 83 3d 6b 09 56 3b 9c 04 34 3d
       -0.022995569 0.06419011 0.0032659422 0.04394971
0002f0 24 a6 35 3d c0 cc e4 3b 23 cc 81 bc 7e 0a 7e bb
       0.044347897 0.006982416 -0.01584441 -0.0038763578
000300 fb c4 ee bc ea 91 1c 3c b2 c7 63 bd cb 9e c9 3b
       -0.029146662 0.009556273 -0.055610366 0.006152963
000310 6c 24 1b 3d f3 44 70 3d 1e ab fb 3b 56 22 70 bd
       0.03787653 0.058659505 0.007680311 -0.058626495
000320 28 07 a2 bc 1b aa 5a 3d cc bc 9b 3a e8 22 c4 3c
       -0.019778803 0.05338488 0.0011881827 0.023942426
000330 3c db 7c 3d c6 fd 2a 3d b2 44 95 3d 25 d5 67 3d
       0.061732516 0.041745923 0.07288493 0.056599755
000340 28 43 4b 3d 34 f8 3e 3d 18 1a 31 bc 25 0e df bc
       0.049624592 0.046623424 -0.010809444 -0.027228424
000350 08 f0 1c 3b 3b 84 a3 3d bd 88 52 3d 18 e0 4d 3d
       0.002394678 0.07984205 0.051399935 0.05026254
000360 15 7d 95 3d f5 ff 6b 3d 20 39 a2 3d b6 20 74 3d
       0.07299248 0.057617147 0.07921052 0.059601508
000370 28 7e 52 3d a4 d8 e3 bc c0 18 f1 bb ac 83 ca 3c
       0.051389843 -0.027813263 -0.0073576868 0.02472099
000380 91 eb 7e bd 71 89 4e 3d ea 23 79 bc a4 96 e0 3c
       -0.062236372 0.050424043 -0.0152063165 0.027415581
000390 d2 6f 77 3d 58 c2 2b bc b6 4c 02 bd db d4 33 bd
       0.060409375 -0.010483347 -0.03181144 -0.043904167
0003a0 1a 1e 48 3d 36 1e 4b bd e9 35 56 3d da a7 b2 b9
       0.048856832 -0.04958936 0.052297506 -0.00034075865
0003b0 5e 91 07 3d 20 e4 52 3d 24 40 20 bd 90 66 8c bb
       0.033097617 0.05148709 -0.03912367 -0.0042846873
0003c0 46 03 02 3d 7a f0 70 3c a0 ef 5d 3b c0 17 8a 3d
       0.031741403 0.014705772 0.0033864751 0.06742811
0003d0 de da 10 3d a7 26 d6 3c 0a 23 8d 3d 59 67 0d bc
       0.035364978 0.026141478 0.06891449 -0.008630597
0003e0 49 03 82 3d bd fd 1f 3c 44 44 f4 ba 4e 63 22 bc
       0.06348283 0.009765086 -0.0018636067 -0.009911371
0003f0 47 ea 96 3d aa 9a 1c bd 1f ea 48 bd 3c e7 ec 3c
       0.073689036 -0.038233437 -0.0490514 0.028918855

linear_dir.bias f4 [3]
000000 1b cc 7b 3d ad 97 26 bd 0b e0 24 bd
       0.061473947 -0.040671993 -0.040252727

linear_acc.weight f4 [3, 256]
000000 7c 26 97 bc 4a 19 79 3d e7 18 39 bc 53 9a da bd
       -0.018450968 0.060815133 -0.011297441 -0.10673966
000010 21 d7 af bd 14 d5 09 bd aa cf 21 3c 48 b5 03 bc
       -0.085859545 -0.033650473 0.009876171 -0.008038826
000020 2c 92 7a 3d ec 8b a6 3c 44 91 2c 3c 49 f2 a3 bc
       0.061174557 0.020330392 0.010532681 -0.020012992
000030 6a 1a 34 3d 27 f6 69 3c 1e 3d e4 bc 27 1a ee bc
       0.043970503 0.014279879 -0.027861174 -0.029065205
000040 e8 2d c2 3c 68 cd 3d bc f6 ac 69 3d a6 f0 37 bc
       0.02370353 -0.011584617 0.057049714 -0.011226809
000050 7c a0 42 bd 93 5f f4 3c 90 c6 01 3d c4 97 1e bd
       -0.04751633 0.02983073 0.031683505 -0.038718954
000060 15 21 30 3d 64 ce a6 bc 8b 67 1b bd 51 18 80 3d
       0.0430003 -0.020362087 -0.037940543 0.06254638
000070 00 2e 33 b9 0d f8 3c 3d 08 fa a0 3c 56 a4 3c bd
       -0.00017087907 0.046134997 0.019650474 -0.04605516
000080 ce 14 5d 3d 9c b5 78 3d a8 12 7d 3d 60 dc d3 bc
       0.05397492 0.06072007 0.06178537 -0.025861919
000090 70 89 67 3d 30 09 ec bc aa 14 22 3d f0 3a 86 3c
       0.056527555 -0.028812975 0.039570488 0.016385525
0000a0 ba 2b 0d bd 01 b5 1e 3d 26 3f 76 3c 1b 5e cd ba
       -0.03446553 0.038746838 0.015029704 -0.0015668304
0000b0 c4 e5 9e bc 60 f9 3c 3c 2f db 69 bd b8 c3 82 bc
       -0.01939667 0.011534065 -0.057093795 -0.015962467
0000c0 ec bf f1 3c 38 31 0a 3c 7c 91 92 bd 88 db 2f 3c
       0.02951046 0.008434586 -0.07156655 0.010733493
0000d0 d4 56 79 3d 07 a7 24 bd f1 2f 01 3d 97 cf 1a 3d
       0.06087382 -0.040198352 0.03153986 0.03779563
0000e0 7f 2a 1d bd f0 d5 31 bc 7f 3f 09 3d 46 b4 70 3d
       -0.038370606 -0.010854229 0.03350782 0.058765672
0000f0 da 3c 40 bd 78 20 b0 3c 20 ea 70 3d d6 78 10 bd
       -0.046933033 0.021499857 0.05881703 -0.035271488
000100 c8 9a 63 bd 1a 73 33 3b fb c9 56 3d b6 5d 7d 3d
       -0.055567533 0.0027381838 0.052438717 0.061856948
000110 6b 54 48 3d 09 8c 2a 3b 20 4b f3 3b 40 94 6d 3c
       0.048908632 0.002602341 0.007424727 0.014500678
000120 8e 04 c6 3b b7 1f 32 bc 38 3e 93 3c 2c 8c 94 bc
       0.0060430234 -0.010871819 0.017974004 -0.018133245
000130 68 66 d9 bc d0 10 f5 bc b9 82 3b 3b 16 a2 cb 3b
       -0.026538089 -0.029915243 0.0028611852 0.0062143905
000140 17 e4 30 bb 64 84 28 3d 25 ef 80 3c 08 ef 68 3c
       -0.002699142 0.041141883 0.015739033 0.014217146
000150 17 f3 4d bd 04 54 1f 3d ab 1e 40 3c 44 7d 84 bd
       -0.050280657 0.038898483 0.011726062 -0.06469205
000160 09 99 3d bd f0 16 bf 3c 22 c8 3f bd 7a 64 2c bd
       -0.046288524 0.023326367 -0.04682172 -0.04208801
000170 56 08 7f 3d 3b 71 9c 3c 3e af 31 3d e8 80 60 3d
       0.06226381 0.019096961 0.043380015 0.054810435
000180 aa b6 22 bc 78 62 3a bd 2b 06 56 3d 94 a9 26 3d
       -0.009931246 -0.045504063 0.052251976 0.040689066
000190 54 78 6b 3d 3e cb 82 bc 7c 3b 97 bc 2a 49 8a bb
       0.0574878 -0.015966054 -0.018460982 -0.0042201476
0001a0 b9 01 10 3d f6 47 07 bd 26 b6 ad 3c f8 f9 65 ba
       0.035157893 -0.03302761 0.02120502 -0.0008772905
0001b0 70 47 83 bd cf d2 50 bd b8 bf 89 3c 73 18 37 3d
       -0.0641011 -0.050982293 0.016815051 0.04470105
0001c0 50 81 53 bd 54 d2 c5 bb 9d 3c 68 bd 18 65 a7 b9
       -0.051636994 -0.006037036 -0.05669843 -0.00031928043
0001d0 54 d5 57 3c 30 a5 13 bc 4f 58 79 3b 00 65 33 bd
       0.01317342 -0.009011552 0.003804702 -0.043797493
0001e0 c0 e2 d2 bb ac 58 8b bc fe 52 37 3d 96 63 ac bd
       -0.006435722 -0.017010055 0.044756882 -0.08417432
0001f0 90 d8 56 bc 5c f7 0d 3d 86 08 10 bd 68 3c c9 bc
       -0.013113156 0.03465973 -0.03516438 -0.024564937
000200 17 d7 5d 3d 13 3a 27 bc 28 de 6e bd ce 72 15 bd
       0.054160204 -0.010206717 -0.058317333 -0.03648644
000210 5c dd 01 3d dd 3b af bc e6 4f 3b bd 2b 26 77 bd
       0.031705245 -0.02139085 -0.045730494 -0.060339134
000220 27 9e b1 bd c8 4c bc bc 5a 10 5b bd 59 4f 0c 3b
       -0.08672743 -0.02298583 -0.05348239 0.00214096
000230 8a 94 bc bc 69 14 80 bd 84 83 ed bc c6 6e 31 bd
       -0.023020048 -0.06253893 -0.028993376 -0.043318532
000240 10 25 9b bc 85 f5 ad bd 36 2c 4f bd 83 fd 68 3d
       -0.018938571 -0.08494095 -0.050579272 0.056882393
000250 bc 8a 62 3d 70 48 5a bd 9a 72 11 3d 60 97 bb bc
       0.05530809 -0.053291738 0.035509683 -0.02289933
000260 e5 7e 03 3c 1f 23 bc bc 00 8e fa ba d6 2c f6 bc
       0.0080258595 -0.022965966 -0.0019115806 -0.030050676
000270 3e f0 75 bc 70 bb 49 bc 7e c8 7b 3d 52 b8 53 bd
       -0.0150108915 -0.012312755 0.0614705 -0.051689453
000280 ec 5b df 3c 74 52 d1 bc 14 08 6a 3d 89 ba 6e bc
       0.027265511 -0.025552012 0.05713661 -0.014570841
000290 84 46 21 bc 98 19 92 bc 3f b6 a2 bc 34 79 04 bd
       -0.009843472 -0.01783447 -0.019862292 -0.03234215
0002a0 79 6b 83 3c 3d fc 12 bc 12 64 33 3d c1 78 23 bd
       0.016042458 -0.008971271 0.043796606 -0.03991008
0002b0 06 9d 97 bc 80 1d 5b 3d 2c be 94 bc e0 42 63 3c
       -0.018507492 0.05349493 -0.018157087 0.013870925
0002c0 e0 4f de 3c fe fc 3e bd e0 8e 88 bc a0 b9 f0 3b
       0.027137697 -0.04662799 -0.01666969 0.007346347
0002d0 7e 9c 48 3d 34 e2 f1 3c c0 e5 48 3d 06 b9 60 bd
       0.048977368 0.029526807 0.04904723 -0.054863952
0002e0 60 c5 58 3b 5a fa 19 bd 17 58 59 bd 87 1f 0b bd
       0.003307663 -0.03759227 -0.053062525 -0.033965614
0002f0 e6 14 3f 3d 5e f1 76 bd b7 23 e4 3c d2 9d 78 3d
       0.04665079 -0.06028878 0.027849061 0.060697384
000300 ff 40 9f bc 81 43 23 bd d8 d8 d9 3c d6 d7 b9 bc
       -0.019440172 -0.0398593 0.026592657 -0.022685926
000310 4c 93 cd bc a1 18 06 bd b9 ca a7 3c 0a c6 05 bd
       -0.02509465 -0.03273833 0.020482408 -0.032659568
000320 66 3b 13 3d 98 0d 60 3c 5e f6 84 bc 68 5f d6 bc
       0.03594532 0.013675116 -0.016230758 -0.02616854
000330 00 04 e8 b9 16 a9 2f 3d 10 fa 5d 3d d2 2b 89 3d
       -0.00044253469 0.042885862 0.054193556 0.06697811
000340 58 89 ac 3c ce 28 87 bd 2c 8b ae 3c 28 53 75 3d
       0.021061584 -0.0659958 0.021306597 0.059893757
000350 e0 c1 37 bb 98 2c 09 3c 9a e7 13 bc 88 ea d9 3c
       -0.0028039142 0.008372448 -0.009027386 0.026601091
000360 c4 ea 6f 3d 98 8d e4 3c 88 22 09 3d d8 7b 74 3c
       0.0585735 0.027899548 0.033480197 0.014922105
000370 72 1f 5d bd d2 65 27 bd ca 51 2c bd 8b 8f 71 3d
       -0.053985067 -0.040868588 -0.042070188 0.058974784
000380 2e 26 b5 bd 80 5c 89 bc 5b 3f 26 3c 38 b0 d8 3c
       -0.08845173 -0.01676774 0.010146941 0.026451215
000390 49 b8 6d bd be d9 4c 3d a6 4a 77 bd 64 62 84 3d
       -0.058037076 0.050012343 -0.060373925 0.06464079
0003a0 fb 61 ba 3c 80 81 74 bb 77 b1 80 bd 8a d1 3f 3c
       0.022751799 -0.0037308633 -0.06283849 0.011707673
0003b0 f9 e2 9b bc b8 56 a0 bc 4b 56 9c 3b 48 95 97 bd
       -0.019029127 -0.0195726 0.004771029 -0.0740152
0003c0 18 35 22 bc df 58 7a 3c 60 7f 5c bd 08 54 0c 3d
       -0.009900354 0.015279978 -0.05383241 0.034259826
0003d0 30 04 56 bd 46 d0 4c bd 04 42 e0 bc f9 42 59 bd
       -0.052250087 -0.050003313 -0.027375229 -0.053042386
0003e0 9f 19 fb bc 39 20 0a 3d fc f2 d3 bc a6 c6 35 bd
       -0.030651866 0.033722136 -0.0258727 -0.0443789
0003f0 9f 09 f8 3c ba 19 70 bd 94 f9 d6 bc c4 e8 8a bb
       0.030278025 -0.058618285 -0.026242055 -0.0042391736

linear_acc.bias f4 [3]
000000 a5 97 a1 bc 8c 03 a3 3c 5e 39 b9 3a
       -0.01972563 0.019899152 0.0014131477
