Formula1/model/model.pth (torch, 19764 bytes, 6 tensors)

linear1.weight f4 [256, 10]
000000 54 8c c8 3d 01 6b 8d 3e 9b 75 3d be 00 07 26 bd
       0.097923905 0.276207 -0.18501894 -0.04053402
000010 30 4f e5 bc fc 1e 82 3c f7 86 43 3e 33 81 37 3e
       -0.027991861 0.015883915 0.19094454 0.1792038
000020 09 ed 2e 3e 00 97 07 3c 40 fa 37 be a3 ee 90 3e
       0.17082609 0.008275747 -0.17966557 0.28307065
000030 72 2c 21 3e dc c4 11 3e 18 c2 0e 3e 14 c9 56 be
       0.15739611 0.14235252 0.13941228 -0.20975143
000040 b7 a7 8c 3e 24 52 eb bd 11 c6 c3 3d f4 42 55 be
       0.27471706 -0.114902765 0.095592625 -0.20826322
000050 60 86 cd 3c 00 1d 0a be 3b cd 93 3c d1 bb 81 3e
       0.025088489 -0.13487625 0.018042197 0.25338605
000060 e0 87 86 3c 11 f0 04 3e 6b 62 86 be 68 b6 91 3e
       0.016422212 0.12982203 -0.26246962 0.28459477
000070 0a 3d 53 3e ba 92 49 3e c1 22 85 3e 20 04 11 3d
       0.20628753 0.19684878 0.26003078 0.035404325
000080 f5 61 78 3e 80 ad 6f 3c 24 12 b1 bd 4b bb 64 3e
       0.24256118 0.014628768 -0.08646038 0.22337072
000090 39 85 12 be 08 e5 22 3d 44 c6 af be 04 2a 94 3d
       -0.14308633 0.039769202 -0.34330952 0.07234576
0000a0 60 3e 32 3d 00 89 b8 3a 90 d4 93 3c 70 93 9f be
       0.043516517 0.0014078915 0.018045694 -0.31167173
0000b0 84 29 95 3d 00 9e af bc 5b a6 09 be e3 41 93 be
       0.07283309 -0.021437645 -0.13442366 -0.28761205
0000c0 00 47 ec bc 9e 6b 8e be af 12 57 be 00 e9 47 bd
       -0.02884245 -0.2781648 -0.21003221 -0.04880619
0000d0 80 07 28 3c f5 8a 96 3e c0 8d ba bb 48 3d 3c 3d
       0.010255694 0.2940289 -0.0056931674 0.04595688
0000e0 d8 fd 18 3e f0 ef 0f 3d 5f 25 86 be b8 c8 68 3d
       0.14940584 0.03514093 -0.26200387 0.056832045
0000f0 9f a5 9d be 70 34 0d bd 4c 51 86 3d 91 77 82 3e
       -0.3079042 -0.034473836 0.06558475 0.25481847
000100 fa 24 75 3e c0 03 23 bd 1e a9 9f be 2c 0b 7e be
       0.23939887 -0.0397985 -0.31183714 -0.24808949
000110 30 68 d1 3c a8 18 d6 bd b2 e8 4b be 61 74 8f 3e
       0.025562376 -0.104539216 -0.19912985 0.28018478
000120 49 62 86 be 80 ba 27 bc aa d0 58 3e 70 c0 1c 3d
       -0.2624686 -0.010237336 0.21173349 0.03826946
000130 30 dd 22 be 76 07 96 bd d4 c6 ae bd 28 73 6f 3d
       -0.15904689 -0.07325642 -0.08534017 0.05845943
000140 ce c7 89 bd 0c 6c d7 bd 00 36 d5 bd ae 3f a7 bd
       -0.06727563 -0.10518655 -0.1041069 -0.08166443
000150 a0 6d 08 bd 27 b6 84 be 7f a3 94 3e 86 f2 56 3e
       -0.03330767 -0.2592022 0.29030988 0.20990953
000160 9a 4b 48 be d0 5c 71 3d 07 2e 2f be c4 9f 23 3e
       -0.1956009 0.058926404 -0.17107402 0.15978914
000170 01 49 45 be b0 6b c1 3d 44 25 34 be 00 0a 52 bd
       -0.1926613 0.09444368 -0.1759234 -0.051279068
000180 c6 65 7b 3e 11 75 9a 3e 72 46 69 be e8 5e 76 bd
       0.24550542 0.3016744 -0.22780779 -0.060149103
000190 84 5c d0 3d a4 b1 a1 3d 8a cc 72 3e 70 28 9a be
       0.10173896 0.078952104 0.23710838 -0.30108976
0001a0 be ab 65 be cd 05 9e be 76 56 e6 bd 60 43 a9 3c
       -0.22428796 -0.308638 -0.1124696 0.02066201
0001b0 34 cd 04 be f8 30 14 3e bf bb 91 be 40 cb bd 3b
       -0.12968904 0.14471805 -0.2846355 0.0057920516
0001c0 69 0b 57 be 40 e3 ae 3b c2 57 e2 bd a0 6e 29 3d
       -0.21000446 0.005337149 -0.11051895 0.041365266
0001d0 9c 9e d8 3d 15 21 9f 3e 80 70 6a bc 4c 32 38 3e
       0.10577127 0.31079927 -0.014309049 0.17987937
0001e0 a4 f0 89 bd cb 34 94 3e 42 92 88 3e 6b 49 8d 3e
       -0.06735352 0.28946528 0.26674086 0.27595076
0001f0 26 e8 9b be a5 64 ad 3e 06 42 0c 3c d0 3f 34 3e
       -0.30450553 0.33865848 0.008560663 0.17602468
000200 2b 91 ac 3e dc aa 93 be ec 1d ee 3d 40 95 50 3c
       0.33704504 -0.28841293 0.11626801 0.0127308965
000210 e8 cf 37 bd 39 33 25 be 40 f9 86 be 10 b0 fa 3c
       -0.04487601 -0.16132821 -0.26362038 0.030601531
000220 6e c7 46 be b8 55 4d be 0e 4a d1 bd b4 26 22 3e
       -0.19412014 -0.2005223 -0.10219203 0.15835077
000230 46 e1 26 3e 20 4d d9 3d f2 7c 63 3e 40 51 db bd
       0.16296872 0.106104136 0.22215632 -0.107088566
000240 66 ed 92 bd 29 17 5c be 48 9c 20 bd 68 68 84 be
       -0.071741864 -0.2149321 -0.03921154 -0.25860906
000250 b0 e3 9a 3d 0b 0e 9a 3e 0a 23 25 3e 00 d1 f1 bc
       0.07562959 0.3008884 0.16126648 -0.029518604
000260 86 db 7a be c0 b4 77 bd b4 97 d6 3d 52 5f 07 be
       -0.24497804 -0.06047511 0.10478154 -0.13219956
000270 a4 18 cd 3d 7a bb 45 3e c7 c2 97 3e d0 a7 aa 3d
       0.100144655 0.19309798 0.2964079 0.08332789
000280 5d c5 8a 3e c8 91 e9 3d 59 e7 35 be 12 cb 2e 3e
       0.271037 0.11404759 -0.17764033 0.17069653
000290 d8 b7 17 3d b3 16 b3 bd 04 61 1a 3d d7 a7 75 be
       0.03704056 -0.08744564 0.037690178 -0.23989807
0002a0 41 b3 45 3e 71 b9 93 be e0 e9 13 3e cf 4a 8a be
       0.19306661 -0.28852418 0.14444685 -0.270102
0002b0 24 46 4a be 72 d4 4c 3e 68 99 69 be f2 e2 77 3e
       -0.19753319 0.20002916 -0.22812426 0.24207667
0002c0 12 eb 9c be 90 0e 92 be 20 2e d9 bc b8 f4 6a 3d
       -0.30648094 -0.28526735 -0.026511252 0.05736229
0002d0 f2 34 66 3e f4 25 61 be fc f1 98 be a2 84 7e 3e
       0.22481135 -0.21987134 -0.2987212 0.24855283
0002e0 60 7e 90 bc 04 b0 66 3d b0 ac 8c 3e 6c 3d 22 be
       -0.017638385 0.056320205 0.274755 -0.15843743
0002f0 fa b2 18 be a2 97 ab bd 80 4b 5b 3b 79 59 9a be
       -0.14912024 -0.08378531 0.003346175 -0.30146387
000300 d0 12 9e 3c b4 5c cf 3d b3 11 24 be e4 43 65 be
       0.01929608 0.101251036 -0.16022377 -0.2238918
000310 e0 18 46 be a0 e8 51 3c fc 89 95 be c0 bb e8 bc
       -0.19345427 0.01281181 -0.29206836 -0.028409839
000320 01 b6 13 be f8 4d 70 3d b0 d7 56 bd e6 5c 73 3e
       -0.14424898 0.058668107 -0.05245179 0.23765907
000330 15 0f 06 be 42 05 b6 3e 36 1d 44 bd 35 6b b6 bd
       -0.13091691 0.35550886 -0.04787942 -0.08907167
000340 5d 5f 95 3e f0 0b bf 3c 78 4a 7c bd fe fe 4d 3e
       0.2917432 0.023321122 -0.061594456 0.20116803
000350 f1 97 01 3e 66 ab 41 3e 80 a8 4c 3d 4f 41 37 be
       0.12655617 0.1891304 0.04996538 -0.17896007
000360 ac d2 3d be 94 b3 c5 bd 21 2f 30 3d 6a 9a 77 be
       -0.18537396 -0.096533924 0.043013696 -0.24179998
000370 37 21 88 3e ec 99 ad bd f6 41 3b bd d3 4e a1 3e
       0.2658784 -0.08476624 -0.045717202 0.3150545
000380 f6 3a f9 bd 62 0e 81 3e 30 65 c9 3d 8a a7 4a 3e
       -0.12169449 0.25206286 0.09833753 0.19790474
000390 b5 f7 cc 3d c8 8f 1d be dd 3c 85 3e 8a d1 2f be
       0.10008184 -0.1538688 0.26022997 -0.17169777
0003a0 3d 9c 80 3e cc 6e 25 3e de 21 42 3e 8c f1 c9 bd
       0.251192 0.16155547 0.18958232 -0.098605245
0003b0 48 8f 86 be b1 92 43 be 90 ad 43 bd 4b be 0b be
       -0.2628119 -0.19098927 -0.047772944 -0.1364681
0003c0 00 d1 15 3d 33 4b 92 3e 40 1d 82 be 80 55 2c 3b
       0.03657627 0.28572997 -0.2541294 0.002629608
0003d0 7f 5e 9e 3e 79 28 48 3d 7a aa f4 bd 11 d9 3d 3e
       0.3093147 0.048866723 -0.11946578 0.18539836
0003e0 92 9a 8d 3e 86 40 b3 bd 9e 38 da bd 7d cb 92 be
       0.2765699 -0.08752541 -0.1065533 -0.28670874
0003f0 49 e1 86 be 58 54 2b bd fd 16 86 be a8 68 e5 3d
       -0.26343754 -0.041828483 -0.26189414 0.11201602

linear1.bias f4 [256]
000000 01 aa 32 3e c6 58 14 bd cc ad 74 be 2d 4c 27 bd
       0.17447664 -0.036217473 -0.23894423 -0.04084413
000010 80 70 70 be c5 0d 8b be ed c5 17 be 9f f8 0f be
       -0.23480415 -0.27158943 -0.14821596 -0.14059685
000020 88 42 ff bd 48 b7 2c 3e e0 ca 7a be 3d 47 07 be
       -0.12463862 0.16866791 -0.24491453 -0.13210769
000030 3b 03 0f 3d b8 01 2f 3d 51 1e 76 be c0 6a 67 be
       0.03491519 0.04272625 -0.24035002 -0.22599316
000040 99 e8 1f 3e c0 5f af 3c fd 80 d5 3c 26 9c cd bd
       0.15616073 0.021407962 0.026062483 -0.100395486
000050 ce 21 ad 3e 26 84 ca 3d d7 9a a8 3e c0 1f d9 bc
       0.33814853 0.098884866 0.32930633 -0.026504397
000060 f8 c9 37 3e cb f5 96 be 7c 7b 89 be d3 f7 8f bb
       0.17948139 -0.294844 -0.26852024 -0.0043935566
000070 c4 19 9e be 9c 59 5c be 1b cc 98 3e 25 09 d8 3e
       -0.30879033 -0.21518558 0.2984322 0.42194477
000080 59 6c 3c 3e 0d 2a ae 3e 5a 83 94 be 3e 14 2b be
       0.18400706 0.34016457 -0.29006463 -0.1670694
000090 31 b4 93 3e 00 35 89 3e 63 bc 8f 3e 2b e2 99 be
       0.28848413 0.26798248 0.28073415 -0.30055365
0000a0 ef cd e4 3d 43 1a 00 be e7 be b5 bc 8e a4 ad 3e
       0.11172091 -0.12510018 -0.022185756 0.33914608
0000b0 46 6a a4 bd de 8c 25 3e fe 94 81 3e 0d 7c 11 3e
       -0.080280825 0.16167018 0.25308985 0.14207478
0000c0 d0 f6 d1 bd 75 6f 0a 3e 5e 07 a3 3c 46 00 98 3e
       -0.10252154 0.1351908 0.019900974 0.2968771
0000d0 f5 c3 54 be e9 fc 0d be 52 6f c6 3d ed 28 9e 3e
       -0.20777877 -0.13866009 0.096892014 0.308906
0000e0 a0 75 9f bd d9 1b 87 be 29 95 f2 3d 1d aa 7a be
       -0.07786107 -0.26388434 0.11844856 -0.24478956
0000f0 e0 2f 52 be bd 21 18 3d 1f 87 60 be b1 9a a9 3e
       -0.20526075 0.03714155 -0.21926545 0.33125833
000100 87 39 ce 3c 23 af b5 3e b1 cd 03 be a1 0b 96 3e
       0.025173916 0.3548518 -0.12871434 0.29305747
000110 60 bb d0 bd 8d 50 73 3e 3c e0 8a 3e ba 46 83 be
       -0.10191989 0.23761196 0.27124202 -0.25639898
000120 c6 39 2e 3d a4 78 f5 bc 00 3b b4 bb 37 4c 6f 3d
       0.042535566 -0.029964752 -0.0055001974 0.058422294
000130 7f 2e ea bb 7a fa 2e 3e 72 55 35 be f8 14 68 bb
       -0.007146656 0.17087737 -0.17708376 -0.003541289
000140 e1 1b 7c be 40 97 89 be 45 4e f7 3d e6 60 23 be
       -0.2462001 -0.26873207 0.120754756 -0.15954933
000150 f9 42 52 be 16 5a 5a 3e f8 b5 ec 3d 48 6f 8a be
       -0.2053336 0.21323428 0.11558145 -0.27038026
000160 0f 43 50 bc c0 b3 d5 bc 94 a0 8b 3d e2 b8 31 be
       -0.0127113005 -0.026086688 0.06817737 -0.17355683
000170 13 7c 36 ba ba f3 f9 3d 38 ef 22 3d d0 89 fa bd
       -0.00069612375 0.1220469 0.039778918 -0.12233317
000180 13 38 43 be 40 a9 eb bb 60 42 0e bd 15 97 95 be
       -0.1906436 -0.007191807 -0.03473127 -0.2921683
000190 7f 14 94 3c bc d4 89 be d7 13 95 be 68 d8 0f bd
       0.01807618 -0.26920116 -0.291167 -0.03511849
0001a0 6a 32 6d 3e 5b 37 9b 3c f5 b9 0d be a7 50 a0 3e
       0.23163763 0.018947294 -0.13840468 0.31311533
0001b0 79 91 7c 3d c0 46 53 3c 3d e0 8c 3e 44 4c 39 3d
       0.06166217 0.012895286 0.2751483 0.04523875
0001c0 7b c5 6c be 56 c5 96 3d 4f 1d 89 be 41 4f 29 3e
       -0.23122208 0.073618576 -0.26780173 0.16534139
0001d0 7e d4 34 3e 94 af f4 bd da fd 77 3e ac 00 63 be
       0.17659184 -0.11947551 0.2421793 -0.22168225
0001e0 71 42 9a ba a4 2e 64 3e db e0 a4 3e d7 3c a8 3e
       -0.0011769069 0.22283417 0.322028 0.32858917
0001f0 2c cf 26 be 26 75 57 be 45 05 40 be 48 04 0c 3e
       -0.16289967 -0.21040782 -0.1875201 0.13673508
000200 fe 0a 9c 3e 1b 02 ac 3e 80 ce 9b bb 64 31 87 3d
       0.30477136 0.33595356 -0.0047548413 0.066012174
000210 60 8a d1 bc 11 4f 5e ba e0 8a 3b 3d 9d ca d6 bd
       -0.025578678 -0.000848041 0.04578674 -0.10487864
000220 9a 41 74 3e a8 14 f8 bd 10 bc 05 be d2 ce 25 be
       0.2385315 -0.12113315 -0.13060021 -0.16192177
000230 aa f1 49 be d7 d2 a1 3e 97 ff 74 3e 58 fb 1d 3e
       -0.19721094 0.3160617 0.23925625 0.15427911
000240 31 88 cb bd d3 b6 6f be ea 50 66 be 4e ba 51 3e
       -0.09938086 -0.23409586 -0.22491804 0.20481226
000250 0f 53 46 3e 0c 13 f1 bd 1a f4 a4 3e 77 db 7a be
       0.19367622 -0.11771211 0.32217485 -0.24497782
000260 bf d9 0e be 8e 47 53 be a4 fd 12 be cd c5 99 3e
       -0.13950251 -0.20632765 -0.14354569 0.30033723
000270 76 bc 79 be d8 52 5f bd f6 11 33 3e d4 f1 01 bd
       -0.24388298 -0.054522365 0.1748732 -0.031724766
000280 a9 93 0b be 0e 03 9c bd aa d5 2e be 37 48 99 3e
       -0.13630547 -0.0761777 -0.17073694 0.29937908
000290 ce 9d 4a 3e 42 ac 74 3e 33 43 2a 3e 00 3e 46 bc
       0.1978676 0.23893836 0.16627197 -0.012099743
0002a0 42 62 9e be 42 5e 1e be c6 c3 bf bd 66 40 7c 3e
       -0.3093434 -0.15465644 -0.09363513 0.24633941
0002b0 1f fa 4d be 27 53 37 be 21 a7 58 3e 6e 54 1b 3e
       -0.20114945 -0.17902814 0.21157505 0.15168926
0002c0 d6 ad 94 be 8d 33 75 bd 4e a9 ef 3c b9 70 92 be
       -0.29038876 -0.059863616 0.029255535 -0.28601626
0002d0 e9 e0 d3 3d 69 31 8d 3e 3a 08 57 bd ac a9 9d 3d
       0.103456326 0.2757676 -0.05249808 0.07698378
0002e0 f0 81 34 3e 4c 6e 72 be c5 07 56 be 71 62 d4 3e
       0.17627692 -0.23674887 -0.20901401 0.41481355
0002f0 eb eb bd 3e 49 e6 14 3e bc 16 f3 3d 14 57 b7 3d
       0.37094054 0.14540972 0.118695706 0.08952156
000300 40 38 5d be b8 be ce 3d 70 74 b2 3e a3 65 f5 bd
       -0.21603489 0.100949705 0.3485446 -0.11982276
000310 39 71 7c 3c 1c 62 b0 3c 52 9b c6 bd 60 aa 21 3e
       0.015407854 0.021531157 -0.09697594 0.15787649
000320 f9 da 4a 3e d8 3c b5 3d a0 e1 a4 3c ca 71 24 3e
       0.19810094 0.08849496 0.020127118 0.16059032
000330 bb 35 77 be 30 cf 93 3d d0 ef dc bc 6e ed a9 3e
       -0.2414159 0.07217252 -0.02696982 0.33188957
000340 36 c3 c6 3c 70 8a 1f 3e f0 83 df bd d4 f7 1a 3e
       0.024263006 0.15580153 -0.10913837 0.15133601
000350 a0 c4 11 3e 7e c3 aa 3d a5 9a a7 3e 3b 40 5e be
       0.14235163 0.083380684 0.32735172 -0.2170419
000360 77 e0 4a 3e d0 f6 d9 3e 45 f4 58 3e 32 af 3b 3e
       0.19812189 0.42571115 0.21186931 0.1832855
000370 86 e1 2a be 0c 4c 4d be 5a 47 47 be 84 f1 9e be
       -0.16687593 -0.20048541 -0.19460812 -0.31043637
000380 2b dc 8c 3e c4 64 6b 3e 32 74 74 3d 23 ae 4c 3e
       0.27511725 0.22987658 0.059681125 0.19988303
000390 d9 ff f6 bd 68 38 6e bd 73 85 ac 3e d7 ed d9 bd
       -0.12060518 -0.058159262 0.33695564 -0.106410675
0003a0 90 6d d6 bd 56 5f 94 be 15 b6 1b be 4e 53 58 3e
       -0.10470116 -0.28978986 -0.15206178 0.21125528
0003b0 1d f7 88 be 48 06 bb 3e 0d 8b 57 be 1e bb c4 3d
       -0.26751032 0.3652823 -0.21049137 0.09606002
0003c0 0a 34 4a 3e b1 4a 92 3e 4b 87 9b bd f8 f1 6c be
       0.19746414 0.2857261 -0.075941645 -0.23139179
0003d0 6b 5d 6d bd 94 df 10 3e dc 84 34 3e 56 30 66 3e
       -0.05795042 0.14147788 0.17628807 0.22479376
0003e0 5c 02 a2 3e 35 42 88 be cd ad 6d 3e c8 3a 03 bd
       0.31642425 -0.26613012 0.23210831 -0.03203848
0003f0 d8 2d f9 3d b3 0c 1c 3e ef b6 32 3e c2 9f 9a be
       0.12166947 0.1523922 0.17452596 -0.3020001

linear_dir.weight f4 [3, 256]
000000 49 22 14 bd b1 7f 62 bd 1f 8e 18 bd 80 68 5b bd
       -0.03616551 -0.055297557 -0.037244912 -0.053566456
000010 e0 59 33 bc ba 32 05 bd 46 d1 5c bd 20 04 b8 3c
       -0.010946721 -0.03251908 -0.053910516 0.022462904
000020 2c ca f8 bc 70 3b 18 bd 3e be 4b 3d 6a 23 28 3d
       -0.03036984 -0.03716606 0.049741976 0.0410494
000030 64 e4 91 bd 64 cf c9 bc e8 a6 59 3d 14 a0 1e 3d
       -0.0712364 -0.024635024 0.05313769 0.03872688
000040 92 13 50 3d 14 50 c8 3c 68 b2 ff bc 40 f0 ee 3a
       0.050799914 0.024452247 -0.031213 0.0018229559
000050 31 bc a6 bd 28 8a fc 3b 1d fd a6 bd 44 38 1a bd
       -0.081413634 0.007706899 -0.08153746 -0.037651315
000060 8b d2 fc bc e0 0c f5 3c 50 cf 55 bd c8 10 85 bd
       -0.030862113 0.029913366 -0.05219966 -0.064973414
000070 70 8c a7 bc 48 bd 3b 3d fa 17 ec bd e7 85 7b bc
       -0.020452708 0.04583481 -0.11528011 -0.015351749
000080 b5 7d 96 bd a6 d8 53 bd bc c0 ac 3c 00 aa 27 3b
       -0.073481955 -0.051720284 0.021087997 0.0025583506
000090 a4 e7 44 3d d8 36 4e 3d 2b c3 c8 bd 2a e7 8f bc
       0.048072472 0.05034527 -0.0980285 -0.017566282
0000a0 31 01 e8 bd 30 f7 1a bc 81 38 d7 bd d7 4f d7 bd
       -0.11328352 -0.009458348 -0.10508824 -0.10513275
0000b0 80 c0 fc bc 98 0c 3e bc a3 59 9e bd c2 75 c5 3a
       -0.03085351 -0.011599682 -0.077319406 0.0015065002
0000c0 8c 42 18 3d 6f d7 63 bd 58 62 a9 bd fd e0 1a bb
       0.03717284 -0.055625375 -0.08270711 -0.0023632639
0000d0 02 0c f2 3c 42 fa 59 bc 69 bc c1 bd bd 3d d0 bc
       0.029546741 -0.013304295 -0.094597645 -0.025420064
0000e0 e0 28 fa bc 20 99 27 bb ac 60 64 bd 00 4e 1e bb
       -0.030537069 -0.0025573447 -0.055756256 -0.0024155378
0000f0 00 a8 7e 3a 46 05 13 bd 91 6d 17 3c 12 56 af bc
       0.0009714365 -0.0358937 0.009242431 -0.021403346
000100 3b c1 64 bd cf 01 c9 bd 07 b6 ab bd ae 87 e2 bd
       -0.05584834 -0.09814798 -0.08384328 -0.11061035
000110 27 52 ca 3c 58 1e 46 bd 27 63 17 bd c0 e2 8f 3b
       0.024697376 -0.04836878 -0.036959793 0.0043910444
000120 f5 07 4b 3b c7 07 5f bd 00 13 65 3d 81 e1 7d bd
       0.0030980085 -0.054450776 0.055926323 -0.061982635
000130 12 ec ba ba 42 ac 46 bd 10 13 2c bd 24 2f c5 bd
       -0.0014261028 -0.04850412 -0.042010367 -0.09628132
000140 b1 96 a7 bd b6 a9 2d bd e4 3c e3 3c 50 89 c5 3c
       -0.08183039 -0.042398177 0.027738996 0.024113327
000150 fe 9e 89 bd 50 ab 6a bc 00 84 33 bd 94 85 88 bc
       -0.067197785 -0.014323071 -0.043827057 -0.016665258
000160 49 fb 9b bd b0 59 6c bd 49 d7 1a 3c 70 a2 cb bc
       -0.07616288 -0.05770272 0.009450742 -0.02485773
000170 54 6e 44 3c af 8a 27 bd c8 6e 44 3c fc 03 a8 bc
       0.011989195 -0.040903743 0.011989303 -0.020509712
000180 f2 c1 32 bd e4 4c 59 bd d0 b9 17 3d 38 2b 1d 3d
       -0.043641992 -0.053051844 0.03704244 0.038371295
000190 60 56 3d bd 8c a2 40 bd 80 9f 74 3d b4 6a 78 3d
       -0.04622495 -0.047030017 0.059722424 0.060648635
0001a0 a4 48 3e 3d c7 eb 64 bd 73 9d 27 bd 29 a6 18 bd
       0.046455994 -0.055888917 -0.04092164 -0.037267838
0001b0 d9 c2 02 bd 4a 85 5c 3d c7 e9 f7 bd 82 b1 7f 3b
       -0.031924102 0.05383805 -0.12105136 0.0039015715
0001c0 b8 f1 91 bc b1 aa 83 3d a2 06 d3 bc 6a 77 9b bd
       -0.017815456 0.06429041 -0.025759999 -0.07591136
0001d0 68 48 1a 3d a0 92 a2 3b 8e 5a 36 bd bc a2 a0 3c
       0.03766671 0.0049613267 -0.044519953 0.019608848
0001e0 53 c7 ca bd 37 3a c7 bd 1a ff f4 bc 01 3a 8b ba
       -0.09901299 -0.097279005 -0.029906798 -0.0010622145
0001f0 38 31 fe 3c aa 58 49 bd d8 89 9c 3c c0 ed 5e bc
       0.031029329 -0.049156822 0.019108698 -0.013606489
000200 b3 2b d6 bd 35 f6 d4 bd 18 4b 6a 3c 50 72 c3 3c
       -0.10457554 -0.10398523 0.01430013 0.02385822
000210 80 56 82 bb 39 f3 e4 bb 4c da 7e bd 33 a3 46 3b
       -0.0039775968 -0.006987002 -0.062219903 0.0030309677
000220 eb 57 85 bc 48 c0 3f bd 00 a9 bd bb 38 78 ca bb
       -0.016277274 -0.046814233 -0.0057879686 -0.006178882
000230 0f 11 0d bd 55 be d6 bd 82 87 28 bd 57 cf 14 bc
       -0.034440096 -0.10485522 -0.041144855 -0.009082637
000240 f4 e2 83 3b fa 27 92 bc 96 a6 7d 3d 1e 25 2e bd
       0.0040248577 -0.017841328 0.061926447 -0.042515866
000250 0b d7 2c bc 37 1a dd 3b 54 6b e4 bd 28 de 3d bc
       -0.010549317 0.00674751 -0.11153284 -0.011588611
000260 ec 93 af bc 84 17 8b 3c a0 a6 66 bd 76 e1 12 bc
       -0.02143284 0.016978987 -0.05631125 -0.008964887
000270 f0 00 1a 3c 69 29 cd bd f8 d2 93 bc 5a c8 12 bd
       0.009399638 -0.10017664 -0.018044934 -0.0358356
000280 25 38 25 3d 19 f5 3e 3d 1a ed 50 bd 12 fc 69 3d
       0.040336747 0.046620462 -0.051007368 0.05712516
000290 58 d8 3d 3d 2f 90 d0 bc a9 2c 1c bd 18 8e f1 bc
       0.0463489 -0.025459377 -0.03812853 -0.0294867
0002a0 90 5b b1 3c a4 ff f7 3c c0 79 4d bd 14 cd 23 bd
       0.021650106 0.030273266 -0.050164938 -0.0399905
0002b0 d8 f5 bb bd 7a 66 7f 3c 83 58 df bd e4 36 99 3c
       -0.0917775 0.015588397 -0.10905554 0.018702932
0002c0 78 01 cc bc f5 ca 8b 3d 2c 69 15 3d ac 4e e1 bc
       -0.024903044 0.0682582 0.036477253 -0.027503334
0002d0 8a 82 92 bd 68 cb 87 bd b6 a9 0b bd e8 ef 28 3c
       -0.071538046 -0.066305935 -0.034097396 0.010311104
0002e0 86 11 1b 3d 5c 22 69 3a db 5a 32 bd 52 7d b9 bd
       0.03785851 0.00088933646 -0.043543678 -0.09057106
0002f0 6a 76 b1 bd 77 a1 3c 3b dc 39 d1 bc bc 62 9c bc
       -0.08665164 0.0028782764 -0.025540285 -0.019090049
000300 6a 4d 2c bd c8 60 f3 bc d3 a0 bc bd 7a 85 c3 bd
       -0.042066015 -0.029709235 -0.09210362 -0.09546943
000310 f0 ec 9f bd cc 8a 7d bc c0 b0 37 bc 34 02 87 bc
       -0.07808864 -0.015474986 -0.011211574 -0.016480543
000320 f9 c9 85 bd c2 92 74 bd 4a ea 0c bd 34 ab 23 bd
       -0.06532664 -0.05971027 -0.034403123 -0.039958194
000330 c1 fa d4 bd ea ed 1a bd 00 ad 9b b9 b3 b6 9f bd
       -0.1039939 -0.03782455 -0.000296928 -0.07798519
000340 64 24 ac bd 4a 5e bb bd 3b 42 1b 3c c4 69 2d bd
       -0.084053785 -0.091488436 0.00947624 -0.042337194
000350 12 54 59 3d cb 6e 19 bc 62 88 01 bd ed 44 68 bc
       0.05305869 -0.009364794 -0.031624205 -0.014176589
000360 0d 49 09 bd 2c 3c 8c bd 5e 5f 4e bd c0 9f 91 bb
       -0.033516932 -0.068474144 -0.050383918 -0.0044440925
000370 24 3c 2a bc 56 48 11 3d 5b 47 7a bd 58 ae 7a bc
       -0.010390315 0.035469376 -0.061103206 -0.015300356
000380 eb a6 9e bc ab 89 c8 bd e1 c6 68 bd fa 1e a1 bd
       -0.019366702 -0.09791883 -0.05683029 -0.078672364
000390 1e 01 ad bd 40 5a 09 bd 05 af 3d bd 06 61 35 bd
       -0.08447479 -0.033533335 -0.04630949 -0.044281982
0003a0 a4 12 50 3d 5a 24 00 3d e8 5b 7c bc 8e 39 02 bd
       0.050799027 0.031284668 -0.0154027715 -0.03179317
0003b0 ce 9c 3e 3d de 2c 24 bd 01 ee a7 bc 3f 49 60 3c
       0.04653626 -0.04008185 -0.020499231 0.013689338
0003c0 68 af 01 bc db bb b3 3b fc 6a 4c bc 9a 43 3a bd
       -0.007915355 0.0054850406 -0.012476679 -0.045474626
0003d0 13 25 4b 3d 7a af ad bd aa aa f7 bb 40 2d b1 bb
       0.049595904 -0.08480735 -0.0075581865 -0.0054070055
0003e0 01 16 ba bd 4d 77 48 3d 16 82 2c bc 12 34 38 3d
       -0.09086228 0.0489419 -0.010529062 0.044971533
0003f0 07 48 34 bd a2 9c 2f bd 96 95 14 3c 3e da 24 3d
       -0.044014003 -0.042873986 0.009068867 0.040247194

linear_dir.bias f4 [3]
000000 a6 57 ba bc 9a 91 a5 bd 68 5f f2 3b
       -0.022746872 -0.08084412 0.007396627

linear_acc.weight f4 [3, 256]
000000 30 b3 dc bd 91 95 0f bd 41 fd a2 bd a8 26 ca 3b
       -0.10776365 -0.035054747 -0.079584606 0.006169159
000010 8a d5 16 3d f8 a5 44 3c b4 d9 cb 3c c6 6f 22 3d
       0.03682474 0.012002461 0.024884082 0.039657377
000020 90 08 1e 3d c8 ef ab 3c fe 1a 08 3d 1c 8d 92 3c
       0.038582385 0.02098836 0.033228867 0.017889552
000030 88 ac d0 bd a2 7d 48 bd 1c a8 51 3d c8 b1 0a 3c
       -0.10189158 -0.048947938 0.051185712 0.008465238
000040 b0 7f 3a bd d0 66 26 bc d6 93 26 bb d4 9e 45 bd
       -0.04553193 -0.010156348 -0.0025417707 -0.048247173
000050 8d 1f a5 bd 0d 38 39 bd 2e d1 ac bc f4 17 47 3d
       -0.080626585 -0.04521947 -0.021095838 0.048606828
000060 30 da bb bd 48 80 7a 3c aa f6 1e bd b6 04 41 bc
       -0.09172475 0.015289374 -0.038809456 -0.011780908
000070 18 36 22 bd 0a b4 42 3d 86 a8 a3 bd 5c f0 d4 bd
       -0.03960237 0.04753498 -0.07991128 -0.103974074
000080 60 09 bc bd bf 38 52 bd 50 a2 da 3b 48 62 0b bc
       -0.09181476 -0.05132365 0.006672181 -0.008507319
000090 f0 27 a8 3b a0 de 98 3b 87 47 1e 3d 27 b7 1c 3d
       0.005131714 0.004665211 0.038642433 0.038260605
0000a0 b2 0d c2 bb 1e e6 53 bd 59 db 55 bb f7 49 30 bd
       -0.0059220428 -0.05173313 -0.0032631962 -0.04303929
0000b0 74 41 96 3c 80 38 b4 3a 2f 4b 6f 3c ee b2 bc bd
       0.018341757 0.0013749748 0.0146053275 -0.09213816
0000c0 58 25 cc 3c 7e 42 9e bb 9f e5 a0 bc cb d0 d1 bd
       0.02492015 -0.004829704 -0.019640742 -0.10244902
0000d0 a9 21 83 bc 86 2d a6 3c 39 be 81 bd 98 19 d0 bc
       -0.016007261 0.02028538 -0.0633511 -0.025402829
0000e0 cc 0d 44 3d 90 ea 1a 3d fb a8 90 bd e0 32 26 3b
       0.04786472 0.037821352 -0.070634805 0.0025359914
0000f0 60 40 35 bc 33 1f cd bd 92 06 e5 bc ac 8d 5f bd
       -0.0110627115 -0.100157164 -0.027957235 -0.05457847
000100 d1 f7 2f bd 11 59 00 3b d7 1c d0 bd 47 8e 1d bd
       -0.042960946 0.0019584338 -0.10161751 -0.038465764
000110 9b 49 6d bc 35 80 98 bd 41 77 87 bd 4a ba 2d 3d
       -0.014482881 -0.074463286 -0.06614543 0.042413987
000120 f1 4c bc bd dc b6 3c 3b 90 6c 2a 3c c5 02 6e 3c
       -0.09194363 0.0028795516 0.01040186 0.0145270275
000130 1d ee 70 bd 07 64 cf bd a0 a4 c0 bc 90 8e a0 bc
       -0.058820833 -0.101265006 -0.023516 -0.01959923
000140 77 04 04 3d 20 f4 23 3d 5d 63 18 3d e0 9d ff 3b
       0.03223082 0.040027738 0.037204135 0.0078008026
000150 f0 5f 94 bd d2 8b 78 bd f2 33 3e 3d 60 03 88 bb
       -0.07244861 -0.060680218 0.046436258 -0.004150793
000160 fb ac 37 3d 26 e9 07 3d c9 40 9e bd b8 95 62 bd
       0.0448427 0.033181332 -0.077272005 -0.055318564
000170 fd 03 7c bd 38 8e e7 3b c0 51 83 3c 1f 95 be 3c
       -0.06152724 0.0070665143 0.016030192 0.023264466
000180 a8 92 1b bc 4a 40 36 3d c6 22 0f bd fc 1a bd 3c
       -0.009495415 0.044494905 -0.034945272 0.023084156
000190 3c a6 5a bd 30 23 93 bb d6 4b 46 bd 6e 44 18 bd
       -0.05338119 -0.0044902787 -0.048412167 -0.037174635
0001a0 74 e2 de 3c 57 c1 81 bd 82 1a 5b bd 9b c2 13 bd
       0.02720759 -0.06335705 -0.053492077 -0.036074262
0001b0 2c 80 dc bb 40 15 73 bc 3c 09 a1 bd 5a 30 1e bc
       -0.0067291465 -0.014836609 -0.078630894 -0.009655083
0001c0 40 e1 d5 bb 06 a5 4b bd 1d af 27 bb fd c1 a1 3c
       -0.006527096 -0.049717925 -0.0025586553 0.019745821
0001d0 30 c7 aa bb 50 8c 46 3c c4 04 38 bd 78 32 2d 3c
       -0.0052117333 0.012118414 -0.04492642 0.010571115
0001e0 8c c6 4c 3c a1 c6 d6 bd 0b 2a d7 bc 7f ae 9c bd
       0.012498509 -0.10487104 -0.026265165 -0.0765047
0001f0 c0 8d c1 bb d8 25 79 3c 98 c8 06 3c 4a ea 27 bd
       -0.0059067905 0.015206777 0.008226536 -0.04099492
000200 31 aa 15 bd b3 d1 73 bd 98 91 2e bd a8 dc 8e bc
       -0.03653926 -0.059526157 -0.042619318 -0.017439201
000210 1a c3 3b bd 1b 37 ac 3c 6c cd 75 bc 6b 7e 13 bd
       -0.04584036 0.02102237 -0.01500259 -0.036009233
000220 ce b9 d5 3c 88 68 b7 3c 72 17 0a 3d 81 2a c9 bd
       0.026089575 0.022388712 0.033713765 -0.0982256
000230 aa fe c8 bd f3 2a a6 bd f1 f2 06 3c 41 17 90 bd
       -0.09814198 -0.08113661 0.008236633 -0.07035685
000240 aa 84 c5 3c ff 15 d9 3c 1c bd c7 3c 10 c9 98 bd
       0.02411111 0.026499746 0.024382167 -0.07460225
000250 16 bf 11 bd e9 7b ff bc ad 3b ae bd 94 7f a4 3c
       -0.035582624 -0.031187015 -0.08507476 0.020080365
000260 9c e0 b6 3c c8 56 18 bc c8 cf 79 bd 7e 9a 59 bd
       0.022323899 -0.009298034 -0.06098917 -0.05312585
000270 04 8e 67 bd 0e 0c c8 3b 00 26 7f 39 25 91 11 3d
       -0.05653192 0.0061049527 0.00024332851 0.03553881
000280 e9 cf 4b bc d3 97 a1 3c 18 90 84 bc ba 34 0c bd
       -0.012439706 0.019725716 -0.01618199 -0.03422997
000290 00 d7 e8 3b 09 fe ab bd 07 3f 8f bd 58 1a 14 bc
       0.007105708 -0.08398063 -0.069944434 -0.009039484
0002a0 a0 22 ad 3c 82 76 5f 3d 50 ed 11 3d 7c 14 3d 3d
       0.021134675 0.054556377 0.03562671 0.046162114
0002b0 f3 d0 ec bc da 81 80 bd 7d 2e dd bd d8 5a b8 3c
       -0.028908229 -0.06274767 -0.107998826 0.022504255
0002c0 6c 1d e7 3c f8 ba 83 bd 02 d6 93 bd cc 87 31 bd
       0.028212272 -0.06432146 -0.07218553 -0.043342397
0002d0 2d 8c c3 bd ce 1a e6 bd b4 0c fe bd 3c b2 02 bd
       -0.09548221 -0.11235581 -0.12404767 -0.03190826
0002e0 78 e9 ca bc 82 4f 34 3d 2a cd 41 bd d7 c6 e9 bd
       -0.02476953 0.044021137 -0.0473148 -0.11414879
0002f0 86 3d e3 bd b4 a0 93 3c 80 7d 30 bd 00 1d 1e bb
       -0.11095719 0.018020965 -0.043088436 -0.0024126172
000300 b0 b3 0d bd 80 52 7d 3a 46 0f ad bd 46 76 1d bd
       -0.03459519 0.00096634775 -0.08450179 -0.038442872
000310 ea c7 8a bd 65 6e 86 bb e0 6f 05 3d 88 4a 29 3c
       -0.06776412 -0.0041025155 0.032577395 0.010332711
000320 1c a2 e3 3c 00 d7 09 ba 00 bf 4c 3c c0 50 f3 ba
       0.02778726 -0.0005258173 0.01249671 -0.0018563494
000330 54 a1 9a bc 42 d6 24 3d 54 04 98 3c 99 cc af bd
       -0.018875755 0.040243395 0.018556751 -0.08583946
000340 79 9f c6 bd df 3d e0 bc a6 30 88 bd 05 72 dd bb
       -0.09698386 -0.027373252 -0.06649904 -0.006757977
000350 fa b9 6e bd cb 7a 8d ba 83 4e ef bd 42 a7 b1 bc
       -0.05828283 -0.0010794041 -0.11684897 -0.0216862
000360 e6 12 cd 3b 35 8e ed bd e1 b6 29 bd e0 43 29 bd
       0.0062583564 -0.115993895 -0.041434173 -0.041324496
000370 a4 b0 c6 3b 54 57 e6 3c 2b fe a4 bd 58 79 0d 3c
       0.0060635377 0.028117813 -0.08056291 0.008634888
000380 7a 88 ee bd 3b d7 c0 bd 64 4b 3b bd 9e ba b0 bd
       -0.116471246 -0.09416052 -0.045726195 -0.086293444
000390 bf 2c 50 bd 90 4c cc bb 40 a7 c5 bd 56 b4 5e bc
       -0.050823923 -0.006234713 -0.09651041 -0.0135928
0003a0 90 30 9f bb c2 2b 2a 3d a2 71 11 3d 3e 60 3f bd
       -0.004858084 0.041545637 0.03550876 -0.046722643
0003b0 90 f8 9c bc f7 c6 3c bd 9a b0 0d bd ba 23 46 3d
       -0.019161493 -0.046088185 -0.03459225 0.048373915
0003c0 ba 24 54 bd 43 45 53 bc 10 71 76 bb 84 1f 39 3d
       -0.051792838 -0.012894931 -0.0037604012 0.04519607
0003d0 4d 32 a9 bd b2 f3 2f bd 57 bc 10 bc 00 ac b9 bc
       -0.08261547 -0.042957015 -0.008833966 -0.022665024
0003e0 60 2b e1 3b fd eb 45 bd a3 a2 c1 bd 10 b2 d1 bb
       0.006871626 -0.04832076 -0.094548486 -0.0063994005
0003f0 c0 e0 51 bd b7 dd d5 3c 6f a4 69 bc 5c 0e 43 3d
       -0.05123973 0.026106698 -0.014260395 0.047621116

linear_acc.bias f4 [3]
000000 ad c6 4b bd 15 67 8e bd e9 cd 9b bc
       -0.04975002 -0.06953255 -0.019019084
