Formula1/model/model.pth (torch, 19764 bytes, 6 tensors)

linear1.weight f4 [256, 10]
-0.2794944 -0.25623417 0.090510644 -0.20530652 -0.254305 0.31938714 -0.09703094 0.14968595
0.14474377 0.12466398 -0.17500159 0.21825984 -0.009395588 0.16210222 0.19767025 0.29039416
-0.16684736 0.4214564 -0.08628401 0.0045047402 0.30400905 0.1895822 -0.30882978 0.26415792
-0.28400266 0.10863507 0.23369446 0.034558386 -0.1361361 0.08919096 0.2240018 -0.06191343
0.26740217 -0.30902314 0.051856697 -0.048851024 0.022720307 0.10771242 0.29235393 -0.23896432
0.08727956 0.042770058 -0.13042715 -0.08069067 0.17185214 0.04392293 -0.2950673 -0.1395203
0.08979204 0.19848773 -0.022320062 0.00094628334 -0.25564474 -0.3119653 -0.30772212 -0.1970294
-0.03856945 -0.24788728 0.28258833 -0.24768169 -0.03142962 0.18177482 0.07454172 -0.06725532
0.22689727 0.1870791 0.14150152 -0.2597167 -0.056203365 -0.11580494 0.21545073 0.20933196
0.38479325 0.0069376826 -0.07111284 0.33434096 0.013261825 0.19841556 -0.09342556 0.27459535
-0.2865684 -0.013502032 -0.23216881 -0.2750844 -0.27889943 -0.09852657 -0.29250595 -0.024118394
0.039277077 0.089676976 -0.034961104 -0.05992201 -0.09841503 -0.11527887 -0.23864377 0.18440458
0.12059623 0.076951176 -0.25765705 -0.021955729 0.023260444 -0.06867172 0.06330049 -0.08094482
-0.052306682 -0.11896525 0.3066016 0.040568322 -0.28330716 0.2334927 -0.12095213 0.036721855
-0.05063507 0.04279363 -0.083260596 -0.24620113 -0.0029910505 0.025507987 -0.032889605 0.06723258
0.06290132 0.29559627 0.23716322 0.18538377 0.1743995 -0.044699058 0.002582252 -0.01319544
-0.10359839 0.05363038 -0.15137662 0.23749575 0.17076486 0.0060932636 -0.24605128 -0.30449724
0.28080198 0.110304266 0.19902706 0.14568445 0.26282975 0.23766407 -0.066602066 0.027620703
-0.17336929 -0.16024171 -0.032839656 0.14447689 0.060871273 0.29387316 -0.12526838 0.018282056
0.08271337 0.14718622 0.0076800585 0.17106597 -0.17364222 0.10399268 0.26945594 -0.0594351
-0.098800555 0.23623106 0.35405868 -0.29959685 0.15686086 0.29167876 0.2740912 0.06795662
0.3357948 0.041980267 -0.20483184 0.12763211 -0.15098114 -0.23669049 0.267549 -0.048084468
-0.1423174 -2.6077032e-05 -0.23242244 0.1398468 -0.17948821 -0.28611967 0.1380211 -0.1758883
-0.20581558 -0.024251591 0.28756133 -0.12986712 0.39249822 0.2994232 -0.1337088 -0.067186475
-0.057133503 -0.31292027 0.24376228 0.1486595 -0.26806182 -0.107061245 0.23357971 0.08961332
-0.012393087 0.09471443 0.15798718 -0.027551651 0.03523463 0.17366746 0.14919567 -0.1030959
0.14779963 0.29895833 0.23605469 -0.13979036 0.22711511 0.012458205 0.072237164 -0.21356247
0.23602828 0.23354395 0.18021166 -0.1497139 -0.20827337 0.18920293 -0.13750085 -0.12433466
0.12589738 -0.15228203 -0.27715358 0.16550416 -0.20675996 0.27425995 -0.06395239 -0.018753916
-0.14258622 -0.04416877 -0.29044968 0.35318094 -0.17666234 0.3979877 -0.0048668315 -0.24409804
-0.13922396 -0.07553975 -0.16834934 -0.010425836 0.28294846 -0.08687332 -0.029320031 -0.08576985
0.000164181 -0.2609679 -0.20539424 -0.10767506 0.40332377 -0.13266602 0.3136637 0.20805523
00000000: e419 8fbe 2031 83be a55d b93d df3b 52be
00000010: 4434 82be b686 a33e 28b8 c6bd 4647 193e
00000020: b637 143e d44f ff3d 9e33 33be 827f 5f3e
00000030: f4ef 19bc 20fe 253e 126a 4a3e 8bae 943e
00000040: 09da 2abe 22c9 d73e acb5 b0bd 809c 933b
00000050: 13a7 9b3e d621 423e f01e 9ebe b53f 873e
00000060: cc68 91be 107c de3d 9a4d 6f3e 188d 0d3d
00000070: 4367 0bbe c0a9 b63d ba60 653e f098 7dbd
00000080: f0e8 883e 4838 9ebe b067 543d 0318 48bd
00000090: f01f ba3c 5498 dc3d 6aaf 953e 10b3 74be
000000a0: a0bf b23d a82f 2f3d b28e 05be 2641 a5bd
000000b0: 02fa 2f3e 88e8 333d 1013 97be 69de 0ebe
000000c0: e4e4 b73d 5e40 4b3e 90d8 b6bc 0010 783a
000000d0: dee3 82be eab9 9fbe c18d 9dbe 13c2 49be
000000e0: 00fb 1dbd 2ad6 7dbe 6baf 903e 45a0 7dbe
000000f0: 58bc 00bd 2e23 3a3e 54a9 983d 28bd 89bd
00000100: c257 683e aa91 3f3e c6e5 103e 96f9 84be
00000110: 8035 66bd 242b edbd 1e9f 5c3e 1e5b 563e
00000120: 9f03 c53e 8055 e33b 9ca3 91bd bd2e ab3e
00000130: 2048 593c 732d 4b3e e655 bfbd c397 8c3e
00000140: 18b9 92be a037 5dbc a9bd 6dbe ddd7 8cbe
00000150: e8cb 8ebe 4cc8 c9bd 57c3 95be f093 c5bc
00000160: 00e1 203d 90a8 b73d 6033 0fbd c870 75bd
00000170: d28d c9bd 5417 ecbd 085f 74be 8ed4 3c3e
00000180: 28fb f63d 9498 9d3d a0eb 83be 80dc b3bc
00000190: b08c be3c c2a3 8cbd b0a3 813d 66c6 a5bd
000001a0: 883f 56bd 0ea4 f3bd e3fa 9c3e f82a 263d
000001b0: a30d 91be b618 6f3e c0b5 f7bd a869 163d
000001c0: b866 4fbd 6048 2f3d 8884 aabd 261c 7cbe
000001d0: 8005 44bb 20f6 d03c 40b7 06bd 3cb1 893d
000001e0: 68d2 803d 6558 973e eada 723e 3ed5 3d3e
000001f0: c895 323e 5c16 37bd 003b 293b b031 58bc
00000200: 652b d4bd 88ab 5b3d 7902 1bbe 1632 733e
00000210: fcdc 2e3e 00aa c73b def4 7bbe 10e7 9bbe
00000220: 47c5 8f3e 34e7 e13d c0cd 4b3e 4e2e 153e
00000230: 9f91 863e 365e 733e aa66 88bd d044 e23c
00000240: b887 31be 6716 24be e082 06bd c0f1 133e
00000250: 2854 793d 8b76 963e 5b46 00be 40c4 953c
00000260: a165 a93d fcb7 163e 00a9 fb3b eb2b 2f3e
00000270: 44cf 31be 1dfa d43d 21f6 893e 3872 73bd
00000280: f257 cabd 8ee6 713e 2e47 b53e c264 99be
00000290: 22a0 203e eb56 953e af55 8c3e d72c 8b3d
000002a0: 4ced ab3e 80f3 2b3d 70bf 51be feb1 023e
000002b0: cd9a 1abe fe5e 72be 2ffc 883e 38f4 44bd
000002c0: a7bb 11be 00c0 dab7 2600 6ebe 0034 0f3e
000002d0: c2cb 37be 477e 92be 6755 0d3e 101c 34be
000002e0: 52c1 52be 46ab c6bc 3d3b 933e e3fb 04be
000002f0: 87f5 c83e ff4d 993e f6ea 08be 1099 89bd
00000300: d204 6abd 1637 a0be d29c 793e 323a 183e
00000310: 663f 89be ed42 dbbd 852f 6f3e 3087 b73d
00000320: 600c 4bbc a4f9 c13d 64c7 213e 00b4 e1bc
00000330: 3052 103d e2d5 313e c0c6 183e f123 d3bd
00000340: c958 173e 1111 993e 52b8 713e 3425 0fbe
00000350: dd90 683e 801d 4c3c 14f1 933d 1fb0 5abe
00000360: 66b1 713e 2526 6f3e 6889 383e 9a4e 19be
00000370: 9d45 55be 6abe 413e 06cd 0cbe 2ca3 febd
00000380: 3eeb 003e d2ef 1bbe 13e7 8dbe ec79 293e
00000390: e2b8 53be cd6b 8c3e 78f9 82bd d0a1 99bc
000003a0: 1f02 12be 50ea 34bd d2b5 94be 22d4 b43e
000003b0: f9e6 34be 0bc5 cb3e f179 9fbb d6f4 79be
000003c0: ba90 0ebe 96b4 9abd c563 2cbe 20d1 2abc
000003d0: 9fde 903e a4ea b1bd 9030 f0bc 1aa8 afbd
000003e0: 0028 2c39 969d 85be de52 52be be84 dcbd
000003f0: 7480 ce3e 9ad9 07be 8798 a03e 6e0c 553e

linear1.bias f4 [256]
-0.104773544 0.20365559 -0.18971902 0.15571287 0.093749076 0.12685281 -0.17357679 -0.110370345
0.25615886 -0.18725781 0.21003905 -0.2731437 0.312759 -0.032065462 -0.21843636 0.3759831
-0.0749389 -0.30343696 0.29380795 -0.015280872 0.31314003 0.36723626 -0.10132277 0.3785772
-0.23400816 0.0017954817 0.17957598 -0.21236306 0.25499266 0.0858475 0.19332287 -0.206485
0.29125902 -0.31027865 0.33488467 0.1064148 0.024773188 -0.1473528 -0.14595315 -0.2977658
-0.222937 0.19721417 0.10964256 -0.19015184 -0.16823718 -0.19630519 -0.22025545 -0.12885657
0.11058742 -0.069356486 -0.12974675 -0.2649206 0.37606555 0.31573153 0.13628373 0.2564712
0.27931747 -0.29619667 0.21984604 0.15817553 -0.26634657 0.2089577 -0.06878296 -0.08080387
0.23871627 -0.054074325 -0.28450754 -0.0067576766 -0.08925937 0.07185823 -0.12035987 -0.099070475
-0.06666727 0.13906322 -0.25518334 -0.008379425 0.37425205 -0.09704696 -0.26810503 0.06908538
-0.10570733 -0.27195054 0.10160041 0.37533748 -0.021579474 0.19343108 0.016163945 0.24751003
-0.18689933 0.20976004 0.22077326 -0.23076458 0.013322836 0.21410286 -0.17190155 -0.2298744
0.23799652 -0.16619934 0.18303277 0.022440836 0.25686786 -0.21083105 -0.17414096 -0.31366947
0.039479703 0.26297197 0.19951013 0.28902057 0.39587188 0.19118655 0.19345048 0.029117495
-0.07477254 0.23999265 -0.2341596 0.3966923 0.03972597 -0.070655 0.090399146 -0.0062296153
0.20194994 0.23525034 0.064021856 0.09432513 -0.2884777 -0.028061211 0.27923232 -0.17775877
0.25233302 -0.086811796 -0.063636616 0.11202219 -0.05894795 -0.24303079 -0.29844388 -0.039505213
0.20284003 -0.08177064 -0.31222838 -0.10439958 0.16995746 0.3619065 0.21958962 0.22074462
0.08838959 -0.30342913 -0.29297325 -0.16197094 0.027809886 0.36400387 -0.076772526 0.3747982
0.03995487 0.25687155 -0.31074515 0.13354711 0.34551448 0.347659 -0.09532001 -0.12565452
0.2544094 0.14528915 -0.3113406 0.2194954 0.24429978 0.17114685 -0.13222268 0.17118074
-0.10349658 -0.049918413 0.42317995 -0.29741082 -0.13241805 0.23795255 0.18472518 -0.039163325
-0.09767544 -0.059219986 0.27123013 0.07570574 0.2437882 -0.25474238 -0.25118044 -0.005654335
-0.15420194 0.35680604 -0.29496932 0.23613366 -0.24220209 0.2416374 -0.083893985 0.39661458
0.16676214 0.37293896 -0.36413074 -0.07962956 -0.13863516 -0.17335565 0.22129717 0.27082375
-0.033903807 -0.23033872 0.052650135 0.12126159 0.31990594 0.26135305 -0.068569034 0.15619366
0.3173269 -0.22663948 -0.14326288 0.18872593 -0.11593971 0.35522977 0.1617757 -0.24512947
0.37102997 0.2616006 0.32323092 0.014095938 -0.16800791 -0.007372319 0.24012443 0.2472147
0.0711163 -0.23398764 0.18371528 0.28569734 0.22135428 0.17989668 0.039616227 -0.14885075
0.14900887 -0.045772076 0.14208868 -0.003858596 0.24203768 -0.31203914 -0.02285394 0.18512951
0.42877278 -0.30362296 -0.04532618 0.099897146 0.22808063 -0.022860795 0.34897384 0.060814366
-0.23526195 0.35772043 0.34326488 0.26070273 0.12270622 -0.16342077 0.12590373 -0.095451936
00000000: 8393 d6bd 178b 503e b445 42be 3273 1f3e
00000010: 84ff bf3d b4e5 013e 1dbe 31be d909 e2bd
00000020: 4127 833e 83c0 3fbe 7a14 573e 7ed9 8bbe
00000030: f321 a03e 1357 03bd c8ad 5fbe db80 c03e
00000040: 9179 99bd 175c 9bbe ff6d 963e 9f5c 7abc
00000050: e453 a03e 6406 bc3e 5082 cfbd dfd4 c13e
00000060: d69f 6fbe 5e56 eb3a c4e2 373e b475 59be
00000070: 668e 823e d0d0 af3d 6ef6 453e ce70 53be
00000080: e71f 953e d8dc 9ebe 0176 ab3e 01f0 d93d
00000090: 24f1 ca3c a7e3 16be be74 15be c274 98be
000000a0: 9949 64be 83f2 493e 478c e03d 2ab7 42be
000000b0: 5e46 2cbe 3a04 49be a58a 61be faf2 03be
000000c0: a87b e23d c60a 8ebd 55dc 04be aca3 87be
000000d0: aa8b c03e 90a7 a13e f68d 0b3e 3150 833e
000000e0: b302 8f3e 17a7 97be 521f 613e c4f8 213e
000000f0: 945e 88be 02f9 553e 15de 8cbd 807c a5bd
00000100: 0a72 743e 0a7d 5dbd f9aa 91be 806f ddbb
00000110: 9ecd b6bd 682a 933d 3c7f f6bd 76e5 cabd
00000120: da88 88bd 9766 0e3e 64a7 82be db49 09bc
00000130: f79d bf3e 8ec0 c6bd 1045 89be a37c 8d3d
00000140: 167d d8bd 1a3d 8bbe e013 d03d 3c2c c03e
00000150: 70c7 b0bc cc12 463e 406a 843c 4573 7d3e
00000160: 8a62 3fbe 56cb 563e 6312 623e 8d4d 6cbe
00000170: 0648 5a3c c83d 5b3e f606 30be 3264 6bbe
00000180: 5cb5 733e 2930 2abe f16c 3b3e d8d5 b73c
00000190: 2f84 833e 18e4 57be 0252 32be 4999 a0be
000001a0: 78b5 213d 43a4 863e 624c 4c3e 81fa 933e
000001b0: b8af ca3e 68c6 433e e217 463e d087 ee3c
000001c0: 5822 99bd a2c0 753e 89c7 6fbe 411b cb3e
000001d0: b3b7 223d 92b3 90bd 3023 b93d cd21 ccbb
000001e0: f7cb 4e3e 77e5 703e e41d 833d 892d c13d
000001f0: 59b3 93be a0e0 e5bc 8af7 8e3e 6506 36be
00000200: cb31 813e 62ca b1bd ea53 82bd e46b e53d
00000210: 6873 71bd 10dd 78be a3cd 98be 38d0 21bd
00000220: 4cb5 4f3e 5e77 a7bd 66dc 9fbe 72cf d5bd
00000230: 5409 2e3e cf4b b93e 1adc 603e e10a 623e
00000240: 9a05 b53d 105b 9bbe 9700 96be b6db 25be
00000250: 8fd1 e33c b75e ba3e ea3a 9dbd 8de5 bf3e
00000260: b8a7 233d ab84 833e fd19 9fbe 93c0 083e
00000270: 46e7 b03e 5c00 b23e 2337 c3bd 94ab 00be
00000280: f341 823e aec6 143e 0968 9fbe 67c3 603e
00000290: b929 7a3e 1f41 2f3e 6265 07be 014a 2f3e
000002a0: 04f6 d3bd 4077 4cbd 0bab d83e 3b46 98be
000002b0: 9998 07be d5a9 733e 9928 3d3e b969 20bd
000002c0: 100a c8bd a890 72bd adde 8a3e 9c0b 9b3d
000002d0: 9da3 793e 986d 82be b99a 80be 0048 b9bb
000002e0: 1de7 1dbe 48af b63e 3806 97be 06cd 713e
000002f0: d303 78be cb6f 773e 9cd0 abbd 1111 cb3e
00000300: b2c3 2a3e dbf1 be3e 586f babe d314 a3bd
00000310: 60f6 0dbe 2584 31be ba9b 623e 69a9 8a3e
00000320: b8de 0abd eadd 6bbe aba7 573d ff57 f83d
00000330: b6ca a33e 11d0 853e ec6d 8cbd 3bf1 1f3e
00000340: ac78 a23e 2e14 68be 81b3 12be 5f41 413e
00000350: cc71 edbd ade0 b53e 87a8 253e 3803 7bbe
00000360: a4f7 bd3e 84f0 853e 867e a53e a6f2 663c
00000370: 440a 2cbe 7f93 f1bb 2ee3 753e da25 7d3e
00000380: 6ca5 913d 759a 6fbe dc1f 3c3e ec46 923e
00000390: b2aa 623e d636 383e a044 223d 556c 18be
000003a0: c895 183e 807b 3bbd b27f 113e 80e0 7cbb
000003b0: bad8 773e 98c3 9fbe 3038 bbbc 9792 3d3e
000003c0: 1b88 db3e 7874 9bbe f2a7 39bd e096 cc3d
000003d0: f88d 693e 9046 bbbc b3ac b23e 7c18 793d
000003e0: 82e8 70be 2227 b73e 6ac0 af3e d47a 853e
000003f0: 664d fb3d c657 27be e8ec 003e 4e7c c3bd

linear_dir.weight f4 [3, 256]
-0.15474917 -0.07602379 -0.032328203 -0.07911571 -0.03139423 0.010798171 0.06135182 -0.028812258
-0.0061976686 0.0012161508 -0.05413922 -0.015035681 -0.16444965 -0.023641163 0.04433626 -0.077868246
-0.06409671 0.015562519 -0.083953485 -0.016311562 -0.049111005 -0.11745365 0.015128046 -0.081573874
0.056872346 -0.0866637 -0.03031761 -0.0065740794 -0.03340211 -0.022231385 -0.12677135 0.058586463
-0.016498642 0.002441451 -0.026249485 -0.09098818 -0.07655272 -0.08325565 -0.029884875 -0.004852101
0.030876987 -0.09528428 -0.06903147 0.0013767892 -0.03272096 0.017336838 0.051227584 -0.056208156
0.024779119 -0.014238872 -0.0053961873 0.056684352 -0.052376315 -0.06617157 -0.08489001 -0.056714676
-0.002430737 0.056912802 -0.0965831 -0.033302017 -0.019745953 -0.015539654 0.036678504 -0.0691894
-0.010233127 0.00954188 -0.037213206 -0.019113705 -0.040667802 -0.03668818 0.017978512 -0.005482644
0.05303891 -0.04550117 -0.014083627 -0.051976454 -0.03217797 -0.016768008 -0.00458055 0.04876094
0.022788346 0.01571194 0.05104328 -0.018489113 -0.036932588 -0.023609951 0.006501861 -0.11610229
0.029216386 -0.006072141 -0.034336194 0.034464084 -0.10036398 -0.025851833 -0.011865884 -0.05721114
-0.040430885 0.04028324 -0.05404339 -0.1380894 -0.057508864 -0.022134706 0.019232377 -0.05435186
0.032382496 -0.055182718 0.047102764 0.021966211 -0.054737523 -0.089635216 0.005813919 -0.021086104
-0.01654227 -0.008577347 -0.096138395 -0.11976019 -0.08017524 -0.054772444 0.024433665 -0.09567993
-0.057886843 -0.11639488 -0.049605012 -0.13155618 0.022033542 0.0035239682 -0.10485491 -0.114347994
-0.08674336 0.04149145 -0.053871512 -0.1385879 0.05364722 0.022948794 -0.0029942617 -0.050678045
-0.058387626 -0.015644176 0.061178364 0.02591154 -0.07928629 -0.07404679 -0.066338055 -0.0033293276
-0.015665757 0.043444715 -0.04669635 -0.019328894 -0.08066144 -0.042221796 0.06067957 -0.085156955
0.05434463 0.026641525 -0.0026995987 -0.1293442 -0.012705066 -0.07489586 -0.026130503 -0.0621392
0.010844305 -0.06712424 -0.05149012 -0.05228066 -0.04291588 -0.08901531 -0.09194711 -0.029526738
-0.037200414 -0.04719323 -0.09991033 -0.11713724 0.05653874 -0.08425884 -0.10786675 -0.10232104
-0.08957598 0.013030939 -0.09077568 0.01853621 -0.07184591 -0.040496998 -0.060395144 -0.021224134
-0.041112036 -0.083010815 0.0048037097 -0.04076595 -0.00876113 -0.07998258 -0.010422613 -0.053055495
-0.11689895 -0.120145574 0.034808815 -0.0016361792 -0.024100773 -0.03714236 -0.13771395 -0.12646683
0.032473437 0.015280627 -0.11635513 -0.09790348 -0.1163585 0.0010216236 -0.020805053 -0.14331168
-0.15055355 -0.058092438 -0.05803418 -0.06628693 0.01940807 -0.09807605 -0.06835179 0.046724774
-0.08971643 -0.06852892 -0.027854206 0.029832656 -0.052874744 -0.14593162 -0.061234634 -0.12008155
-0.03261121 -0.03265268 0.0039360896 -0.08032154 -0.055671114 -0.06186717 0.056171007 -0.05130157
0.024290472 -0.060117945 -0.059050865 0.0003658086 0.02657675 -0.004068263 0.012388498 -0.021299675
-0.123962075 0.045417186 0.03362035 -0.06104876 -0.038476072 -0.02312588 -0.10026826 -0.057766415
-0.062171593 -0.034532968 -0.07894924 0.031457037 -0.025564857 -0.08088997 -0.08961472 -0.023961723
00000000: 9176 1ebe 5cb2 9bbd 946a 04bd 6b07 a2bd
00000010: 3c97 00bd d0ea 303c 0c4c 7b3d af07 ecbc
00000020: d015 cbbb 4067 9f3a 16c1 5dbd 3858 76bc
00000030: 7d65 28be 1dab c1bc f099 353d 6379 9fbd
00000040: 2345 83bd f0f9 7e3c ceef abbd d39f 85bc
00000050: 9f28 49bd 8a8b f0bd a0db 773c 3410 a7bd
00000060: faf2 683d bd7c b1bd a35c f8bc 606b d7bb
00000070: a7d0 08bd 981e b6bc 59d0 01be 5cf8 6f3d
00000080: 2928 87bc c000 203b 2909 d7bc 0358 babd
00000090: acc7 9cbd f081 aabd 20d1 f4bc 60fe 9ebb
000000a0: bcf1 fc3c 6824 c3bd 5f60 8dbd 6175 b43a
000000b0: 6a06 06bd fc05 8e3c 04d4 513d 863a 66bd
000000c0: 94fd ca3c 284a 69bc 80d2 b0bb da2d 683d
000000d0: 8c88 56bd f684 87bd d0da adbd a64d 68bd
000000e0: 004d 1fbb 661d 693d 5ccd c5bd b267 08bd
000000f0: 44c2 a1bc 089a 7ebc 333c 163d 2cb3 8dbd
00000100: d8a8 27bc 8c55 1c3c e06c 18bd 5894 9cbc
00000110: 4893 26bd 5846 16bd ac47 933c c0a7 b3bb
00000120: 543f 593d 6f5f 3abd 03bf 66bc 43e5 54bd
00000130: 0ccd 03bd 105d 89bc 7018 96bb 8db9 473d
00000140: a0ae ba3c 54b6 803c c212 513d 7b76 97bc
00000150: a046 17bd a869 c1bc 900d d53b 0ac7 edbd
00000160: 3457 ef3c d0f8 c6bb 1ca4 0cbd 362a 0d3d
00000170: a18b cdbd 39c7 d3bc 2069 42bc 3a56 6abd
00000180: db9a 25bd 0a00 253d 9a5c 5dbd 4f67 0dbe
00000190: 6a8e 6bbd d853 b5bc 388d 9d3c 0ea0 5ebd
000001a0: 82a3 043d 4607 62bd d4ee 403d 7cf2 b33c
000001b0: 7434 60bd ab92 b7bd b082 be3b c4bc acbc
000001c0: a883 87bc 0088 0cbc 35e4 c4bd d544 f5bd
000001d0: eb32 a4bd 1259 60bd 1c29 c83c d7f3 c3bd
000001e0: c11a 6dbd 7060 eebd a02e 4bbd aab6 06be
000001f0: b07f b43c 60f2 663b 2cbe d6bd 482f eabd
00000200: 81a6 b1bd f0f2 293d 60a8 5cbd fde9 0dbe
00000210: 30bd 5b3d 1cff bb3c 603b 44bb c893 4fbd
00000220: dd27 6fbd 3728 80bc 2a96 7a3d 7044 d43c
00000230: da60 a2bd d8a5 97bd 3fdc 87bd d930 5abb
00000240: 7955 80bc 16f3 313d ac44 3fbd a157 9ebc
00000250: d331 a5bd c3f0 2cbd 248b 783d c566 aebd
00000260: 7a98 5e3d 543f da3c c0eb 30bb ce72 04be
00000270: e928 50bc 0063 99bd a30f d6bc ac85 7ebd
00000280: 50ac 313c 6f78 89bd 4ee7 52bd 3f24 56bd
00000290: 90c8 2fbd a94d b6bd c44e bcbd 0fe2 f1bc
000002a0: 765f 18bd b04d 41bd c99d ccbd a6e5 efbd
000002b0: 2a95 673d e68f acbd 3ee9 dcbd b28d d1bd
000002c0: 9d73 b7bd b87f 553c 9ae8 b9bd 40d9 973c
000002d0: f323 93bd 2ee0 25bd e660 77bd 3cde adbc
000002e0: 1865 28bd 9301 aabd 7068 9d3b 32fa 26bd
000002f0: d88a 0fbc e8cd a3bd 9bc3 2abc b850 59bd
00000300: b768 efbd e20e f6bd b093 0e3d 1075 d6ba
00000310: fc6e c5bc 9622 18bd e304 0dbe 8580 01be
00000320: de02 053d 985b 7a3c 994b eebd 9f81 c8bd
00000330: 5e4d eebd 00e8 853a 5c6f aabc 4cc0 12be
00000340: b62a 1abe 56f2 6dbd 40b5 6dbd 71c1 87bd
00000350: acfd 9e3c 19dc c8bd 06fc 8bbd 7a62 3f3d
00000360: 3fbd b7bd e458 8cbd 812e e4bc 9d63 f43c
00000370: 3093 58bd 196f 15be 2bd1 7abd 51ed f5bd
00000380: 5593 05bd d1be 05bd 50fa 803b 9f7f a4bd
00000390: 6507 64bd 6e68 7dbd 9213 663d 9821 52bd
000003a0: d0fc c63c 3c3e 76bd 52df 71bd 00ca bf39
000003b0: 7cb7 d93c 104f 85bb 20f9 4a3c a87c aebc
000003c0: d4df fdbd 5f07 3a3d 7eb5 093d 440e 7abd
000003d0: 1699 1dbd 7c72 bdbc 7259 cdbd 7a9c 6cbd
000003e0: a4a7 7ebd 7172 0dbd 24b0 a1bd 18d9 003d
000003f0: 646d d1bc a4a9 a5bd ec87 b7bd 604b c4bc

linear_dir.bias f4 [3]
-0.101470105 -0.054655597 -0.02145667
00000000: 8fcf cfbd 8cde 5fbd e6c5 afbc

linear_acc.weight f4 [3, 256]
-0.18881148 -0.12201403 0.045060746 -0.023003163 0.058563553 -0.020609051 0.02426637 -0.08333012
-0.0461858 0.039050587 -0.025826849 -0.03349085 -0.15197718 -0.029893493 -0.004602708 -0.06189299
-0.07364108 -0.0008523017 -0.07756979 -0.086289115 -0.022906555 -0.05380888 -0.022914559 -0.12525804
-0.05035135 -0.0878731 -0.10611632 -6.3553452e-06 -0.11585466 0.005279772 -0.15049793 -0.020806484
-0.10710802 -0.00855121 -0.11715944 -0.098208696 -0.05904135 -0.033058893 -0.050084107 -0.058334664
0.0065238476 -0.060948726 -0.13309427 0.040172014 0.040340103 0.027347788 -0.02857031 -0.061650395
-0.04199464 -0.03703154 0.055172212 0.050093114 -0.13304012 -0.11783188 -0.1377943 -0.1350198
-0.0318432 -0.0045502707 -0.037104473 0.0517072 -0.025480367 -0.0031756982 0.027519176 -0.07158084
0.03739699 0.03898042 0.051436745 0.03980113 0.058600053 -0.11301116 -0.03686627 -0.015537471
-0.023327164 -0.047252163 0.045693453 -0.13402106 -0.1186809 0.041328043 0.031146035 0.04419646
0.021755867 -0.05269202 0.028492972 -0.09888841 0.03771086 -0.062181268 0.035102405 -0.09086356
-0.004847914 0.0029853433 -0.029956535 0.04224942 -0.15181306 -0.07321016 0.056546807 0.022597723
-0.039508607 -0.011822432 -0.10324052 -0.049313854 -0.04365176 0.04832957 0.042156182 0.0020841956
0.0028578117 -0.057539016 0.038254447 0.045530863 -0.075252354 -0.114269376 0.039425716 -0.039751776
0.056330137 0.032758772 -0.070434995 -0.15720919 -0.02137321 -0.040292077 0.0047393665 -0.1628581
-0.07455735 -0.12323874 -0.0016188473 -0.15862982 -0.039304063 0.021977194 -0.12614599 -0.07895425
-0.11940117 -0.04960394 -0.13974334 -0.12052248 0.052798398 0.0020057335 0.049542323 0.049459033
-0.090457745 -0.0630853 0.04270698 -0.060224146 -0.027105832 -0.10742761 -0.1475807 0.02235302
-0.0826742 0.029076196 0.029893734 -0.06795372 0.0021467046 -0.11945815 -0.042553283 -0.13298014
-0.03862706 0.014551245 -0.01546371 -0.1606539 -0.06790978 -0.14040603 0.03695735 -0.02294761
-0.0064897835 -0.0560051 0.02617424 -0.08768783 0.033575166 -0.053028934 -0.13392451 -0.16563664
-0.03161548 0.05292189 -0.105311446 -0.10470568 -0.0016380921 -0.03506788 -0.16478641 -0.081349134
-0.057005778 -0.03436724 -0.096465684 0.024068214 -0.12759313 0.05500356 -0.12551059 -0.03892389
-0.11464703 -0.09818024 -0.056316137 -0.009323768 -0.052468427 -0.09058698 -0.057914574 -0.13810018
-0.10979797 -0.12728877 0.015685884 -0.0032362305 -0.044099428 -0.046060137 -0.16380027 -0.044886716
-0.009090804 -0.026771933 -0.030080844 -0.12477357 -0.033117384 -0.016907237 -0.01565253 -0.0061458643
-0.16468666 0.043510452 0.016866863 -0.062123615 0.04536768 -0.08178148 -0.10511727 -0.018094674
-0.13038982 -0.032331046 -0.12831888 0.01610664 -0.035223648 -0.07343637 -0.072083406 -0.08831961
-0.10956593 -0.028938662 0.026680999 -0.04135442 -0.061722092 0.0046320036 0.01242052 -0.049733162
-0.021380335 -0.03946241 -0.047430232 -0.0011501759 0.04622525 0.041164212 0.0554766 -0.10678489
-0.0635103 0.032424297 0.051791124 0.03788425 -0.08154882 0.007891439 -0.016987506 -0.14108212
0.014117874 -0.13793753 -0.10864056 0.050015528 -0.030710388 -0.087311886 -0.019962415 -0.056331426
00000000: cc57 41be 7ee2 f9bd 9e91 383d 2171 bcbc
00000010: 56e0 6f3d 50d4 a8bc 44ca c63c fba8 aabd
00000020: 522d 3dbd 82f3 1f3d d492 d3bc b42d 09bd
00000030: e89f 1bbe 33e3 f4bc 50d2 96bb 8183 7dbd
00000040: 22d1 96bd 006d 5fba e9dc 9ebd 59b8 b0bd
00000050: 87a6 bbbc b366 5cbd 50b7 bbbc a543 00be
00000060: 383d 4ebd d0f6 b3bd 8353 d9bd 0040 d5b6
00000070: 3545 edbd f001 ad3b 211c 1abe 5c72 aabc
00000080: 735b dbbd 601a 0cbc 4af1 efbd a421 c9bd
00000090: 58d5 71bd c368 07bd fe24 4dbd 54f0 6ebd
000000a0: 00c6 d53b 5fa5 79bd dd49 08be 698b 243d
000000b0: aa3b 253d 7808 e03c 480c eabc 2085 7cbd
000000c0: 9202 2cbd 62ae 17bd 42fc 613d 702e 4d3d
000000d0: ab3b 08be d751 f1bd f319 0dbe a142 0abe
000000e0: 046e 02bd 701a 95bb dcfa 17bd eeca 533d
000000f0: 34bc d0bc 601f 50bb e56f e13c fa98 92bd
00000100: 962d 193d efa9 1f3d 56af 523d 8206 233d
00000110: 9c06 703d 6572 e7bd 1601 17bd e090 7ebc
00000120: 9c18 bfbc 7c8b 41bd 0f29 3b3d d13c 09be
00000130: f90e f3bd 9847 293d f825 ff3c 5907 353d
00000140: 5c39 b23c 96d3 57bd 186a e93c 0286 cabd
00000150: b476 1a3d c9b1 7ebd 8ac7 0f3d ad16 babd
00000160: 40db 9ebb c0a5 433b 6867 f5bc ba0d 2d3d
00000170: e274 1bbe 35ef 95bd a09d 673d dc1e b93c
00000180: c7d3 21bd e0b2 41bc c46f d3bd 53fd 49bd
00000190: 30cc 32bd 3af5 453d f6ab 2c3d 0097 083b
000001a0: 204a 3b3b 08ae 6bbd b2b0 1c3d 927e 3a3d
000001b0: e81d 9abd 1006 eabd dc7c 213d c2d2 22bd
000001c0: 6eba 663d 102e 063d 3940 90bd 72fb 20be
000001d0: df16 afbc 4e09 25bd b04c 9b3b 46c4 26be
000001e0: 86b1 98bd 9864 fcbd 802f d4ba db6f 22be
000001f0: 4cfd 20bd 8409 b43c 6a2c 01be c4b2 a1bd
00000200: 9a88 f4bd 802d 4bbd e118 0fbe 7dd4 f6bd
00000210: 2243 583d a072 033b e4ec 4a3d 8e95 4a3d
00000220: e941 b9bd de32 81bd 84ed 2e3d 98ad 76bd
00000230: 0d0d debc 0203 dcbd 651f 17be ae1d b73c
00000240: 1751 a9bd 3431 ee3c b4e3 f43c 522b 8bbd
00000250: baaf 0c3b 79a6 f4bd 5a4c 2ebd f22b 08be
00000260: 6837 1ebd 5868 6e3c 805b 7dbc 7582 24be
00000270: 4814 8bbd 99c6 0fbe 9760 173d a0fc bbbc
00000280: 40a8 d4bb 9b65 65bd 5c6b d63c ad95 b3bd
00000290: 1d86 093d de34 59bd 8223 09be a79c 29be
000002a0: 3c7f 01bd a0c4 583d 87ad d7bd ee6f d6bd
000002b0: 40b5 d6ba 56a3 0fbd c5bd 28be 609a a6bd
000002c0: e47e 69bd aac4 0cbd cd8f c5bd b42a c53c
000002d0: c6a7 02be 6a4b 613d d985 00be a86e 1fbd
000002e0: 10cc eabd b912 c9bd c0ab 66bd b8c2 18bc
000002f0: 22e9 56bd ab85 b9bd d537 6dbd 226a 0dbe
00000300: c2dd e0bd fd57 02be af7f 803c f016 54bb
00000310: 9aa1 34bd 8ea9 3cbd 42bb 27be 22db 37bd
00000320: 98f1 14bc d050 dbbc 1a6c f6bc 4989 ffbd
00000330: 18a6 07bd 0c81 8abc bc39 80bc 3f63 c9bb
00000340: 9fa3 28be 0438 323d 602c 8a3c 5575 7ebd
00000350: 76d3 393d 0c7d a7bd b947 d7bd 483b 94bc
00000360: e984 05be 8f6d 04bd 0666 03be 13f2 833c
00000370: ac46 10bd cf65 96bd 77a0 93bd e9e0 b4bd
00000380: 1a64 e0bd c610 edbc 1c92 da3c 4163 29bd
00000390: 4ed0 7cbd 10c8 973b 707f 4b3c 00b5 4bbd
000003a0: d025 afbc 56a3 21bd 3446 42bd 80c1 96ba
000003b0: b056 3d3d ce9b 283d 6e3b 633d 09b2 dabd
000003c0: b011 82bd 57cf 043d ee22 543d 842c 1b3d
000003d0: 1103 a7bd 184b 013c 6229 8bbc d577 10be
000003e0: a84e 673c 7f3f 0dbe f17e debd 15dd 4c3d
000003f0: 5a94 fbbc 93d0 b2bd 3888 a3bc c8bb 66bd

linear_acc.bias f4 [3]
-0.10180999 -0.0736191 -0.040233158
00000000: c281 d0bd 9cc5 96bd 86cb 24bd
