Formula1/model/model.pth (torch, 23360 bytes, 4 tensors)

linear1.weight f4 [256, 11]
00000000: 889f 633e 502c bfbc a2e2 903e 7a8f 28be
00000010: bcab 5fbe aac0 59be 7cce a83d 141a 4bbe
00000020: d810 1c3d c3a0 51be d883 b1bd c3f3 143d
00000030: d325 88be 6fc1 05be 3c01 e23d b097 31be
00000040: 6f62 c33d 9074 f33c 8534 643e 6003 dc3d
00000050: 1f1d 2fbc 6d59 523e 48a6 043e 6ed8 c9bd
00000060: bd4d 853e 706d fa3c 9997 c93c 3d4b 723d
00000070: cbe2 43be 6db3 ccbd a55d 09be d286 2a3e
00000080: a826 d13b 391a 2b3e ce24 94be b465 29be
00000090: 6c8d 79be 8726 073c e58d 8f3e d842 943e
000000a0: dad8 213e f875 1a3e f681 88be efc0 123d
000000b0: 2d33 40bd 715c 853e 8ae1 cd3d ea8c 4b3e
000000c0: e0b6 8a3e ac81 72be 00ed 7ebb 06d8 303d
000000d0: e5ba 83be 5ef2 993e ba87 993e 2653 d2bd
000000e0: 4956 893c f934 66be 5fc8 23bc 9327 643e
000000f0: 36ac 48be 18d1 973d 8e54 0ebe 02cb 1bbe
00000100: 0050 103d a9a7 40be b23f 5cbe 22e3 38be
00000110: 000a 03be 90fc 6f3e 09bf 833e a27b 823b
00000120: 150a 94be b681 753e 1034 323d b141 87be
00000130: c5c1 a73c e662 883e 0059 e0ba 2cd5 67be
00000140: c9de 0ebe c878 0dbe 48c6 e6bd 2a39 6ebe
00000150: 20f7 963e f4d9 7a3e 84be dcbd 6929 82be
00000160: 6dff 06be 2167 673d 1f1e 52be 70a3 743d
00000170: ad12 903e 3750 4f3e ba8b 96bd ae0e 80be
00000180: 2a4d 2d3e 84f7 75be 77e4 4bbd a05a 07bc
00000190: be55 dcbd 108b 813c 14c8 e73d 807a 933d
000001a0: f4b3 77be 7080 6abe 30a3 7b3e 14fd 89be
000001b0: 3ce8 463e 686b 3fbe f714 0bbe 2ce8 6a3e
000001c0: ea4e 8dbd be2e fabd 8749 67be 0090 693c
000001d0: 70d8 cc3c e22f 21be f46c 84be dc8c abbd
000001e0: 5589 32be 985b c53d 18ff 703d 4c29 913d
000001f0: 6040 e9bc f898 4c3e 42b9 98be 1eed 63be
00000200: 8ced 983d cc5a 683e 401a 433d 7477 943e
00000210: ffce f9bd 76af 49be 5174 963e 9c7c 7e3d
00000220: 1bad b2bd 5378 183e 30ea c7bc eefa 6f3c
00000230: 00d1 5c3e 4baf c2bd 15cc 22be ca6c d3bd
00000240: 7836 b23d 6a32 61bb 432c 533e 70d4 853e
00000250: fda4 d83d 6c64 103e 17cc 09bd 86e2 f5bd
00000260: 91f5 353e a478 913d 3599 cb3d 5ddb e2bc
00000270: f645 483e 6914 f63d 57ea b9bc 3cb4 573e
00000280: fc7d 643e aabe 523d 6ce8 963d 18ed 353e
00000290: 6b13 303e 14dd 7dbd 2cd1 bc3d 2883 8a3e
000002a0: 9241 90be 1e29 2fbe 502b 78be 2aca 72be
000002b0: 14c1 fd3d c53f 31be 3050 efbc b0fa cabc
000002c0: 487c 4abd 1c57 f13d 0a78 aabd 00fa 853e
000002d0: b502 82be 0254 3fbe 968a c8bd 0845 36bd
000002e0: 8c23 343e 82ba 0e3e c0d5 b7bb 78c8 8abd
000002f0: 8764 d0bd 7258 3abe 40dd e1bd ccbb 89be
00000300: a305 483d 2c99 80be 235e 5e3d 0863 a23d
00000310: 2dd9 5cbe d2c9 353e 2ec0 983e 7c1e 173e
00000320: 1ce8 8d3d 5a98 0c3e 0065 b93d 008a 37be
00000330: 540d c33d 0244 2b3e 00c0 843c 6035 303d
00000340: a0f1 77bc c651 0d3d df8d 923d d075 76be
00000350: 8235 26be a967 863e 69a4 85be d8c4 3c3d
00000360: f636 983d b43c 55be 48f3 6b3d d558 46be
00000370: 6362 7f3e 5559 7e3e b21c 7c3d 6db2 7f3e
00000380: f573 643e e498 56be 46d0 263e 2203 8f3e
00000390: ac35 f13d 5781 96be 770e 2dbe 58ed 7dbe
000003a0: fb38 0b3e ad01 8fbe 60b2 823d 90ee 96be
000003b0: af67 863e aad7 96be 3876 233d 00dd 283b
000003c0: 4b72 09be 8ea6 99be 4622 5abe 2150 803d
000003d0: 3c3b 79be 664d 89be 8b1a 26bd 91ff 013e
000003e0: 2103 14be 0e23 7dbe 726b 4bbe 27df 5ebe
000003f0: a3f7 cc3c c0a9 763e 46c5 533e 62ea 273e
0.22228825 -0.02333656 0.28297907 -0.16460982 -0.21842855 -0.21264902 0.08242509 -0.19834167
0.038102 -0.20471482 -0.08667725 0.03636528 -0.26591358 -0.1306207 0.11035392 -0.1734302
0.09540259 0.029718667 0.2228566 0.10742831 -0.010688095 0.20541926 0.12954056 -0.09855734
0.26035872 0.030569762 0.02460842 0.059153784 -0.19129483 -0.0999516 -0.13414629 0.16652992
0.006382782 0.16709222 -0.2893433 -0.16542703 -0.24370354 0.008248932 0.28037944 0.28957248
0.15805379 0.15084064 -0.26661652 0.035828527 -0.046923805 0.2604709 0.10052784 0.19877973
0.27092648 -0.23682278 -0.0038898587 0.043174766 -0.25728527 0.30067724 0.29986364 -0.102697656
0.016764777 -0.22481145 -0.009996503 0.22280721 -0.19596943 0.07412928 -0.13899443 -0.1521416
0.035232544 -0.18813957 -0.21508673 -0.18055394 -0.12796783 0.23436189 0.25731686 0.0039820233
-0.28913942 0.23975262 0.043506682 -0.26417306 0.020478139 0.26637954 -0.0017116368 -0.22639912
-0.13952173 -0.13815606 -0.11268288 -0.23263994 0.29485416 0.24497205 -0.107785255 -0.25422218
-0.13183375 0.056494836 -0.20519303 0.05972618 0.28139248 0.20245443 -0.073508695 -0.250112
0.16923967 -0.24020201 -0.049778428 -0.008261353 -0.107585415 0.01581338 0.11317459 0.072010994
-0.2418974 -0.22900558 0.2457397 -0.26950896 0.19424528 -0.18693316 -0.13582216 0.22940129
-0.06899817 -0.122159466 -0.22586642 0.014255524 0.02500555 -0.15740922 -0.25864375 -0.08376476
-0.174352 0.09636611 0.058837026 0.07087955 -0.02847308 0.19980228 -0.2982884 -0.22258422
0.074671835 0.22690886 0.047632456 0.28997386 -0.121976845 -0.1969584 0.29385617 0.062130556
-0.087244235 0.1488965 -0.024403661 0.014647229 0.21564102 -0.09506091 -0.15898164 -0.10323484
0.08701795 -0.0034362325 0.20622353 0.2613864 0.10578344 0.14100808 -0.0336419 -0.120060965
0.17769457 0.071030885 0.09941331 -0.027692491 0.19557938 0.12015612 -0.02269475 0.21064848
0.22313684 0.051451363 0.0736855 0.17766225 0.17194907 -0.061978415 0.09219584 0.2705319
-0.28175026 -0.17105529 -0.24235272 -0.23709932 0.12390342 -0.17309482 -0.029213041 -0.02477774
-0.04943493 0.11784193 -0.08323677 0.26167297 -0.2539269 -0.1868439 -0.09792058 -0.044499427
0.17591685 0.13938335 -0.005610198 -0.06776518 -0.10175424 -0.18197802 -0.11028528 -0.2690109
0.0488335 -0.2511686 0.054288995 0.07929045 -0.21567221 0.1775277 0.2983412 0.14757723
0.06929037 0.13729993 0.09052467 -0.17923737 0.095240265 0.16725162 0.016204834 0.043019652
-0.0151332915 0.034501813 0.07155966 -0.2406838 -0.16231349 0.2625096 -0.26101997 0.046086162
0.07432358 -0.20823938 0.057605058 -0.19369824 0.24939875 0.24838765 0.061550803 0.24970408
0.22309859 -0.2095676 0.16290388 0.27932078 0.11777815 -0.29395553 -0.16900049 -0.2479757
0.13595955 -0.27930966 0.063816786 -0.29478884 0.2625098 -0.29461414 0.039907664 0.0025766492
-0.13422506 -0.30009884 -0.21302137 0.062652834 -0.24339002 -0.26816863 -0.040552657 0.12695147
-0.14454319 -0.24720404 -0.19865206 -0.21764813 0.025020426 0.24088192 0.20680723 0.16398004

linear1.bias f4 [256]
00000000: b271 1c3e 026f b33d cd9a 83ba c5b7 90be
00000010: a192 e4bd 6cd5 22be 8e03 83be faf6 443e
00000020: 543a 89be 00b3 703e c827 923e a42d 653e
00000030: 2ecb 353d b123 123e 6798 1cbe c2af 24be
00000040: 0088 1d3c 6aee 2c3c 4493 533e f413 afbd
00000050: 4b87 5d3e ad95 53bb e42b 6abd f9e0 6d3d
00000060: 3888 8e3e 0842 85bc bf40 7bbd 6830 c23d
00000070: 4862 35bd 932a 22be 0b22 91bd 2d4d 16be
00000080: d643 213e 5b92 53be 6526 bf3d 7c50 e73d
00000090: 3799 8b3e 2b4c 6b3e c40d 21be 6829 b73d
000000a0: 912b 71be 25de a1bd f394 843e 34bf 043e
000000b0: 3b98 7ebe 405b aebd bfc8 3d3e 19fa 223e
000000c0: bb48 003e 2f9d 71bb 6b3e 07be 352f 52be
000000d0: 1bd5 973c 42b2 64be 272c 69be 94fb 843d
000000e0: 839c 663d 2179 08be 35f3 22bd e096 573e
000000f0: a0af a73c 46af 963e d051 143e 703e 8abe
00000100: fa5e 97be ac04 493e af7e 31be edfb 443e
00000110: 62b4 673e c096 58bc d8ad 07bd d221 ea3d
00000120: a9ac d73d 2f51 9b3e b73e 423e ab20 853e
00000130: 200a 33bd b077 60be 9641 8a3e 4633 91be
00000140: 3ea3 723e d7b5 673d 3e3d 5ebe 07ae ce3d
00000150: ec81 d93d 61cf ed3d 122d bcbd 56a8 b6bd
00000160: b6f0 5f3e 3922 fc3c c594 62be 1bc5 0bbe
00000170: 78dd 25bd 6dad 0c3d 7225 a8bd a557 1dbe
00000180: 10b2 4dbe 62e5 be3c 31cd 82be c43b 8abe
00000190: 3b85 233e 2424 093e 0cda c5bd f3a1 ae3d
000001a0: 3817 2bbe d84f 18be 014c 8b3e 60a2 86bc
000001b0: adc2 8e3e 891f 8abe b9a0 cf3d cf07 873e
000001c0: 4a05 1d3e 548d 4a3d d201 433e 2e39 25be
000001d0: 20d3 503d 8025 e33b 3f67 ed3d 35d5 f6bd
000001e0: 3cd4 543e 8822 f0bd 7095 67be d46e 5cbe
000001f0: 65dc 10be d33a fe3d f091 70be 23f2 683e
00000200: 54ce 55be c62b 403e 607f 30be ed2c e1bd
00000210: 3a5e 1d3e 2468 563e 866c a3bb 0373 b7bd
00000220: f45f 33be e048 f23c 1969 1fbc b8aa 35bd
00000230: 4b4d 39be 9fc8 13be 0176 f73d db7e e2bd
00000240: b3de ddbd c923 193d 1afb 823d 96c3 923e
00000250: 451f 103c ec46 903e 949f abbb bcbe c9bd
00000260: 43da 98bd 1022 393e ac38 10bd 30b3 883c
00000270: 10e6 19bd 5b7f 8d3e 7fcf 7d3d 2fa0 15bd
00000280: 78fc b1bd 6a51 463e 5ccf a1bd b00f 2b3e
00000290: 9fd3 503d d0c0 7b3e 809e 8b3d b64c 853e
000002a0: 8b42 483c 2810 043e 0282 68be abef 1abe
000002b0: 47b7 0dbe 0c80 7c3e c11a 833e e76d 813e
000002c0: 00ab 87be 75a8 dcbd 30f4 933e 297c 54be
000002d0: de65 edbd 8706 20be e803 733d 5653 fe3c
000002e0: cc4c 983c 7c1b 7c3e 6503 5e3e c09c df3d
000002f0: 065a bb3d f9fd 463e b57a 2cbd 6f5a 68be
00000300: 1ed0 99bd 035f 52be f8e9 393e ff6d 813e
00000310: 24ce 823e 802c 9c3c 338b 8c3e ce94 923e
00000320: f61b 4ebe 501d 9bbe 6526 89bd 59f8 00be
00000330: 4914 3fbe 4f6f fd3d 3c22 193e 70c0 8f3c
00000340: e953 953e d2ff 84be 2eff 873e 16a0 8b3e
00000350: 1767 93be a05d 483c dd4b 2cbe fc18 803e
00000360: bab8 a8bd e7be 9c3d ad0c 84be ca30 713e
00000370: fbe4 afbd 7db3 0a3e 4db8 bbbd 822e 46be
00000380: d2a8 0a3d c8bf ab3d 1144 9abe 0f18 523d
00000390: c20b 973d 2bf1 bebd 21ab b0bc 98d0 433d
000003a0: 04a3 b3bd 7ec3 59be 8ab4 7ebe 275b 3bbe
000003b0: 1231 143e 3e5b 2e3e 4e78 2fbc 44de 753d
000003c0: c377 10be 84b0 a23c e652 ec3d 43bc 2fbd
000003d0: d3dd 103d a5ff 253e 1540 2cbe 1c65 bdbd
000003e0: 31a4 7d3e d328 6fbe 1226 733d b622 223e
000003f0: 1259 863e 800e 96be 66e5 21be 4c77 7cbc
0.15277746 0.087614074 -0.0010040641 -0.28265205 -0.1116078 -0.15901726 -0.2558865 0.19234839
-0.26802313 0.23505783 0.28545976 0.22380692 0.04438322 0.14271428 -0.15292512 -0.16082671
0.009614944 0.010554889 0.20661646 -0.08548728 0.21633641 -0.0032285259 -0.057170764 0.05807588
0.27838302 -0.016266838 -0.061341044 0.09481889 -0.04428318 -0.15836553 -0.07086571 -0.14677878
0.15748534 -0.20661299 0.09333495 0.11294648 0.2726533 0.22978275 -0.15727907 0.089434445
-0.23551776 -0.07903699 0.2589489 0.12963563 -0.24862759 -0.08513498 0.1853361 0.15915717
0.12527744 -0.003686737 -0.13207404 -0.2052582 0.018534234 -0.22333625 -0.22770749 0.06493297
0.056301605 -0.13327457 -0.03978272 0.21053648 0.020469487 0.29430598 0.14484334 -0.2700076
-0.2956465 0.19630688 -0.17333482 0.19236727 0.22627404 -0.013219535 -0.033124775 0.11432232
0.10530979 0.30335376 0.18969236 0.26001486 -0.043710828 -0.21920657 0.27003163 -0.2835943
0.23695084 0.0565699 -0.2170305 0.10091787 0.10620484 0.1161182 -0.09188284 -0.08918826
0.21869168 0.030778037 -0.22127064 -0.13649409 -0.040494412 0.03434508 -0.08210267 -0.15365465
-0.20087457 0.023302738 -0.25547174 -0.26998723 0.15968792 0.13392693 -0.0966073 0.08526983
-0.16708076 -0.14874208 0.27206424 -0.016434848 0.278829 -0.26977184 0.10138077 0.26373145
0.15334049 0.049451187 0.19043663 -0.16135094 0.050982594 0.0069319606 0.11591958 -0.12052385
0.20784086 -0.11725336 -0.226156 -0.21526653 -0.14146574 0.124135636 -0.2349317 0.22748618
-0.20879489 0.18766698 -0.1723609 -0.10994897 0.15367976 0.20938164 -0.0049873022 -0.089574836
-0.17517072 0.029575765 -0.009729647 -0.044352263 -0.18095891 -0.14432 0.12083054 -0.11059352
-0.10833492 0.037387643 0.0639555 0.28664845 0.008796518 0.2817911 -0.005237529 -0.09850833
-0.07463505 0.180794 -0.035210297 0.016687006 -0.03757292 0.27636227 0.06196546 -0.036529716
-0.08690733 0.19366995 -0.07900879 0.16705203 0.050983068 0.24585271 0.06817341 0.26035088
0.012222896 0.12896788 -0.22705844 -0.15130489 -0.13839446 0.24658221 0.2560635 0.2527916
-0.2649765 -0.10774318 0.28897238 -0.20750488 -0.11591695 -0.1562749 0.059329897 0.031045597
0.018591307 0.2461986 0.21680982 0.109185696 0.0914803 0.1943282 -0.04210921 -0.22690748
-0.07510398 -0.20544057 0.18155658 0.25279233 0.25547898 0.019064188 0.2744995 0.28629154
-0.20127854 -0.302958 -0.06696776 -0.12594737 -0.18660082 0.12374746 0.14954466 0.017547816
0.2916558 -0.25976425 0.26561874 0.27270573 -0.2878959 0.012229353 -0.16825815 0.25019062
-0.08238359 0.07653599 -0.2579092 0.23553768 -0.085885964 0.13545032 -0.09166012 -0.19353679
0.033852406 0.08386189 -0.30130056 0.051292475 0.073752895 -0.09323343 -0.021565976 0.047806352
-0.08771327 -0.2126598 -0.24873558 -0.1829649 0.14471844 0.17026994 -0.010709835 0.060026422
-0.14108185 0.01985956 0.11539249 -0.04290415 0.035367798 0.16210802 -0.1682132 -0.09247801
0.24769665 -0.23355417 0.05936248 0.15833554 0.2623983 -0.29307938 -0.15810165 -0.015409302

linear2.weight f4 [9, 256]
00000000: 78a3 333d a00d cd3c 32a7 92bc be81 9bbc
00000010: 68ba 893d 8ec9 babc af61 40bd 1820 6f3c
00000020: c0cd 6abd 40b2 ccbb 1402 973c 3012 5abd
00000030: e56c 423d f9f3 4b3c c2b8 1c3d 386a 7fbc
00000040: 10ca 73bc b8b3 363d 1cad eabc b2cc 6dbb
00000050: cb03 3f3d 3a87 fc3c ee94 5bbd c848 1d3d
00000060: 5339 543c 7cd9 23bd 02ee 0b3d 60cd b6bc
00000070: 1e56 03bd 2817 3fbd a84a 3c3d 4427 ccbc
00000080: 6bfe 31bc 57ca 2cbd 5f6c 13bd 50d6 e1bb
00000090: a000 32bd 2c57 e23c 52b4 183d 6025 6c3b
000000a0: 54eb 55bb 3cad f3bc 2fb5 cfb9 76d0 0e3d
000000b0: d4fa fcbc 6c0b e93c a5c5 0b3d 00b8 e8bb
000000c0: fe8f 1cbd 4714 813d 5022 58bd 084b 393d
000000d0: 22ec d53b 226c 1dbd 5844 1d3d f7a6 14bd
000000e0: 4ce9 153d 5451 1abd 9bd0 7bba ce1c 313d
000000f0: d8e3 3e3d 62f6 d83c 30c2 913b 365c 0f3c
00000100: dc08 a5bc 6781 623c 54f3 f83c 33d8 73bb
00000110: 63a6 063d ba02 453d 1a3c 723d 1b17 dcbc
00000120: 508a d03c 56a4 61bd d5b7 0cbd 9e2b 103d
00000130: 8529 ef3c 1747 85bd ecb2 553d 865a 6bbd
00000140: c9b3 cabc de60 8d3c 2cb0 663d 8c23 183d
00000150: d438 38bd a544 d93b 0ced 883c 249a dfbc
00000160: 670e 233d ed67 0ebd 5479 18bd d4a8 ec3c
00000170: 22b3 ad3c f083 ffbc bdc8 383d 89ee cabb
00000180: e0d7 65ba a0dc 94bc 7767 57bc 571c 033d
00000190: 5346 1abd 00cb 1abc 3e95 1bbd 0981 533d
000001a0: 4f96 85bd 7293 41bd f5b1 59bd 608e 7c3d
000001b0: bbf6 353b 189c 1dbc 5057 9f3b 9700 58bd
000001c0: b2be 30bd ee95 773c 598d 3abd 35e1 a1bc
000001d0: 36c2 583d 746b 2dbd 7e40 8cbd 963b 44bc
000001e0: f8c6 10bd f4ff 0c3d d401 a9bc e8cb 463d
000001f0: ba94 063d 48ac adbc 3e3d cb3c 72d1 80bd
00000200: 5cff 79bd 248d 40bd b810 af3c b441 3f3d
00000210: 82e3 c9bc 5823 43bc befc 0f3d 81a3 4bbd
00000220: 73b3 c73a 9214 28bd 237c 9b3c 1eaf 0dbd
00000230: b856 77bd 6cdf 85bc 90db 353d 7ca1 673d
00000240: 197e 47bd ac01 37bd f97d dcbc 2006 603b
00000250: b9dd 84bd 804c 5f3d 8196 bb39 cce7 bd3b
00000260: 22b3 28bc 784a f2bc f608 2b3d 54d1 5fbd
00000270: b632 49bd 741a d6bc 4bc9 68bd 099d 27bd
00000280: 8704 45bd d966 1b3c 3483 13bd f743 6a3b
00000290: b76d 363d d428 493d 6c16 2fbc ec9b 8e3c
000002a0: af72 04bd 087d 52bd 8026 81bb 0536 1dbd
000002b0: e5a6 f63c a363 81bd 3848 3e3c 6c74 3a3d
000002c0: 5d68 f8bc f834 25bd 3096 8a3b 67f0 5c3d
000002d0: bcc6 afbc 4075 68bd f46f 0fbd 5755 633c
000002e0: e419 1abd 074b 223d 0c20 3ebd 9809 073c
000002f0: 08b0 5a3c 631e 633d c457 b23c 28cd 7b3b
00000300: 28d0 80bc 9c0c 98ba cf06 46bd 0fb5 54bd
00000310: 90ea 2e3d 8011 8bba df9d 083d 4ed4 1ebd
00000320: e293 363d 18f5 1f3d 02a6 783c 74cb 14bc
00000330: b56f 7abd 2d6b 603c 80bd abba 8c80 62bd
00000340: 893b a0bc f832 65bc c0fe f23a 607e 47bb
00000350: 284d 9dbc 84c8 76bd 2962 d4bc ec89 dabc
00000360: 5c54 f63c c8aa 09bc 80a8 693d 2836 18bd
00000370: c3fe c9ba de48 86bd ade5 1c3c d54f 2d3d
00000380: a3fb af3b 9ef5 f23b 54f9 85bc 65a2 0cbd
00000390: 1c47 a5bc f420 b9bc 6f7a b13c 0cf0 16bd
000003a0: 585a b03c 60e7 323d 1203 463d 7f79 083d
000003b0: 0431 233d 5096 71bd d6af 373d 5c2a 763b
000003c0: ee76 123d 80ce f63b 0ad2 753c 1611 18bd
000003d0: 90a9 dabc 92f5 18bd 2a27 1d3d f5bc bc3c
000003e0: be09 ef3c 7f5a 81bd 5632 85bd 7881 26bd
000003f0: d4ab 24bd 50c3 56bd 3e3a 983c e189 a13a
0.043857068 0.025030911 -0.01790199 -0.018982764 0.06725007 -0.022801187 -0.04696816 0.014595054
-0.057325125 -0.006246835 0.018433608 -0.05324 0.04746713 0.012448304 0.038262136 -0.015589289
-0.014879718 0.044604987 -0.028646998 -0.0036285338 0.046634477 0.0308262 -0.053608827 0.038399488
0.01295312 -0.04000233 0.03416253 -0.022314727 -0.03206455 -0.046652943 0.045969635 -0.024921067
-0.010863881 -0.042185154 -0.035992023 -0.006892003 -0.043457627 0.027629457 0.03728134 0.003603302
-0.0032641487 -0.02974569 -0.0003961711 0.034866773 -0.030881323 0.02844783 0.034124035 -0.0071020126
-0.03822326 0.06302696 -0.052767098 0.04523757 0.0065283934 -0.0384332 0.038395256 -0.036292043
0.036599442 -0.037675217 -0.0009605975 0.04324036 0.046604007 0.026484672 0.004448198 0.008750012
-0.020145826 0.013824797 0.030389465 -0.0037207722 0.032873522 0.048098303 0.05913935 -0.026866486
0.025456578 -0.055088364 -0.034355003 0.035197847 0.029194603 -0.065077 0.052172586 -0.057459377
-0.024743931 0.017258104 0.056320354 0.037143275 -0.04497607 0.0066304975 0.016714595 -0.02729518
0.039808657 -0.03476708 -0.037225083 0.028889097 0.021203581 -0.031190842 0.045113314 -0.0061929864
-0.00087678246 -0.018171608 -0.013147227 0.03200945 -0.037664723 -0.009447813 -0.037984125 0.05163673
-0.0652281 -0.047259755 -0.05314823 0.061659217 0.002776547 -0.009619735 0.0048627034 -0.052734938
-0.04315061 0.01511143 -0.045544956 -0.019760707 0.05291959 -0.042338803 -0.068482384 -0.011977097
-0.035346 0.034423783 -0.020630755 0.048534304 0.03285668 -0.021200314 0.024809476 -0.062899485
-0.061034545 -0.047009602 0.021370277 0.04669352 -0.024644617 -0.011910282 0.035153143 -0.049716476
0.0015235975 -0.041035242 0.018980091 -0.034590833 -0.060385436 -0.016341887 0.044398844 0.056550488
-0.04870424 -0.04467933 -0.026915537 0.0034183338 -0.06487603 0.054516315 0.00035779554 0.0057954546
-0.010296615 -0.029576525 0.041756593 -0.05464299 -0.049120627 -0.02613566 -0.056832593 -0.040921245
-0.04810002 0.00948497 -0.036013797 0.0035746077 0.044538226 0.049111202 -0.010686498 0.017408334
-0.032335933 -0.05138877 -0.003941357 -0.038381595 0.030108878 -0.06317832 0.011613898 0.045521185
-0.030323202 -0.040333718 0.0042293295 0.053940203 -0.021457069 -0.056752443 -0.035018876 0.013875327
-0.037622347 0.039622333 -0.04641728 0.008242033 0.013347633 0.0554489 0.021770366 0.0038421843
-0.015724257 -0.0011600438 -0.048346337 -0.051930483 0.042704165 -0.0010610074 0.033353683 -0.03877669
0.044574626 0.0390521 0.015176298 -0.00908171 -0.06114169 0.013697428 -0.001310274 -0.055298373
-0.019559639 -0.013989203 0.0018539056 -0.0030440316 -0.01920183 -0.06024982 -0.025925713 -0.026677094
0.030069523 -0.008402534 0.05704546 -0.037161022 -0.0015411008 -0.06556867 0.009576243 0.042312462
0.0053705736 0.0074145338 -0.01635424 -0.03433456 -0.02017551 -0.022598721 0.021664826 -0.03685002
0.021527454 0.043677688 0.04834277 0.033318993 0.039841667 -0.05898124 0.044845425 0.003756187
0.03575795 0.007531941 0.0150036905 -0.03712567 -0.026692182 -0.03734357 0.038367428 0.02303932
0.02917945 -0.06316089 -0.065037414 -0.040650815 -0.04020293 -0.05243236 0.01858246 0.0012324416

linear2.bias f4 [9]
00000000: 8ce1 87bd 0086 f1ba 14c8 39bd 3b0a c4bb
00000010: a658 3ebd c4dd cabc 1ada 17bd 5c6a f73c
00000020: 6649 3d3d
-0.066348165 -0.0018426776 -0.045356825 -0.005982665 -0.04647126 -0.02476395 -0.037073232 0.030202083
0.046212576
