Formula1/model/model.pth (torch, 17216 bytes, 4 tensors)

linear1.weight f4 [256, 12]
0	0xbe355b96	-0.17710719
1	0x3e6097b0	0.21932864
2	0x3d9a2038	0.075256765
3	0xbe62ae34	-0.22136766
4	0x3e3ad712	0.18246105
5	0x3eabf0f0	0.33582258
6	0xbe80d07f	-0.2515907
7	0xbdaac689	-0.08338649
8	0x3e46931c	0.19392055
9	0x3e475636	0.1946648
10	0x3eab26fe	0.33428186
11	0x3d8afbc8	0.06786305
12	0x3e53ae74	0.20672017
13	0xbc230c60	-0.009951681
14	0x3e973248	0.2953055
15	0xbe895b81	-0.26827624
16	0xbddd288e	-0.10798751
17	0x3e801367	0.25014803
18	0x3d1b4bea	0.037914194
19	0x3d3379f1	0.043817464
20	0x3c855890	0.016277581
21	0xbb46e581	-0.0030349197
22	0x3e33ee38	0.17571342
23	0xbe489dee	-0.19591495
24	0x3df79bc4	0.12090257
25	0x3e0ae160	0.13562536
26	0x3e74bb4d	0.23899575
27	0xbb83d080	-0.004022658
28	0x3df592bc	0.11990878
29	0x3dc9448b	0.09827527
30	0xbdf3030a	-0.11865814
31	0x3df0d361	0.11759067
32	0x3e0c3e6a	0.13695684
33	0x3d4cd0eb	0.050003927
34	0x3e723b8b	0.23655526
35	0xbd088970	-0.033334196
36	0x3e5bd6dc	0.21468681
37	0xbdb50246	-0.08838324
38	0xbe18787c	-0.14889711
39	0xbe2862d6	-0.16443953
40	0xbe4a3036	-0.19744954
41	0xbdcb3cae	-0.09923683
42	0xbe61aee8	-0.22039378
43	0x3e86f5de	0.26359457
44	0x3e1effae	0.15527222
45	0xbcf506c0	-0.029910445
46	0x3ca3e9b0	0.020008892
47	0x3e46080c	0.19339007
48	0xbd190500	-0.037358284
49	0x3e85121a	0.25990373
50	0x3e5ddc5a	0.21666089
51	0x3e212b46	0.15739164
52	0xbd756a78	-0.05991599
53	0xbe521810	-0.20516992
54	0x3e75633f	0.2396364
55	0xbce3ea01	-0.027821543
56	0x3e7dad48	0.24773133
57	0xbdd0d9c0	-0.101977825
58	0x3ea20fd1	0.31652692
59	0x3e4286ee	0.18996784
60	0xbe3bf958	-0.18356836
61	0xbce1fbe0	-0.027585924
62	0x3e9cb817	0.306092
63	0xbe0e76bd	-0.13912483
64	0xbd970bec	-0.07375321
65	0x3eb52053	0.35376224
66	0xbdd63a98	-0.104603946
67	0x3d2fcdd3	0.0429209
68	0x3e8eeb94	0.27914107
69	0x3de772a5	0.113011636
70	0x3da264b7	0.07929366
71	0xbe5c6b9e	-0.21525428
72	0x3e60fb8c	0.21970958
73	0xbe3ba3fa	-0.18324271
74	0xbe8ead4b	-0.27866587
75	0x3e05955c	0.13045257
76	0x3e079e12	0.13243893
77	0xbe80ad66	-0.25132293
78	0x3dd11c10	0.102104306
79	0xbe0e8bf9	-0.13920583
80	0xbdf27caa	-0.11840184
81	0xbe77d089	-0.24200644
82	0xbe895be6	-0.26827925
83	0x3e74749c	0.23872608
84	0xbe8b4824	-0.27203476
85	0xbda0fdd2	-0.078609124
86	0x3bc0735d	0.0058731274
87	0x3d2416c0	0.04006076
88	0x3d125be0	0.03573215
89	0xbe87f71e	-0.26555723
90	0xbc58858d	-0.013215435
91	0xbe40a6cf	-0.18813632
92	0xbd51faf4	-0.05126472
93	0xbdc5e899	-0.09663505
94	0x3dcbf631	0.09959067
95	0x3d3c6358	0.04599318
96	0x3d935fe4	0.07196024
97	0xbe590ecc	-0.21197051
98	0x3e871035	0.26379552
99	0x3d981968	0.07426721
100	0x3e42f416	0.19038424
101	0x3e7741c6	0.24146184
102	0xbe5de826	-0.21670589
103	0xbe0fe30d	-0.14051457
104	0x3e815834	0.25262606
105	0xbe26ff68	-0.16308367
106	0x3e74bce6	0.23900184
107	0xbe0e70eb	-0.13910262
108	0x3c98a200	0.018631935
109	0xbe89136c	-0.2677263
110	0x3ea4ff75	0.32226148
111	0x3e47902e	0.19488594
112	0xbd55f9c4	-0.05224015
113	0x3dd31a26	0.10307722
114	0xbd5f2297	-0.054476347
115	0x3d941fa6	0.07232599
116	0xbdda5b04	-0.10661891
117	0x3e8a1ef3	0.26976737
118	0xbe674d6f	-0.22588132
119	0xbdfdd898	-0.123948276
120	0x3bda8cc0	0.0066696107
121	0x3d169fe0	0.036773562
122	0x3e9e975d	0.30974856
123	0xbd0b18a0	-0.03395903
124	0xbd424ac4	-0.047434583
125	0xbe464f54	-0.19366199
126	0x3e201067	0.15631257
127	0xbe2eb866	-0.1706253
128	0xbc07c4e0	-0.008286685
129	0xbcbffaff	-0.023435114
130	0x3e0bf890	0.13669038
131	0x3d784bc8	0.060619146
132	0xbdb2c13c	-0.08728263
133	0x3d5e8068	0.054321676
134	0xbe93c64e	-0.28862232
135	0xbe26c317	-0.16285358
136	0xbe2f04be	-0.17091653
137	0x3e6e8458	0.23292673
138	0xbe522940	-0.20523548
139	0x3cc7d7e0	0.02439493
140	0xbe6d3e30	-0.23168254
141	0xbe23fba7	-0.16013967
142	0x3e8cc54c	0.27494276
143	0xbe7559ed	-0.23960085
144	0xbcdc6410	-0.026903182
145	0xbdea75a0	-0.114482164
146	0xbd14759c	-0.036244974
147	0xbe7bbba6	-0.24583301
148	0xbdeaa56e	-0.114573345
149	0x3db09736	0.08622591
150	0xbc60d778	-0.013723247
151	0xbe8cb548	-0.27482057
152	0xbe827b43	-0.25484666
153	0x3df8b254	0.121433884
154	0x3d9dcd2a	0.077051476
155	0x3e926c02	0.28598028
156	0xbc1ebbe0	-0.009688348
157	0xbe10a101	-0.14123918
158	0x3ddcb0f8	0.107759416
159	0xbe00dc27	-0.12583981
160	0xbda30ce8	-0.07961446
161	0xbe43a6fa	-0.19106665
162	0x3dab037c	0.08350274
163	0xbe52099d	-0.2051148
164	0xbe53f038	-0.20697105
165	0x3e00cf4e	0.1257908
166	0xbe0932e5	-0.13398321
167	0xbe32e72d	-0.17470999
168	0x3dbe6280	0.09296131
169	0xbe51811e	-0.2045941
170	0xbe386f5f	-0.18011235
171	0x3e45a348	0.19300568
172	0xbe3dce0f	-0.18535636
173	0x3e444684	0.19167525
174	0xbe2e7040	-0.17035007
175	0xbe1f8227	-0.15576993
176	0xbe7911e3	-0.2432323
177	0xbe0957fb	-0.13412468
178	0xbe41740a	-0.18891922
179	0x3dfdcedc	0.12392971
180	0xbd2294dc	-0.039692745
181	0xbd856a2e	-0.06514393
182	0xbdcf7432	-0.10129584
183	0x3a953200	0.0011382699
184	0x3e228cac	0.15873975
185	0xbe38400c	-0.17993182
186	0x3e1870a6	0.14886722
187	0x3dc33e28	0.0953334
188	0x3e6fac58	0.23405588
189	0xbde0bdce	-0.10973702
190	0x3de30790	0.11085427
191	0xbda83750	-0.08213675
192	0x3dd0b9b8	0.10191673
193	0x3ddc9bd8	0.10771912
194	0xbe058857	-0.13040291
195	0xbe258612	-0.16164425
196	0xbe3418c8	-0.17587578
197	0xbd819848	-0.063278735
198	0xbdd02dc2	-0.101649776
199	0x3e0791c4	0.13239199
200	0x3d8ccb40	0.06874704
201	0xbe879fbb	-0.26489052
202	0x3e2af0dc	0.16693443
203	0x3d86f644	0.0658994
204	0xbe538905	-0.20657738
205	0xbd3d6ca8	-0.0462462
206	0x3da30840	0.07960558
207	0xbe7df049	-0.24798693
208	0x3e7bdb90	0.24595475
209	0xbe0f162b	-0.139733
210	0x3d19301d	0.0373994
211	0x3dc60001	0.096679695
212	0x3e904192	0.28175026
213	0x3e0b82f7	0.13624178
214	0xbe596271	-0.21228959
215	0xbbbce040	-0.0057640374
216	0xbdccd366	-0.100012586
217	0x3e829670	0.255054
218	0x3e244a04	0.1604386
219	0xbe82988f	-0.25507018
220	0x3db7247c	0.08942506
221	0x3e86ac9e	0.2630357
222	0xbe051891	-0.12997653
223	0x3e246b1c	0.16056484
224	0x3e927508	0.28604913
225	0xbe593de3	-0.21215014
226	0x3cf5104a	0.029914994
227	0x3c62e580	0.013848662
228	0xbe41fb32	-0.1894348
229	0x3d356f90	0.044295847
230	0xbe542735	-0.20718081
231	0x3d136538	0.0359852
232	0x3d33f440	0.043934107
233	0x3e1cb4cd	0.15303345
234	0x3e6a15a8	0.22859824
235	0x3e2876ad	0.16451521
236	0x3d5abea8	0.05340448
237	0xbdaca08a	-0.08429058
238	0x3e49e049	0.19714464
239	0xbe0763ff	-0.13221739
240	0xbe1cfd23	-0.15330939
241	0xbe878227	-0.26466486
242	0x3e0e08e8	0.13870585
243	0xbe213a5b	-0.15744917
244	0x3e6ef810	0.23336816
245	0x3de97120	0.1139853
246	0x3db61890	0.08891404
247	0xbda06370	-0.07831466
248	0xbe919a8d	-0.28438225
249	0x3de60494	0.11231342
250	0xbe85904a	-0.26086646
251	0x3e3ebed2	0.1862748
252	0x3d09f150	0.0336774
253	0x3e59c9b0	0.21268344
254	0x3e91a0e7	0.2844307
255	0xbc134740	-0.008989155

linear1.bias f4 [256]
0	0x3e32f12b	0.17474811
1	0x3e3cbb74	0.18430883
2	0x3ea7383e	0.32660097
3	0xbe782690	-0.2423346
4	0x3e8e923c	0.27845943
5	0x3e427a73	0.18992023
6	0x3d9a31b0	0.075290084
7	0x3e80fd97	0.25193474
8	0xbd90396f	-0.070422046
9	0xbc19535f	-0.009358256
10	0x3da20e31	0.07912863
11	0xbe3708c6	-0.1787444
12	0x3e30b53a	0.17256632
13	0xbe54b3f6	-0.20771775
14	0x3d2b2030	0.041778743
15	0xbda99b56	-0.08281581
16	0xbe1d0d99	-0.15337218
17	0x3c518e43	0.0127902655
18	0x3e8b2ca6	0.27182502
19	0x3e65ecb9	0.22453584
20	0xbe8a9486	-0.2706644
21	0xbe50407a	-0.20337096
22	0x3df6f8b2	0.120591536
23	0xbd65f3a4	-0.056140557
24	0x3d865a57	0.065602
25	0x3dc7e3c8	0.09760243
26	0xbe079df5	-0.1324385
27	0x3e5d5df7	0.21617876
28	0xbe890e9e	-0.26768965
29	0xbdee352e	-0.11631237
30	0xbe42b252	-0.19013336
31	0x3dc5bbb7	0.096549444
32	0xb840e000	-4.5984983e-05
33	0x3de663ae	0.11249481
34	0xbde70734	-0.11280671
35	0x3d0ce2d2	0.034396
36	0xbd3ffe86	-0.04687359
37	0xbe907ad3	-0.28218707
38	0xbd93a83b	-0.07209822
39	0xbe8344cd	-0.25638428
40	0x3e7f3924	0.24924141
41	0xbda89846	-0.08232169
42	0x3dbed630	0.09318197
43	0x3ec034d8	0.37540317
44	0xbddbfed6	-0.107419655
45	0xbe547bd3	-0.2075036
46	0x3c201e94	0.009772915
47	0x3d856d5a	0.06514998
48	0xbe24783e	-0.16061494
49	0xbe68be30	-0.22728801
50	0xbe9385cb	-0.28813013
51	0xbd5f6b50	-0.0545457
52	0x3cc22c0b	0.023702642
53	0xbe53b80a	-0.20675674
54	0xbe453577	-0.19258676
55	0xbc258470	-0.010102376
56	0x3eb1a1c2	0.34693724
57	0x3e69469f	0.22780846
58	0xbd53671f	-0.051612016
59	0x3e3258e8	0.17416728
60	0xbd92387f	-0.07139682
61	0xbbba12c0	-0.0056785047
62	0x3e8cbe1e	0.27488798
63	0xbe24df78	-0.16100872
64	0x3ddeef60	0.10885501
65	0x3e3a8d48	0.18217957
66	0x3e661880	0.22470284
67	0xbe346873	-0.17617969
68	0xbe8044d6	-0.25052518
69	0x3e72ee23	0.23723654
70	0xbe7c3914	-0.24631149
71	0x3db9d3b0	0.09073579
72	0x3d1c682b	0.03818528
73	0x3e4354ce	0.19075319
74	0x3e110eda	0.14165822
75	0xbd86a754	-0.06574884
76	0x3d724b5b	0.059153896
77	0x3e2eea27	0.1708151
78	0x3d122471	0.035679284
79	0x3de7b67c	0.11314103
80	0x3e91185b	0.28338894
81	0x3e0f6e9c	0.14007038
82	0x3e205eb0	0.1566112
83	0xbdff2da6	-0.124598786
84	0x3de414bc	0.11136767
85	0xbe45f5b6	-0.19332013
86	0xbe3a0912	-0.18167523
87	0x3a4e9c00	0.0007881522
88	0xbe108ce8	-0.14116251
89	0x3e970388	0.29494882
90	0x3e134b42	0.14384177
91	0xbb801152	-0.0039083147
92	0xbdf558f2	-0.119798556
93	0xbe7a4de8	-0.24443781
94	0x3e8c35f9	0.27384928
95	0x3c0fc940	0.008776009
96	0xbe745ba6	-0.23863086
97	0xbe54cde8	-0.20781672
98	0xbe52925a	-0.20563641
99	0x3d4790e8	0.048722178
100	0xbe2a4ed9	-0.1663164
101	0x3e028be3	0.12748675
102	0x3e3ab75e	0.18234012
103	0xbd3b4e60	-0.04572904
104	0xbd882162	-0.06646992
105	0x3e86ea4b	0.26350626
106	0xbbf2f0b2	-0.007413947
107	0xbe03e2c7	-0.12879477
108	0x3cb59e8f	0.022170333
109	0x3e0a9170	0.13532043
110	0x3dc1043c	0.09424636
111	0xbdc35de2	-0.09539391
112	0xbe04ceba	-0.12969485
113	0x3e823881	0.25433734
114	0x3c396720	0.011316091
115	0x3e7d106a	0.24713293
116	0x3ddcfd17	0.107904606
117	0x3c6a6980	0.01430738
118	0xbe6b77f3	-0.22994976
119	0x3ce674cb	0.028131863
120	0x3e6755b0	0.22591281
121	0x3e6701b0	0.22559237
122	0xbe918441	-0.28421214
123	0xbe7a2247	-0.24427138
124	0x3d6636c8	0.056204587
125	0x3dc9790c	0.09837541
126	0xbe7c53a4	-0.24641281
127	0x3d9ba062	0.0759895
128	0x3a9a6200	0.0011778474
129	0x3d9ba7fc	0.076004
130	0x3ec0ff1d	0.37694636
131	0xbda5fe2c	-0.0810512
132	0xbda5d1ae	-0.08096634
133	0x3d85fbe9	0.06542189
134	0xbcd0f970	-0.025509566
135	0x3bf04dc6	0.00733349
136	0xbdf78bf8	-0.12087244
137	0x3dbc6c9c	0.09200403
138	0x3e2c9fdb	0.16857855
139	0xbd8dda28	-0.06926376
140	0x3e6ceded	0.23137636
141	0x3e21dc6d	0.15806742
142	0x3e2d00c1	0.16894819
143	0x3e0f77a6	0.14010486
144	0xbe89d758	-0.26922107
145	0xbdf94346	-0.121710345
146	0x3d70a038	0.058746547
147	0x3dee5500	0.11637306
148	0xbe58e4bc	-0.21181005
149	0xbd908770	-0.07057083
150	0x3da1491a	0.07875271
151	0xbe8b35f6	-0.27189606
152	0x3ecd0bf2	0.40048176
153	0x3c20bce4	0.00981066
154	0x3e981c2f	0.29709002
155	0x3e657b26	0.22410259
156	0x3e749af4	0.23887235
157	0x3e2b3808	0.16720593
158	0x3e8b80ea	0.2724679
159	0xbe4cc17e	-0.19995686
160	0xbe5ae922	-0.21377996
161	0x3e54afa9	0.20770134
162	0x3ea04b91	0.31307653
163	0xbe3aec04	-0.18254095
164	0x3d9e3ddd	0.07726643
165	0xbe05757f	-0.13033102
166	0x3d64557f	0.055745598
167	0xbe8d7af4	-0.27632868
168	0xbe3857ce	-0.18002245
169	0x3c0f8820	0.008760482
170	0x3e654ccb	0.22392575
171	0x3d927172	0.07150544
172	0x3da9b66d	0.08286748
173	0x3dbd3429	0.092384644
174	0x3def637b	0.11688896
175	0xbdada9c6	-0.08479647
176	0x3d66814a	0.056275643
177	0x3e146499	0.144915
178	0xbe407164	-0.18793255
179	0x3c7a8f00	0.015292883
180	0xbe007c23	-0.12547354
181	0x3e867688	0.26262307
182	0x3e8b5029	0.27209595
183	0x3e92fdba	0.28709203
184	0xbdd4a804	-0.10383609
185	0xbd52c768	-0.0514597
186	0xbe18d0a0	-0.14923334
187	0x3ce94230	0.028473943
188	0xbe6f5203	-0.23371129
189	0xbe8d1dcf	-0.27561805
190	0xbd857d5c	-0.06518051
191	0xbe514570	-0.20436645
192	0x3d963194	0.07333675
193	0x3e4c540a	0.19953933
194	0xbdd9cd17	-0.10634821
195	0x3de38c02	0.11110689
196	0x3e48d132	0.19611052
197	0xbdd42641	-0.10358859
198	0x3e272ddf	0.16326092
199	0xbd54f627	-0.05199256
200	0x3df0d908	0.117601454
201	0x3d0fd37d	0.0351138
202	0xbd95b0b0	-0.07309091
203	0xbc9647d0	-0.01834479
204	0xbe0990d4	-0.13434154
205	0xbd922247	-0.07135444
206	0xbe400f4d	-0.18755837
207	0xbe58688f	-0.21133636
208	0x3c2f291b	0.010690953
209	0x3ded7aa7	0.1159566
210	0xbe1ed999	-0.15512694
211	0x3e4c7025	0.19964655
212	0xbdad306c	-0.08456501
213	0xbe4402ac	-0.19141644
214	0x3d473f8d	0.04864459
215	0xbe2b8b44	-0.16752344
216	0x3e5d9b9d	0.21641393
217	0x3e3265f4	0.17421705
218	0x3d9d79e0	0.076892614
219	0xbe6f14c4	-0.23347765
220	0x3e52ad92	0.20574024
221	0x3d567e58	0.052366585
222	0x3e87fbe8	0.26559377
223	0xbe2ef92e	-0.17087242
224	0xbe87cd36	-0.2652375
225	0xbe0d0397	-0.137709
226	0x3e340c9a	0.17582932
227	0xbe936148	-0.28785157
228	0xbe4705ec	-0.19435853
229	0x3d94a6d4	0.072583824
230	0x3e8f1ee3	0.27953252
231	0xbde7c8b0	-0.11317575
232	0x3e15fd8e	0.14647505
233	0x3e4669c3	0.19376282
234	0x3d1e3b8c	0.038631007
235	0x3dc7384d	0.097275354
236	0x3e712590	0.23549485
237	0x3e6261e4	0.22107655
238	0xbe4a9e3b	-0.19786923
239	0x3e9e7f8e	0.30956692
240	0x3e23a5ef	0.15981267
241	0x3cc7525e	0.024331268
242	0x3d2fb590	0.04289776
243	0xbdaa138d	-0.0830451
244	0xbe3bc7e3	-0.1833797
245	0x3e86fc39	0.26364306
246	0x3db1dac8	0.08684307
247	0xbe553a32	-0.20822981
248	0x3df46785	0.11933807
249	0xbe87f6f5	-0.265556
250	0xbe228f13	-0.15874891
251	0x3e15fe40	0.1464777
252	0xbd9a35a2	-0.07529761
253	0xbe5ec467	-0.21754609
254	0x3edbd03c	0.42932308
255	0x3e4b7444	0.1986857

linear2.weight f4 [2, 256]
0	0xbdcabb57	-0.098990135
1	0xbdc6ce35	-0.097072996
2	0xbd8d1f5a	-0.068907455
3	0xbd349b22	-0.04409326
4	0xbd9d2b68	-0.07674295
5	0xbd8cbaa2	-0.06871535
6	0xbd1bab8a	-0.03800539
7	0x3cf486ca	0.029849429
8	0xbdf2ba16	-0.11851899
9	0xbdbc21ab	-0.09186109
10	0xbd52de52	-0.051481552
11	0xbd4ce740	-0.050025225
12	0x3d032d96	0.032025896
13	0xbd46f7be	-0.04857611
14	0xbd37cc12	-0.04487235
15	0xbce09874	-0.027416445
16	0xbc208600	-0.009797573
17	0x3bc92479	0.006138381
18	0xbcf19ecd	-0.029494667
19	0xbd9ef22d	-0.07761035
20	0x3cfb3928	0.030666903
21	0xbc9a2fc2	-0.0188216
22	0x3ab7db12	0.001402708
23	0x3d39c574	0.04535432
24	0xbda55ec3	-0.08074715
25	0xbd07dd92	-0.03317029
26	0xbd06db16	-0.03292378
27	0x3bd52c4f	0.006505526
28	0xbd65a1da	-0.056062557
29	0x3bbfb360	0.0058502406
30	0x3a8aa3c0	0.0010577366
31	0xbd9b1efb	-0.075742684
32	0xbd23eb7e	-0.040019505
33	0xbd959bf9	-0.0730514
34	0xbc12d900	-0.00896287
35	0x3cf3f72f	0.029780952
36	0x3bd316d2	0.0064419294
37	0xbd2934c3	-0.041310083
38	0xbd8e50a9	-0.069489785
39	0x3d14c1b9	0.03631756
40	0xbc0c7814	-0.008573551
41	0xbc1e3b68	-0.009657718
42	0x3d0cce66	0.034376524
43	0xbd1cc518	-0.0382739
44	0x3d50f7d8	0.051017612
45	0xbd1d65b4	-0.03842707
46	0xbdaecb8f	-0.085349195
47	0xbd2f72fb	-0.042834263
48	0xbd4004be	-0.046879523
49	0x3cecce74	0.028907038
50	0xbd5d8478	-0.05408141
51	0xbd31f2fe	-0.043444626
52	0xbb856d89	-0.0040718955
53	0x3d315922	0.043297894
54	0xbd76be50	-0.06024009
55	0xbde4a87f	-0.111649506
56	0xbdae1957	-0.08500927
57	0xbc51a891	-0.012796537
58	0xbda43498	-0.08017844
59	0xbdbfaf94	-0.09359661
60	0xbc3a9039	-0.011386924
61	0xbc14ad18	-0.009074472
62	0x3c0f674d	0.008752656
63	0x3cd5173c	0.026012056
64	0x3c167740	0.009183705
65	0xbc9b5dc3	-0.018965608
66	0xbd5ff298	-0.054674715
67	0x3c063ac0	0.008192718
68	0xba36c400	-0.00069719553
69	0xbd335df0	-0.043790758
70	0x3bf00c20	0.007325664
71	0xbd0102e6	-0.031496905
72	0xbc8a581a	-0.016887713
73	0xbce4ea2c	-0.027943693
74	0xbd260709	-0.040534053
75	0x3a48ad00	0.00076551735
76	0xbb54a3f8	-0.0032446366
77	0xbda74fae	-0.081694946
78	0x3d031b58	0.0320085
79	0x3cc6a2c8	0.024247542
80	0xbd8e60dd	-0.06952069
81	0x3c96319c	0.018334202
82	0x3d47b010	0.04875189
83	0x3c8dff18	0.017333552
84	0x3d4c7038	0.049911708
85	0xbc8e26b0	-0.017352432
86	0xb8eedc00	-0.000113897026
87	0xbc9f26b8	-0.019427642
88	0xbd90625e	-0.07050012
89	0xbd34c8e6	-0.044136904
90	0xbd01b5ea	-0.031667627
91	0xbd8ee3ca	-0.06977041
92	0xbc1adec7	-0.009452528
93	0x3d72dfaa	0.059295334
94	0xbd8686ef	-0.06568705
95	0xbc11c600	-0.008897305
96	0x3d2e2c46	0.04252269
97	0x3ba4ee60	0.0050332993
98	0xbd3035fd	-0.043020237
99	0xbcc865b4	-0.024462558
100	0xbd40f4f6	-0.047108613
101	0x3ce60749	0.028079646
102	0xbdcb0e61	-0.09914852
103	0xbd6201d6	-0.055177532
104	0xbc80a554	-0.015703835
105	0x3ab30292	0.0013657382
106	0x3d1671c2	0.03672958
107	0xbc6c7788	-0.014432795
108	0xbeb2d552	-0.34928375
109	0x3b8cd290	0.004297562
110	0x3d6aa368	0.057284743
111	0xbd882609	-0.0664788
112	0xbd6caf72	-0.057784505
113	0xbda4fc02	-0.08055879
114	0x3d5d8e8c	0.05409102
115	0xbd9bcb38	-0.0760712
116	0xbd62e723	-0.05539621
117	0x3a1b5f80	0.00059270114
118	0xbbda29c0	-0.006657809
119	0x3cc0d055	0.02353684
120	0x3c8886ae	0.016665783
121	0xbd77fd26	-0.060544156
122	0x3ca1f55a	0.019770313
123	0x3d7fb38e	0.062427096
124	0xbc42a0a8	-0.011879124
125	0xbc262f12	-0.010143058
126	0xbcd47ddc	-0.02593892
127	0xbdca1834	-0.09867898
128	0x3d049552	0.032368965
129	0xbdcb58b0	-0.09929025
130	0xbd955b91	-0.072928555
131	0x3c8fbc28	0.017545775
132	0xbd1e0617	-0.038580026
133	0x3a6940bc	0.0008897891
134	0xbd60f058	-0.05491671
135	0xba945203	-0.0011315945
136	0xbd9e41b2	-0.07727374
137	0x3d4aa7e0	0.049476504
138	0xbd140183	-0.036134254
139	0x3b5d2cc0	0.0033748597
140	0x3b0f36d4	0.0021852748
141	0xbdc73588	-0.09727007
142	0x3bf7fbd3	0.0075678616
143	0xbd0f4bff	-0.034984585
144	0xbd185414	-0.03718956
145	0xbba5ba37	-0.005057599
146	0x3a59e300	0.00083117187
147	0xbb832d20	-0.004003182
148	0xbce9f12a	-0.028557379
149	0xbbe194b0	-0.00688418
150	0xbd73a2fd	-0.05948161
151	0xbd41b4a0	-0.047291398
152	0xbdbcd133	-0.09219589
153	0xbd4df035	-0.050277907
154	0xbd040cab	-0.032238644
155	0xbdc3e7bf	-0.095656864
156	0xbd4ec3fc	-0.050479874
157	0xbd55f8be	-0.052239172
158	0x3d794774	0.06085916
159	0xbd2d19b2	-0.042260833
160	0xbdbf1bd1	-0.093314774
161	0xbca07c2c	-0.01959046
162	0xbd94e580	-0.07270336
163	0xbb8a0240	-0.004211694
164	0x3c17bf1a	0.009261871
165	0xbb9076ea	-0.004408707
166	0x3cd6365a	0.026148964
167	0x3d6aff1c	0.057372198
168	0x3d4ca8c8	0.04996565
169	0xbbc62e40	-0.006047994
170	0xbd58dcc1	-0.052944902
171	0x3bb7a49d	0.00560434
172	0xbe19e83a	-0.15029994
173	0x3d0fd8b0	0.03511876
174	0x3d23c038	0.039978236
175	0xbbd20f10	-0.006410487
176	0xbcdbc70f	-0.026828317
177	0x3d0c3c3f	0.034237143
178	0x3d228b01	0.039683346
179	0x3ca230d0	0.019798666
180	0xbdda8e46	-0.10671668
181	0xbc5891d0	-0.013218358
182	0xbccd32fd	-0.025048727
183	0x3d75ab72	0.059977956
184	0x3c58ef88	0.013240702
185	0xbd484b3a	-0.048899867
186	0xbdc32fb5	-0.09530584
187	0xbd572959	-0.052529667
188	0x3c0f8c76	0.008761516
189	0xbc9db833	-0.019252872
190	0x3c228010	0.009918228
191	0xbcfed628	-0.031107977
192	0x3cdb9ea4	0.026809044
193	0xbda01991	-0.078173764
194	0xbb444e83	-0.0029954023
195	0x3ca7a45a	0.020464111
196	0xbdbcb0a6	-0.092133805
197	0xbd50ba64	-0.050959006
198	0x3a9b7c7d	0.0011862662
199	0xbd99b41e	-0.07505058
200	0xbb6b98ff	-0.0035949347
201	0xbc254c24	-0.010088954
202	0x3d01a27a	0.03164909
203	0xbd76a832	-0.060218997
204	0x3b6fa966	0.0036569475
205	0xbcb53b72	-0.022123072
206	0xbd12ea32	-0.035867877
207	0xbd14cc7a	-0.036327817
208	0xbd82aa30	-0.06380117
209	0xbd3e3d8c	-0.046445414
210	0xbd762f43	-0.060103666
211	0x3d02407a	0.03179977
212	0x3cc252d8	0.023721144
213	0x3a8f2540	0.0010921136
214	0x3c16e5c0	0.00921005
215	0x3bae8060	0.005325362
216	0xbd38fc87	-0.045162704
217	0x3bff07af	0.0077828984
218	0xbd4337ae	-0.047660522
219	0x3bdfdf90	0.0068320706
220	0xbc87d490	-0.01658085
221	0xbcb19469	-0.021677213
222	0xbcdcef1d	-0.026969487
223	0x3d7ff186	0.062486194
224	0x3cd51794	0.02601222
225	0x3d2286de	0.0396794
226	0x3cdd8dd6	0.027045172
227	0x3d79c25e	0.06097638
228	0x3c7f2be0	0.015574425
229	0x3d346e0c	0.04405026
230	0xbe03599f	-0.12827156
231	0x3a2cea80	0.00065962225
232	0x3d731de4	0.059354678
233	0xbd5b2b76	-0.053508244
234	0x3c42a5bb	0.011880334
235	0xbc606698	-0.013696335
236	0xbceef4d8	-0.029169485
237	0xbb8198d0	-0.0039549842
238	0x3d1b7d08	0.037961036
239	0xbd20a356	-0.03921827
240	0x3cd8f044	0.026481755
241	0x3cef942f	0.029245464
242	0xbd26ac10	-0.040691435
243	0xbd7b0160	-0.06128061
244	0xbcf231d8	-0.029564783
245	0x3b69c804	0.0035672197
246	0x3bbf9780	0.0058469176
247	0xbcf40d4c	-0.029791497
248	0xbcf1594c	-0.029461525
249	0xbc8beb98	-0.017080113
250	0xbbc87e40	-0.006118566
251	0x3aed24c0	0.0018092617
252	0x3abf4964	0.0014594016
253	0xbd309f8f	-0.043120917
254	0xbe009759	-0.12557735
255	0xbcc549f0	-0.024083108

linear2.bias f4 [2]
0	0xbd8b7849	-0.06810052
1	0xbdfe492a	-0.12416299
