Formula1/model/model.pth (torch, 19764 bytes, 6 tensors)

linear1.weight f4 [256, 10]
00000000: 1654 123e b003 7abe bd81 973e f3c8 893e
00000010: 2d20 9bbe f896 22bd 3caa a8bd adc3 8dbe
00000020: 3a5d 8fbe 65e6 9c3e c451 3bbe 0098 f8b9
00000030: d05d af3d 8821 8fbe 9806 42bd 4458 a33e
00000040: d11d 26be e35e 58be 4ff3 5fbe 66b2 82be
00000050: 967b 51be c0f5 4bbd 9ab6 023e c0f0 bebc
00000060: 46e7 a9bd 10be 9b3e a0b7 433c 9eca 02be
00000070: a26d 633e 375a 84be 0abb 403e f885 4b3d
00000080: faf6 c2bd 485d 9dbe 76fe 89be ec6b f3bd
00000090: 0872 b63d 7091 acbc 8802 7dbe d03d 29be
000000a0: aa56 9ebe e008 513c c63c 9c3c 9ce3 bbbd
000000b0: 368f eebd 7837 a93c 4091 5d3c 8ded 023e
000000c0: 4d1a 9a3e 2013 1b3e 28a0 5abd f80a 1c3e
000000d0: e49d d13d b4fc 67be 9217 343e cbdd 02be
000000e0: 8411 30be 8115 19be 21a5 61be dec9 7b3e
000000f0: e065 65be c78c 79be a60b 96be 0a8f 563e
00000100: 2964 32be 30e6 56bd 920b 63be cc43 5abe
00000110: 85ed 06be 586a ef3d 56d7 5f3e 024d 90be
00000120: 8035 b4b7 006d 6cbd 9516 9fbe b1a8 373e
00000130: 0056 d4bb c055 88bd ffce 933e 900c 85bd
00000140: ec43 903d 94d0 6abe f67f 6fbe e0d4 7fbc
00000150: c648 d2bd 3171 883e a872 e5bd e71a 9cbe
00000160: b337 93be c515 6ebe a866 23be ced0 743e
00000170: 40d3 273e 1645 663e 603f 45bd 7039 64bd
00000180: 025e d3bd aa21 7fbe 90b9 c7bd 65a8 5dbe
00000190: 70f8 d23d b7d2 8cbe a01f 673c 728c 173e
000001a0: 9c3f 02be f062 b1bd dedd 463e 6069 6abc
000001b0: 00ed 42be aae1 023e dc5a 9ebe 48d5 ac3d
000001c0: 3637 653e ccb9 83bd 30a2 67bd 0cb0 b13e
000001d0: 1a46 92be 2b32 76be 3fcd 143e 76e5 353e
000001e0: 8a82 6e3e de7b 7e3e d22c 883e c460 823d
000001f0: f2a1 523e 271c bb3e 1bce 8e3e b288 5bbc
00000200: 771f 82bd ac29 a03d dccc 353e 5add 233e
00000210: 2c82 2e3e c049 87bc a041 2d3c 5a0e 3d3e
00000220: 1703 54be 4642 4abe 1816 26bd 436d 4fbe
00000230: 5896 6d3d 9249 523e 10b0 ff3c 5c0c c33d
00000240: 1de5 96be 630c 8bbe d393 9abe 6d85 34be
00000250: fe2c 63be c857 74bd bd71 813e 5179 5abe
00000260: 8878 51be 90a4 5dbd f0ec 80be f113 84be
00000270: ecd9 8b3d 2c52 45be b03d 9a3c 7c5c 933d
00000280: daa2 5cbe 6436 193e 8af1 eebd 6809 103e
00000290: 2edf 7fbe b807 0e3e 790b 973e 2850 53be
000002a0: 378d 11be c0bc 85be acce f73d d0cf c33d
000002b0: 4dfc 093e de85 d5bd c617 2f3e 284d 313d
000002c0: ef0d 853e 695f 8e3e 2cb1 35bd 0042 32be
000002d0: 965d 133e 8651 2abe f3f8 9cbe eafe 3a3e
000002e0: 5814 6e3d e0ed 78bc 250d a03e f842 c33d
000002f0: d18f 6dbe 8910 87be 8226 05be b681 6a3e
00000300: ae26 75be f900 873e 78b2 1abe 8387 2cbe
00000310: 34da 92be 3880 043e 9888 553d 7a90 c5bd
00000320: 50f8 ff3c 539c 11be f295 3c3e fec8 edbd
00000330: b5f7 9c3e 2a67 803c cf11 86be fdde 8e3e
00000340: 0184 ba3d 0e59 603e 4ad9 bebd 4b70 803e
00000350: 1ef6 013d 6cc2 91be 7a56 7d3e e614 923d
00000360: da83 7a3e 201d a23e b459 a03e c00d 2bbc
00000370: b019 96bc 5fef 00be d93c 6f3e dee3 e5bd
00000380: e66b 513e 18a3 46be 0068 f63c c177 fd3c
00000390: e84b 23be 73be 8e3e a048 343d c347 14be
000003a0: 3d7b 033e c250 3ebe d7fa 8a3e 221e 963e
000003b0: dffd 823e ba14 703e 5924 88be dedf 253e
000003c0: 69a9 823e 00e2 59ba 7099 403d 7c9b d03d
000003d0: 2a5b c6bd 401e 0bbc 48b1 1c3e 507d af3c
000003e0: c039 013e 664d 3d3e dcaf c03d 036f 933e
000003f0: 0835 6d3d 6976 40be d577 803e a0be 613c
0.14289889 -0.24415469 0.2959117 0.26911125 -0.30297986 -0.039694756 -0.08235595 -0.2768835
-0.28000814 0.30644527 -0.1829291 -0.00047415495 0.08562815 -0.2795527 -0.04736957 0.3190328
-0.16222312 -0.21129946 -0.21870159 -0.25526732 -0.204573 -0.049794912 0.1276497 -0.023308158
-0.08296065 0.30418444 0.011945635 -0.12772605 0.2220979 -0.25850078 0.1882135 0.04968831
-0.09519763 -0.3073523 -0.2695195 -0.11885819 0.089084685 -0.021065444 -0.24707997 -0.16527486
-0.30925494 0.012758464 0.019071948 -0.091742724 -0.11648409 0.020656332 0.0135234 0.12785931
0.3009819 0.15144014 -0.053375393 0.15238559 0.10235193 -0.22654992 0.17587116 -0.1277992
-0.17194182 -0.1494961 -0.22035648 0.24588725 -0.22402143 -0.24370109 -0.29305762 0.20953003
-0.1742102 -0.052465618 -0.22172382 -0.21314925 -0.13176544 0.11690205 0.21859488 -0.28183752
-2.1482585e-05 -0.057721138 -0.31071916 0.17935444 -0.0064799786 -0.066569805 0.28868863 -0.06496537
0.07044205 -0.22931129 -0.23388657 -0.015614718 -0.10267787 0.26648858 -0.112035096 -0.30489275
-0.28753433 -0.23250492 -0.15957129 0.23907778 0.16389179 0.22487292 -0.048156142 -0.05571884
-0.10320665 -0.24915186 -0.0975219 -0.21646269 0.10301292 -0.27504513 0.014106661 0.1479967
-0.12719578 -0.08661449 0.19420573 -0.01430735 -0.19035721 0.12781397 -0.30928695 0.08439118
0.22384343 -0.06431922 -0.05655116 0.34704626 -0.28569108 -0.24042575 0.1453142 0.17763314
0.23291984 0.24851939 0.26596695 0.06366113 0.2056959 0.36544916 0.2789162 -0.01339929
-0.06353658 0.07820448 0.17753929 0.16002408 0.17041844 -0.016514659 0.010574728 0.18462506
-0.20704304 -0.19751844 -0.040548414 -0.20256524 0.058004707 0.20535877 0.031211883 0.09523842
-0.29471675 -0.27157888 -0.30190906 -0.17629023 -0.22185132 -0.059654027 0.25282088 -0.21335341
-0.20456135 -0.054112017 -0.2518077 -0.25796464 0.06828675 -0.19269627 0.018828243 0.07195374
-0.21546498 0.14962155 -0.11667164 0.14066088 -0.2498748 0.13870132 0.2950094 -0.20636046
-0.14214025 -0.26120567 0.120999664 0.095611215 0.13475151 -0.10425924 0.17098913 0.043286473
0.25987193 0.27807167 -0.044358417 -0.1740799 0.14391169 -0.16632661 -0.30658683 0.18261304
0.05812487 -0.015193433 0.31260028 0.09534258 -0.23199393 -0.26379803 -0.13002971 0.22901043
-0.23940536 0.2636793 -0.15107143 -0.16848569 -0.286821 0.12939537 0.05213222 -0.09646697
0.031246334 -0.14219789 0.18416575 -0.11610602 0.30657735 0.015674192 -0.26185462 0.27904502
0.09107209 0.21908972 -0.09318788 0.25085673 0.031728856 -0.28468645 0.2474002 0.07132892
0.2446436 0.31662846 0.31318438 -0.01044029 -0.018322796 -0.12591313 0.23363055 -0.11225103
0.20451316 -0.19398153 0.030078888 0.030940892 -0.15946925 0.27879676 0.044014573 -0.144805
0.1283998 -0.18585494 0.271445 0.29319865 0.25584313 0.23445407 -0.2659023 0.1619868
0.25519875 -0.00083115697 0.04702133 0.10185906 -0.09685357 -0.008491099 0.15302002 0.021422058
0.12619686 0.18486556 0.094085425 0.28795633 0.057911903 -0.1879517 0.25091425 0.013778359

linear1.bias f4 [256]
00000000: ba6c 50be d31a 8c3e e8ad 913e 6ec5 323e
00000010: f1ea 7f3d 7ee2 543e f5a0 903e b9e6 2c3d
00000020: 9c9c 12be 7077 19be 8c2e a4bd d45f 2d3e
00000030: b965 32be 0237 8dbe 3650 743e 3cce dd3d
00000040: aa97 703e ac03 273d c6c4 7dbe 12b6 26be
00000050: f636 383e 2027 4abd f537 903d 29a7 33bd
00000060: 9746 8bbe 2e84 05be 6c3b 6abd b4fe 2b3e
00000070: 13ba 9d3d 8206 f5bd 37ad 92be 7aa7 433e
00000080: a50e d4bd 5da9 893e 728a 103e b0ca 05be
00000090: 1a3a 483e 40e8 033d ac18 84bd 9691 0b3e
000000a0: 9c56 a33e 6624 b0bd 926d 003e 7b2f aebd
000000b0: 2c79 febd 209f b83e 358c 563e a0ef 0ebe
000000c0: b568 713e e015 9e3e 9341 04be 6c5e e83d
000000d0: 8018 8c3e 1ddc 9b3e 7a42 41be 07fe 85be
000000e0: 6cfe 8dbe 9827 573d dce0 a13e 4c41 c4bd
000000f0: ae1a 78be 3999 05be 30a1 9cbd 8908 8a3e
00000100: c4cf 0f3e f3f4 fcbb bdca 9abe b06b 6dbe
00000110: d062 883e f49e dcbd 23e2 b73e 51c7 71be
00000120: ae37 753e c6fd c7bd 7971 703d d8df 4f3d
00000130: 1e5c 3cbe 4283 9fbd b85e 983e be86 893e
00000140: da38 21be 130d 833d 4645 143e fc45 0d3e
00000150: b3ea 09bc eea8 4abe 5caa 8ebd 1ef6 873e
00000160: fa19 6ebe db2f 57be 1248 74be f0ad 6b3e
00000170: b6a5 1abe da3c 4a3e 58bd 533e 06dd f5bd
00000180: 764d 623d b38a b33e 965b c6bb 7dc2 883e
00000190: 9e1c 0b3e b010 f73c 33be 183e 806a c63c
000001a0: 056a 62be e7af b73d 2324 353e e918 9c3e
000001b0: 24a4 2d3e c63f 2b3e ad71 91be 2e54 57be
000001c0: 1b77 163e 0aee fdbd e2ee 603e d015 55be
000001d0: 3522 02be c712 31be 0951 5a3e 0d2e 5bbe
000001e0: 520e 4d3e 6189 883e 20f2 5ebd 6a33 203e
000001f0: b5cb 1f3e 547c d43d 9e50 803e 335a 6fbe
00000200: 7fb7 323e e8e3 e2bd 73cb 973e 5113 8c3e
00000210: 973e 773e f45d 3abe eb3f 613e e5c6 8f3d
00000220: 0050 e6ba a25a 443e 8ea2 04be 2106 0ebd
00000230: b6d3 f63b dc6d 34be baac 4b3e b764 1dbd
00000240: 2ca4 063e 422a a6bd 44ef 80be c643 0bbe
00000250: 8e87 1b3e c01e 283e b421 873e 9dfd 2e3e
00000260: fd26 803e c95e 97bd fa03 233d 7d5d 063e
00000270: e2f9 98be 2079 61bd ab79 433e 5295 b4bd
00000280: 54f3 cdbd f330 4e3e 9c66 7fbd 9a11 8cbd
00000290: 3d65 0f3e 8245 45be e6aa 893e b778 a93e
000002a0: 12c6 8d3e 3b1b 9e3e 664f 83be dc1c dc3d
000002b0: 8b91 883e aa44 703e 13ab 87be b852 adbd
000002c0: 325f ac3e 486d c93d 8428 843d b910 1d3e
000002d0: be54 a63e 13a7 2b3e 0055 393e 80ff f03d
000002e0: c1ac 0bbe 7a2e 4d3e 3670 ddbd 5034 c2bc
000002f0: 0dcc 67be 86fc 54be 8ae9 a03e 5c3d 65be
00000300: 3017 5fbe c012 20be 59ec 7fbe f441 993e
00000310: 09b3 373e dea2 fbbd aa5f 303e 5b1d 50be
00000320: 7e5d 1a3e 4796 b2bd 1b2b 9dbe 1883 fdbd
00000330: e4eb af3e e6be ddbd 22b3 e9bd c06b 3ebc
00000340: 818e d03d 12fe 9e3e 2c7b 29be 9c3e 9ebe
00000350: ce10 96be 3498 b23c 2ee3 943e 98f2 a63d
00000360: f0e6 383e 639d 86be b470 e83d fbce 823e
00000370: 99ff 33be aef4 643e 0218 053e 7a12 64be
00000380: 624c 77be 5672 09be 6701 ae3e 541f ae3d
00000390: e585 8e3e f8a4 a9bc 5c18 99bd 268f 803e
000003a0: a07a 19bd c062 a4bc 2465 003e 8675 0bbd
000003b0: 9049 97be c89c 333e 2c84 ad3c 045d a1be
000003c0: 270f 9a3e 9867 823e 1c17 b2bd a0e1 133e
000003d0: 0ddb 5f3e db61 813b 3f9e 943c c05f 20be
000003e0: c0e9 d0bb 9f2c 563e 984b 213d 3455 6bbe
000003f0: 2158 88be c579 823e 129e 5e3e c18b 45be
-0.20353976 0.27364215 0.28452992 0.17458126 0.062479917 0.20789525 0.282478 0.04221222
-0.14317554 -0.14986968 -0.080166906 0.16931087 -0.17421617 -0.2758103 0.23858723 0.10830352
0.23495355 0.040774986 -0.24782094 -0.16280392 0.17989716 -0.04935372 0.07041923 -0.04386059
-0.27202293 -0.13038704 -0.057185575 0.1679638 0.077015065 -0.11964132 -0.28647777 0.19106856
-0.10354356 0.26887026 0.14115313 -0.130656 0.19553414 0.032203913 -0.06450018 0.13629755
0.31902015 -0.086006925 0.12541798 -0.0850515 -0.124254555 0.36058903 0.20951922 -0.13958597
0.23575099 0.30876064 -0.1291564 0.113461345 0.27362442 0.3044137 -0.18873015 -0.2617037
-0.2773317 0.052527994 0.31616867 -0.09582767 -0.24228927 -0.13046731 -0.076479316 0.26959637
0.140441 -0.00771963 -0.30232802 -0.23185611 0.26637888 -0.107725054 0.35914716 -0.2361119
0.23947021 -0.097652 0.058701966 0.050750583 -0.18394515 -0.07788707 0.29759765 0.26860613
-0.15744343 0.06398978 0.1447955 0.13796228 -0.008417773 -0.19791004 -0.06966087 0.2655496
-0.23252097 -0.21014349 -0.23855618 0.2301557 -0.15102276 0.19749776 0.20677698 -0.120050475
0.055249654 0.35066757 -0.0060533984 0.26710883 0.13585135 0.030159324 0.14916305 0.024220705
-0.22110756 0.089690976 0.17689566 0.30487755 0.16957146 0.16723546 -0.2840704 -0.21028206
0.14693873 -0.12398918 0.21966127 -0.20809102 -0.12708361 -0.17292319 0.21319975 -0.21404286
0.20024994 0.26667312 -0.054430127 0.15644613 0.15605052 0.10375276 0.25061506 -0.23374252
0.1745281 -0.11078626 0.29647407 0.27358487 0.2414497 -0.18199903 0.21997039 0.07020358
-0.0017571449 0.19175199 -0.12952635 -0.034673814 0.007532562 -0.17620033 0.19890109 -0.038426127
0.13148564 -0.08113529 -0.25182545 -0.13600072 0.15188429 0.1641798 0.263929 0.17088933
0.25029746 -0.07391126 0.039798714 0.131216 -0.29878145 -0.055047154 0.19089381 -0.08817543
-0.10056177 0.2013586 -0.062353715 -0.06839295 0.14003463 -0.19264796 0.26888198 0.3309991
0.27690178 0.3088015 -0.25646514 0.10747692 0.2667354 0.23463693 -0.26497707 -0.08463043
0.33666378 0.09835297 0.0645304 0.1533841 0.32486528 0.16762953 0.18098831 0.11767483
-0.13640119 0.2003726 -0.10812418 -0.023706585 -0.22636433 -0.20799455 0.31428176 -0.22386688
-0.21786189 -0.15632153 -0.24992503 0.2993313 0.1793939 -0.12286924 0.17223993 -0.20323698
0.15074727 -0.087200694 -0.3069695 -0.1237852 0.34359658 -0.108274266 -0.1141112 -0.011622369
0.101834305 0.31053215 -0.16550893 -0.30907142 -0.29309696 0.021801092 0.29079574 0.0815174
0.18056846 -0.26291952 0.113496214 0.2554854 -0.17577972 0.22358963 0.1299744 -0.22272673
-0.24150231 -0.13422522 0.33985445 0.08502069 0.27836528 -0.020708546 -0.07475349 0.25109214
-0.03747046 -0.020066619 0.12538582 -0.034047626 -0.2954831 0.17540276 0.021181189 -0.31516278
0.30089685 0.2546966 -0.08695814 0.14441538 0.21860905 0.003948433 0.018141864 -0.15661526
-0.0063755214 0.20915459 0.039378732 -0.22981721 -0.26629737 0.25483528 0.21739987 -0.19291593

linear_dir.weight f4 [3, 256]
00000000: 00f8 d238 6a9c 1dbd bd69 91bd b890 2fbc
00000010: f45a 72bc f239 7d3d 70a1 acbb 7fed a93b
00000020: 84b6 4abd 686a 6abc 8a9c 0dbd 3cb6 6cbd
00000030: cd3f 243c 201c 37bb 009d 3c3b b0e7 723d
00000040: e822 483d 237c 203d 3c8a 573d a2bb 2f3d
00000050: 3016 1f3c 1b51 2abd 65d2 333d 5d80 85bd
00000060: 00c0 703a d449 423d 1e19 8abd 4099 c03a
00000070: 7f6f 8abd 0058 9239 5e4c 043d c467 f4bc
00000080: c34c c73c f3b3 81bd 3c2a a53c e0e5 f93c
00000090: 2079 f63b 9814 183d b0d8 33bc 4279 acbd
000000a0: d317 17bd 8071 39bb 0c4c fa3c 6e82 a1bd
000000b0: 18e2 773c c6c5 88bd 42cd 11bd be39 353d
000000c0: 49da 73bd 811c acbd f8e4 80bd 80d9 2f3c
000000d0: de99 b63c a756 ecbb f830 cabc e01f 723b
000000e0: 589d 68bc b69f 2b3d c344 acbd 206e d63b
000000f0: 07d0 08bd 4cb7 fcbc 14d4 373a d0d9 3b3c
00000100: c40d b73c 400b a63c d3f6 fabc ecd9 8c3c
00000110: a40c 103d 0476 a0bc a5cb adbd b97c 983c
00000120: b0eb c6bb 9352 0a3d 2dcc 71bd 0026 b8b9
00000130: b859 38bc e203 fc3c 92df a73c 3355 9abd
00000140: a0ea 4ebc 3cf8 9fbc f2de 6d3d f219 66bc
00000150: 5717 57bd 801c 89bb 32fb 83bd 8fdb 9b3c
00000160: 54e1 afbc b07d 753d 670a f8bc d781 7fbd
00000170: 8852 643c 9699 7abd 4abd a5bd 94c6 173d
00000180: f9fc 85b9 7334 b0bb 09c9 303c 78c1 823c
00000190: dc8a 023d 0a4e 5e3d 6d29 3c3c 20e3 05bc
000001a0: b4dd 0c3d 1de0 bc3b 9862 993c cda5 0d3d
000001b0: 24b7 6cbd 0e97 3d3d a8b2 1cbc 9c4a ad3c
000001c0: 11b9 8abc dbbe a0bd 4d87 64bd 2a6b 77bd
000001d0: ab74 1a3d d492 263d f1d7 983c 2cb7 11bd
000001e0: 0156 6dbd 2238 673d aca4 9f3c 6533 aabd
000001f0: 527c d53c 882a e13c 974e 8c3c 24e6 edbc
00000200: 6c6f 153c 50bf 983b 3fc8 f3bb bd0d 15bc
00000210: 472c a5bd 9cb1 8e3c de5d abbb 8ed2 fabc
00000220: 2c6e 163d 46dc 2a3c 724e ed3c 55d2 b23c
00000230: e893 223d 3c24 83bd 3cb4 833c e876 233d
00000240: af5f a9bc 7f7e 8f3c 1bf7 e0bc 8d2e 10bd
00000250: c089 123b 1d0a ffbc bd82 aebc d340 a5bd
00000260: 2038 38bc 5dd7 13bd 6eee 84bd 2286 193c
00000270: 3cac 3c3d f824 673d 394c ec3c 936a e0bc
00000280: f0ee af3b c3a5 84bb 59c5 89bd 8057 be3a
00000290: 2eab a83c 37bc 083d 8a54 953c ad75 a3bd
000002a0: 3384 fe3b b6af 52bd 2234 4e3d d64f 3f3d
000002b0: dc3f 613d 62be 77bd 86b9 603d 8215 e9bc
000002c0: 170f 74bd d4d7 c3bc 3426 0ebd e520 853a
000002d0: 5cf2 9dbd 2200 77bd 352d aa3c 6a64 d23c
000002e0: cc20 863c a0c7 7bbd 6486 1dbd c097 2dbb
000002f0: 8299 643d 803a 8fbb 94ac 98bd 50ae 51bc
00000300: ecdf 2ebd 806b 633d 916e 273d 6eb9 053d
00000310: feba 67bd 8667 8ebd ec6d 6bbd b034 02bc
00000320: 78f1 8c3c 33b4 ccbc 24ea 8fbc 84ff 06bd
00000330: 0de1 4ebd 8cd2 ecbc 143b 50bd 6499 2cbd
00000340: a4b5 403c 7b1c 67bd 3487 39bd bd2e f0bc
00000350: 2c61 9a3c de5b d83c 9965 71bd 38a1 5c3c
00000360: 9cb0 a83c f0b3 acbc a682 7abd 1183 63bc
00000370: c5cd 8dbd 8a84 18bd 786d be3c 7861 24bc
00000380: 80cf e6ba 9240 2fbd cc3f 0cbd b56d 21bc
00000390: a7bb e3bc 9ba0 efbc 20fc 3f3d ed00 803c
000003a0: fef8 053c c6d4 3f3d 67a1 64bd d595 1a3d
000003b0: 5ee2 36bd 3e61 5e3d b0c3 86bd 2a44 f73a
000003c0: 215d 4bbd b02c 21bd e665 213d 0feb 37bd
000003d0: ce9a 80bd c2bb 1cbd 74cd 49bc 1a03 7a3d
000003e0: a8e1 173c d6f9 8ebd 4823 fc3c 917f b0bc
000003f0: 3082 a3bb 656a bcbc 5c03 113d 79a0 16bc
0.00010059774 -0.038479246 -0.07100246 -0.010715656 -0.014792193 0.06182284 -0.0052682683 0.0051857824
-0.049490467 -0.014307596 -0.034573115 -0.05779098 0.010024977 -0.0027940348 0.0028780103 0.059302986
0.048861414 0.039180886 0.052622065 0.04290355 0.00970988 -0.041581254 0.04390182 -0.06518624
0.00091838837 0.04743369 -0.06743072 0.001469411 -0.067595474 0.00027912855 0.032299392 -0.029834636
0.024328595 -0.06333151 0.02016174 0.03050512 0.0075217634 0.037129015 -0.010976955 -0.084215656
-0.036887955 -0.002829641 0.03055384 -0.078862056 0.015129589 -0.06678347 -0.03559614 0.04424452
-0.059534345 -0.08403874 -0.06293672 0.010733008 0.022290166 -0.007212478 -0.024681553 0.0036945269
-0.01419767 0.04190036 -0.08411553 0.0065438896 -0.033401515 -0.030849122 0.0007012498 0.011465505
0.022345431 0.020269036 -0.030635273 0.017193757 0.035168305 -0.019587524 -0.08486108 0.01861416
-0.0060705766 0.033770155 -0.059032608 -0.00035123527 -0.011251859 0.03076357 0.020492349 -0.07535782
-0.012629181 -0.019527547 0.058073945 -0.014044272 -0.052512493 -0.0041843057 -0.06444396 0.019025592
-0.02146975 0.059934318 -0.030278398 -0.062379684 0.013935693 -0.061181627 -0.08092745 0.037054613
-0.00025556216 -0.005377346 0.010790118 0.015961394 0.031870708 0.054273643 0.011484486 -0.008171827
0.03439112 0.005764021 0.018723771 0.034581948 -0.057791844 0.046286635 -0.009564079 0.02115374
-0.01693395 -0.07848903 -0.055793095 -0.060404934 0.03770892 0.04066737 0.018657656 -0.035575077
-0.057943348 0.056450017 0.019487701 -0.08310584 0.026060257 0.0274861 0.017127318 -0.029040404
0.009120803 0.004661478 -0.0074396427 -0.009097514 -0.08065086 0.017418675 -0.0052296957 -0.030617978
0.03672616 0.010428494 0.02896807 0.02182881 0.039691836 -0.064033955 0.016077153 0.03990832
-0.020675508 0.017516373 -0.02746158 -0.035200644 0.0022359937 -0.031132752 -0.021302575 -0.08069005
-0.01124385 -0.03609406 -0.06490789 0.009370359 0.046062693 0.05643174 0.02884494 -0.027394569
0.0053690597 -0.0040480806 -0.06727094 0.0014521927 0.020589437 0.03338262 0.018228788 -0.07981429
0.007767224 -0.051437102 0.050342686 0.046706997 0.05499254 -0.060484298 0.05486443 -0.028452639
-0.059584703 -0.023906626 -0.034704402 0.0010156898 -0.07712242 -0.06030286 0.02077351 0.025682647
0.01637306 -0.061469674 -0.038458243 -0.0026488155 0.05581046 -0.0043709874 -0.07454792 -0.012797907
-0.042694017 0.055522442 0.04087693 0.032647543 -0.056574814 -0.06953339 -0.057477877 -0.007947132
0.017204985 -0.02498827 -0.017567702 -0.032958522 -0.050507594 -0.02890899 -0.05083759 -0.042138472
0.0117620565 -0.056423645 -0.045294955 -0.029319162 0.018845163 0.026410993 -0.05893478 0.013466172
0.020592026 -0.021081895 -0.061159752 -0.013886229 -0.06924013 -0.037235774 0.023245558 -0.010033004
-0.0017609447 -0.04278619 -0.03424053 -0.009852816 -0.02779944 -0.029251387 0.046871305 0.015625441
0.00817704 0.046833776 -0.055817988 0.037740547 -0.044649474 0.054291956 -0.06580293 0.0018864919
-0.04964936 -0.039349258 0.03940382 -0.044901904 -0.06279527 -0.038264997 -0.01231705 0.061038114
0.009270109 -0.06981246 0.030778542 -0.021545203 -0.004989885 -0.022999952 0.035403594 -0.009193533

linear_dir.bias f4 [3]
00000000: c85b 9bbd be9d 1a3d c0e6 463c
-0.07585865 0.03774809 0.012139976

linear_acc.weight f4 [3, 256]
00000000: e427 89bc eb20 eabc 0a9a 99bd f0e9 a73c
00000010: 1501 443c c060 cdbc e892 24bd 8e37 d83c
00000020: 225e 403d 3063 16bc 14d6 383d 7caf 65bd
00000030: 14e4 9ebd ccbf 4f3d 80c6 953a bc4b c0bc
00000040: 847a ba3c 2185 8cbc 4047 c8bc ba81 633d
00000050: 260f f33c 00b4 f0bc 29c4 d3b7 995b 003d
00000060: acbb f43c 12e4 11bd f4d0 fbbb d2b2 6f3d
00000070: a5bb bebd a2db 73bd a090 6f3b 6003 723b
00000080: 1f80 8abd d514 72bd cfb2 14bc 98eb 603c
00000090: ac65 7cbd 44c0 f2bc 8029 043d 1273 68bc
000000a0: 5d09 f43c 0661 5b3d e4e7 d6bc ebd4 e7bc
000000b0: ee86 32bd e09a 35bd c642 22bd 587e e5bc
000000c0: 664c 40bb 3e50 eabc 96a9 ed3c f8e4 9d3c
000000d0: 2c68 25bd 4fba 10bd 2c6a 37bd 1e3e 7f3d
000000e0: 785e 67bd 6c95 983c 3cdf c0bd c0d3 333d
000000f0: cbc7 8fbd f3aa cc3c 8d86 003d d49a 2cbd
00000100: 1f01 89bc 5f8e aebd 53bf 1abd 90ac e03c
00000110: ec20 153d f42f 4fbd 63a7 cabd fb70 8fbd
00000120: f8b4 a03c 2770 16bc 9cc2 70bd 28f3 6bbc
00000130: 5e26 10bd f7a1 b33c 63dc a6bc 6193 b0bc
00000140: 5cac a43c 2e21 a3bb feae 253d cc7b 5b3c
00000150: 08c0 59bb 3055 43bd e6d4 433c 6f9e 393c
00000160: 8427 f7bc d84d 413d 761c 8cbd 703b 09bd
00000170: 80aa 6e3c 57c1 6e3c 7fa8 813b 90cf 043c
00000180: cfa1 853c 98e9 a9bd 85cd 9a3c 009d a0b9
00000190: fefe 213d 80f7 e93a 0edd d4bc 36d1 2d3d
000001a0: 9095 8a3c fe35 b0bc 3ffd 103d 8c17 19bd
000001b0: deb0 6bbd 4071 1cbd 648d b93c ecda f3bc
000001c0: 4497 ecbc 0dcd 9c3c acd8 08bd aa4d 54bd
000001d0: 059a c73b ec2e 773d 2182 bdbb a85a 69bd
000001e0: 09df cbbb 1233 343d 8069 e63b d0e1 d3bc
000001f0: 608e a9bd d0d9 64bc fffc 043d 606f 36bc
00000200: 302b 97bd 30b0 1abc 619e 0fbd 9c07 40bd
00000210: 7ff0 023d 5a68 36bd 9d1c e8bc b612 fa3c
00000220: 985c bbbc 3740 843c 9406 2bbc d326 8fbd
00000230: 0d4b f6ba fda7 45bc 90bf 963c dd68 7f3c
00000240: 3a96 75bd 164f 9f3c 3e12 b83c 6ee2 81bd
00000250: e056 6dbd bf29 a6bd e37a 21bd 9b87 15bd
00000260: fc2e 753d 93f8 40bd 8d04 89bd fb1b 9ebd
00000270: d2ba 66bd 9813 1c3d 4673 9cba 3ecb 5cbd
00000280: 3a24 0d3d 55cb 1b3c 4508 e5bc 2e80 3ebd
00000290: 2fdb 21bd 0406 85ba 83fd 073d 78c4 19bc
000002a0: 50b7 2cbd 866e 27bc 00d7 a23b 006d 1fbd
000002b0: 7431 32bd f695 61bd 882f d3bc 647c 2bbc
000002c0: c949 24bd a084 8a3c 5034 833b a6be 913a
000002d0: 7276 e7bc f562 99bd 5fc4 87bd 6a09 62bc
000002e0: 9678 14bd a44a ebbc 8034 1fbb c098 fc3c
000002f0: d8bf 5dbd 52a6 62bd 7756 a7bd 906f 9cbc
00000300: 3a39 603d 9e6e 61bd 8a0a 103d bc42 aebd
00000310: 4801 3fbd 48db 14bd 7faa a1bd 4390 a9ba
00000320: ffdb 993c 9c2f 343c d027 71bd fee9 63bd
00000330: 3baf 5abd a04b 2cbb 18e8 2abc 8068 313b
00000340: 18f1 3fbc b8d4 d03c 662a 6b3d f20f 2dbd
00000350: 805b ea3a 3754 d3bc f135 99bd 1c3a bf3c
00000360: fa39 46bd 6c8e 223d 8075 583b 1fa1 a03c
00000370: cf82 28bd c18c 8f3c e4c0 efbc 2a9e 78bd
00000380: f4a1 f93c 68cb 653d ea54 5cba dede 94bd
00000390: f646 a5ba 7bee a8bd 04c2 1d3d 3e1d d8b8
000003a0: 5adf 8b3c 1669 30bd c5c4 9d3c fdc5 6fbc
000003b0: d64f 623d a09f d9bc 0642 9d3c f5d5 77bc
000003c0: 52e5 94bd b834 afbd 4e6a 143d 275c 0cbd
000003d0: 51c5 eebb 6454 6bba c1c2 45bd b049 26bd
000003e0: a81c 343d 1485 54bd 10c6 11bc 6d5b a0bd
000003f0: 7642 76bd 9f94 bd3c 3888 18bc d372 d7bc
-0.016742654 -0.02858015 -0.07500084 0.020497292 0.011963149 -0.025070548 -0.040179163 0.026393678
0.046964772 -0.009178922 0.045126036 -0.056075558 -0.07758346 0.05072002 0.0011426955 -0.023473613
0.022763498 -0.017153325 -0.024448037 0.05554364 0.02967031 -0.029382706 -2.5244504e-05 0.031337354
0.029874645 -0.035617895 -0.0076848213 0.058520146 -0.09313134 -0.05953563 0.003655471 0.0036928281
-0.067627184 -0.0591019 -0.009075834 0.013728045 -0.0616204 -0.029632695 0.03226614 -0.014187591
0.029789621 0.053559326 -0.026233621 -0.02829977 -0.04358571 -0.044337153 -0.03961446 -0.028014347
-0.0029342412 -0.028602716 0.029011529 0.01927422 -0.04038255 -0.035333928 -0.044778988 0.0623151
-0.056486577 0.018625937 -0.094175786 0.043903112 -0.07020529 0.024983859 0.031378318 -0.042139843
-0.016724167 -0.08523249 -0.037780117 0.027426034 0.03640835 -0.05058284 -0.09895208 -0.07003971
0.019617543 -0.009182013 -0.058779344 -0.014401235 -0.03519284 0.021927817 -0.02036876 -0.02155465
0.020101719 -0.0049783206 0.04045009 0.013396215 -0.0033226032 -0.047688663 0.011952614 0.011329277
-0.03017021 0.04719338 -0.06841366 -0.03350395 0.014567018 0.014572463 0.003956854 0.008106127
0.016312508 -0.082965076 0.018896827 -0.00030634552 0.03954982 0.001785025 -0.025984313 0.042435847
0.01691702 -0.02151012 0.035397764 -0.03737597 -0.05754172 -0.03819394 0.022650428 -0.029767476
-0.028880723 0.019140745 -0.03340976 -0.05183188 0.0060913586 0.060347483 -0.005783335 -0.056971222
-0.006221656 0.043994017 0.0070316195 -0.025864512 -0.08279109 -0.013967946 0.03246784 -0.011134952
-0.07381284 -0.00944142 -0.03506315 -0.046882257 0.031967636 -0.04453311 -0.028333956 0.0305265
-0.0228713 0.016143901 -0.01043858 -0.06989827 -0.0018790677 -0.012063977 0.018401891 0.015588966
-0.05995772 0.01944689 0.022469636 -0.06342016 -0.05794418 -0.08113431 -0.039423835 -0.036506277
0.05985926 -0.04711206 -0.06690321 -0.077201806 -0.05633051 0.038104624 -0.001193621 -0.053904764
0.034458376 0.009508927 -0.027958045 -0.04650896 -0.03951567 -0.0010148888 0.033200752 -0.009385221
-0.042167008 -0.010219222 0.0049694777 -0.03892231 -0.043504193 -0.055074655 -0.0257795 -0.010466669
-0.04010943 0.016908944 0.004004039 0.001111944 -0.028254721 -0.07489578 -0.06629252 -0.01379619
-0.036247812 -0.028722115 -0.0024292767 0.030834556 -0.054138035 -0.055334397 -0.08170789 -0.019096166
0.054742076 -0.055037133 0.0351663 -0.08508822 -0.04663208 -0.036341935 -0.07893848 -0.001293667
0.01878166 0.010997679 -0.05887586 -0.055643074 -0.05338977 -0.0026290193 -0.010431312 0.0027070343
-0.011715196 0.025492057 0.05741348 -0.042251535 0.0017880052 -0.025796993 -0.07480992 0.023343138
-0.048395135 0.039686605 0.003302902 0.019608079 -0.041140374 0.017523171 -0.029266782 -0.060697712
0.030472733 0.056102186 -0.0008404987 -0.07269071 -0.0012609649 -0.082486115 0.038515106 -0.000103051294
0.017074276 -0.043068968 0.019258866 -0.014634606 0.05525192 -0.026565373 0.019196521 -0.015126695
-0.07270302 -0.08554977 0.036234193 -0.03426757 -0.0072867055 -0.0008977114 -0.048281435 -0.040597618
0.04397264 -0.051884726 -0.008897319 -0.07829938 -0.060121976 0.023142157 -0.009309821 -0.02629987

linear_acc.bias f4 [3]
00000000: c1cb abbd 33c7 dc3c f4a8 5fbd
-0.08388472 0.026950454 -0.054604486
